models/final_model.pt (torch_old, 810883 bytes, 9 tensors)

net.fc1.weight f4 [256, 17]
000000 60 2a 03 bc 99 1e 82 3c 5b 19 50 bc 69 92 e8 ba
       -0.008005708 0.01588373 -0.012701358 -0.0017743829
000010 ef 47 b5 3c 55 5d a3 3c ea c5 3b bc b7 6f 4b bc
       0.022129027 0.019941965 -0.011460761 -0.012416772
000020 fe f9 02 bc 4f 9e 5d 3b 27 a6 94 3a d0 53 f3 3c
       -0.007994173 0.0033816283 0.0011341021 0.02970305
000030 7b d3 b3 3b 43 8e 82 3b 82 2d 8b 3c e8 59 1f 3f
       0.005487857 0.003984244 0.016989473 0.6224656
000040 df 8a 28 bf 56 13 35 bc 3a e0 37 bd 9f f6 7c bd
       -0.658369 -0.011051973 -0.044891573 -0.061758634
000050 84 f6 6d bb 13 d2 50 3c 49 e3 c1 ba 1f bd 60 bd
       -0.0036310265 0.012745398 -0.0014792468 -0.05486786
000060 85 ea 60 bc 8b 2f b4 3c 49 59 d0 bc b5 97 2a 3c
       -0.013727789 0.021995327 -0.0254332 0.010412146
000070 3e d3 0e 3e d9 38 79 bc 2a 19 15 3d 5a a3 4f b9
       0.1394777 -0.015211307 0.03640095 -0.00019801912
000080 8d fc 14 3f 1b b1 42 bf 58 e1 d1 bc b9 80 88 bd
       0.5819786 -0.7605149 -0.025620148 -0.06665177
000090 21 f3 7c be 97 ca e9 bd e8 1e 8e be 99 b0 7f 3e
       -0.24702121 -0.11415594 -0.27757955 0.2496971
0000a0 82 d4 12 bf b7 de 9a bd f3 cb 0c 3e 9f 2c cb 3e
       -0.5735551 -0.07562011 0.13749675 0.3968248
0000b0 71 d0 85 3e 2e 14 a9 be 22 78 03 be 8c 0f 89 3c
       0.2613559 -0.33023208 -0.12838796 0.016731046
0000c0 40 cc ee bd 7b de a5 bd e1 7d b0 3d 6b d5 29 bf
       -0.11660051 -0.080990754 0.086177595 -0.66341275
0000d0 30 3e 70 be 0b 05 90 be 1d ed 1b 3e d0 54 74 ba
       -0.23461223 -0.28128847 0.1522717 -0.00093204994
0000e0 e9 82 a6 bc a4 93 ab 3c 50 7b 49 bd 42 91 c8 3d
       -0.020326095 0.020944424 -0.049189866 0.09793331
0000f0 e1 14 4a 3e f2 b4 63 3e 11 2d cc be bc 78 3e bc
       0.19734527 0.22236994 -0.39878133 -0.011625465
000100 cf 9d 34 3e 9c e3 16 bd b9 9e 6d bd 80 dc 9f bd
       0.17638324 -0.03683816 -0.058012698 -0.07805729
000110 7b 6e 24 bd 8a 2a 4d 3c b9 52 ee 3b 0f 94 ef bd
       -0.040144425 0.012522349 0.007273045 -0.11698162
000120 dd 75 45 3e 77 b1 b5 be 32 39 2c bd 47 dc f1 bd
       0.19283243 -0.35486957 -0.042046733 -0.11809593
000130 76 3e f0 bb 27 44 fe 3e 4f d7 c0 3e 24 d8 65 be
       -0.0073316647 0.4966137 0.37664267 -0.22445732
000140 a6 5c b8 3e 3d ac 15 bf 77 81 8c be 24 1c 87 bc
       0.36008185 -0.5846594 -0.27442524 -0.01649291
000150 e1 21 71 3e bd 6e 76 be c9 48 0a 3e 14 3e ba 3c
       0.2354808 -0.24065681 0.13504328 0.02273468
000160 23 ec d9 bd 86 f7 c0 3e 4a 1f db 3e 1b cb 93 3e
       -0.10640743 0.37688845 0.4279731 0.28865895
000170 7c 30 9d 3c 61 1d 9f be c3 8e 14 bf 8d be 1c 3e
       0.019188158 -0.31077102 -0.5803034 0.15307064
000180 a4 1f 07 3f a5 64 9a 3d 79 66 b9 bd 98 85 d2 bd
       0.52782655 0.07538728 -0.09052748 -0.10279387
000190 2c 0c 8f be ae d6 dd 3e d2 57 c6 be 61 40 68 3e
       -0.27938974 0.4332785 -0.38738877 0.22680809
0001a0 22 3b a5 3e 40 17 01 bf 58 24 bd 3e 02 60 af 3d
       0.32271677 -0.504261 0.3694179 0.08563234
0001b0 44 06 ff bd 43 04 14 bd 01 cc c5 be 43 cf 3d 3f
       -0.12452367 -0.036136877 -0.38632205 0.7414438
0001c0 f4 a6 6d bd fc 6d 1d be 73 05 62 be da 2b 05 3c
       -0.058020547 -0.15373987 -0.22072391 0.008128131
0001d0 dd fb ae 3e 38 42 fb 3b f0 c2 e8 3c 31 c6 bd 3d
       0.3417653 0.007667806 0.028413266 0.09266318
0001e0 97 e7 6b 3d 6b 29 2f 3d ad 62 9d 3d 95 65 06 bc
       0.05759391 0.04276411 0.076848365 -0.00820293
0001f0 5a a2 78 3c a3 db ea bb 57 6a a1 3b 7e 1d 28 bd
       0.015175426 -0.007167296 0.004926007 -0.04104375
000200 65 94 ca ba 7b fe 18 be 47 2f 1e be ed 9c db bc
       -0.0015455602 -0.14940827 -0.15447722 -0.026808226
000210 ae df 1f 3e 19 a3 0c 3b 36 6b 3a be 78 25 34 3f
       0.15612671 0.0021459518 -0.1820496 0.7036967
000220 96 96 1f bf 7d 34 2c be 55 fe 39 3f bc bf 30 bf
       -0.6233915 -0.16816898 0.72653705 -0.69042563
000230 fc 8a b0 3d fe 1f 7b 3e 37 2e b4 bd 55 3f 4a 3d
       0.08620259 0.24523923 -0.08797877 0.049376804
000240 66 58 f6 be 1c c9 c5 bd 03 32 86 3e 18 35 b3 3d
       -0.48114318 -0.09657499 0.2621003 0.08750361
000250 13 60 2e 3e 64 50 05 bc 2b a3 8b 3d 38 a1 3d be
       0.17028837 -0.008136842 0.06818231 -0.18518531
000260 9d 07 3c 3d 67 7e 23 be 8b 19 50 3d 47 0f 97 bc
       0.045905698 -0.15966187 0.05080561 -0.018439902
000270 05 b9 4d bd 3c 51 25 bd 8f c2 01 3d d4 70 d8 bd
       -0.050225276 -0.040360674 0.031679686 -0.10568395
000280 bb 20 3d bd e4 a1 82 ba ba ae 7a 3a 5c b2 48 be
       -0.046173792 -0.000996646 0.00095627795 -0.19599289
000290 ad fd a9 be ae bc 42 bd 21 ee e0 bc 15 d6 64 bd
       -0.33201352 -0.04754322 -0.027457299 -0.055868227
0002a0 e1 aa 30 3e 62 b3 6b 3e 87 11 6b 3c 9c 15 02 bc
       0.17252685 0.23017648 0.014347441 -0.007939722
0002b0 4d df e5 3b 37 36 ac bb 5c 1f 87 bb 13 f2 41 3c
       0.007015145 -0.0052554864 -0.0041236114 0.0118375
0002c0 7d 49 70 bc b7 67 be bb 1a 46 a6 3b 10 ab 1d bb
       -0.0146659585 -0.0058107036 0.0050742747 -0.002405826
0002d0 69 24 d1 3b 05 6d 87 bb 20 3f 56 3c 55 7e f1 3c
       0.0063825143 -0.004132869 0.013076574 0.029479185
0002e0 94 59 8b 3b f6 26 22 bf 7d 09 43 3f 6c 7d a1 3b
       0.004252622 -0.633407 0.7618635 0.0049282815
0002f0 65 9d 39 bd 30 f8 40 3b 21 f3 4b bb 9b bc bd 3c
       -0.04531612 0.0029444806 -0.0031120258 0.023161223
000300 39 2b 4c 3b 36 67 0d bd 95 da 0d bc e0 8c 2c bc
       0.0031153692 -0.034522258 -0.008658071 -0.010531634
000310 3d fb df 3a ab 8a e4 3b de 16 2d bc c1 7c 40 bc
       0.0017088425 0.0069745383 -0.010564534 -0.011748494
000320 6f a4 2d bc 14 1d 55 3c 0a 66 2a 3f 12 d0 23 bf
       -0.010598286 0.013007421 0.6656195 -0.63989365
000330 ed 15 33 be b0 4f d6 3d 95 71 2d be e5 05 1c be
       -0.17488833 0.10464418 -0.1693786 -0.15236624
000340 6d 61 2e be 7e 03 19 3e 26 c4 88 bd bf b3 ab be
       -0.17029352 0.14942738 -0.06678037 -0.33535573
000350 26 12 1b bd 4f 2c 1c bf 65 66 0e 3f f2 79 34 be
       -0.037859105 -0.6100511 0.5562499 -0.17624643
000360 bd 13 39 be 2e b6 a4 be d2 ba ef 3d c8 3d ec bc
       -0.18073936 -0.32170242 0.11705555 -0.028838053
000370 15 0d 59 3e cd e4 b6 3d af ad b2 bc e0 fa 9a 3e
       0.21196397 0.08930359 -0.021811334 0.30269527
000380 5d f0 17 3d 96 be 27 3e 81 fe ed 3e fe ec d7 bc
       0.037094463 0.16381297 0.46483234 -0.026358124
000390 e6 36 c1 bd d9 7b 8c 3d 68 34 e3 be f6 a2 10 3d
       -0.09434299 0.068595596 -0.4437592 0.03531166
0003a0 1d ab 9c be 50 ef f0 3c 7f 27 68 bd 54 35 8f bb
       -0.305993 0.029410988 -0.05667829 -0.004370371
0003b0 d7 8e 50 3c 2f 0a 3c bd fc 23 02 bd 9d 7b 8c 3d
       0.012729368 -0.04590815 -0.0317726 0.06859515
0003c0 a7 ef 33 bd e8 c6 b1 bc 0c bb 86 bd fe 8a 10 3c
       -0.043929722 -0.021701291 -0.06578645 0.008822201
0003d0 d8 3f a1 3d b1 78 f7 bb fb 0b 12 3b e9 62 e0 bc
       0.07873505 -0.0075522293 0.0022284973 -0.027390914
0003e0 65 98 96 bc 64 17 5c 3d f1 3f 90 3b 58 2c b1 bc
       -0.018383214 0.053733245 0.0044021537 -0.02162759
0003f0 13 98 a3 bc c8 fb 53 be 01 b5 40 3f 97 a4 8a bb
       -0.019969976 -0.20701516 0.7527619 -0.0042310464

net.fc1.bias f4 [256]
000000 bc 8d d2 bd 95 8b 37 3e dc 53 96 be 03 72 07 bf
       -0.1028094 0.1792434 -0.29360855 -0.52908343
000010 66 07 bc be 2e 09 1d bf a9 6b 1e bf 85 41 1d 3e
       -0.36724395 -0.6134213 -0.61883026 0.15357025
000020 b0 97 80 bf 44 7c 27 3e ab b5 94 3d 43 30 4f bd
       -1.0046291 0.16355997 0.07261213 -0.050583135
000030 bc ab 29 bf ca 71 9e be 6b 0f 0f bf 79 a8 0a bf
       -0.6627767 -0.3094619 -0.558829 -0.5416332
000040 78 f4 c4 be b0 63 5a bd 4b a0 67 3d 69 68 74 3d
       -0.38467765 -0.053317726 0.05654935 0.059669886
000050 66 62 83 3e 12 eb df 3c 82 dc a9 be f4 55 18 be
       0.2566101 0.02733377 -0.33176047 -0.14876539
000060 85 a7 0a be 04 b3 cb be 70 38 0a bf 09 85 bb be
       -0.13540466 -0.39785016 -0.53992367 -0.36624935
000070 e6 bf 9c be d4 71 20 3e d7 4a bc 3d 4d f7 03 bf
       -0.30615157 0.15668422 0.09193962 -0.51549226
000080 24 aa c3 bd 83 d5 85 3e cc d1 90 3e c1 8c d4 bd
       -0.09553936 0.2613946 0.28285062 -0.10378409
000090 17 65 34 bf 28 0e fd be 4e 83 80 3d ee 3e ee 3d
       -0.7046675 -0.49424863 0.062750444 0.11633097
0000a0 2e 18 31 3e 0f 69 97 3d a8 4e fe be 23 d6 0d 3e
       0.1729438 0.07393085 -0.49669385 0.13851218
0000b0 9c 3b 74 3d 72 2b b8 be 75 32 f0 3d 8d c3 89 3d
       0.05962716 -0.35970646 0.11728374 0.067267515
0000c0 f8 3e a3 be be f3 72 3d 80 97 58 bd e7 62 7b be
       -0.3188398 0.059314482 -0.052878857 -0.24549447
0000d0 4a 89 71 be 98 06 16 bf ef 5a b3 be bc 47 1f be
       -0.23587528 -0.5860381 -0.35030314 -0.15554708
0000e0 14 e6 e4 be 1a aa f9 3d 57 c6 89 3e 52 f8 1e bf
       -0.44706786 0.121906474 0.26909134 -0.62097657
0000f0 da 1d 32 3d 43 2e ea 3d a3 b2 27 bf bc 57 9b be
       0.0434855 0.11434605 -0.65506953 -0.30340374
000100 2a 59 95 bd 7f 44 69 bf e8 72 d1 be 51 81 fe be
       -0.07292397 -0.9112014 -0.4090798 -0.49708036
000110 a6 79 dd be 16 13 24 be c2 24 04 bf 3f cb de 3d
       -0.43256873 -0.16022906 -0.5161859 0.1087861
000120 11 92 08 3e a2 a0 31 be b6 21 e2 be 16 2b b1 be
       0.1333697 -0.17346433 -0.44166344 -0.34603184
000130 99 45 6e bd c5 69 ef bc 85 20 4a 3e c2 39 97 3d
       -0.058171842 -0.02922524 0.19738968 0.07384063
000140 c0 4e 58 be 44 44 e7 3d 82 b6 78 3e a0 c6 03 bf
       -0.2112379 0.112923175 0.24288371 -0.5147495
000150 c7 94 d3 be 85 0e 1a bf 41 f8 1f bf 4f cf 0b bd
       -0.41324446 -0.60178405 -0.6248818 -0.03413325
000160 a2 e0 80 bd da dd c6 3d 38 71 cd 3d 5e 0e b9 be
       -0.06292845 0.097102836 0.100313604 -0.36143774
000170 f7 24 89 be e4 77 fb be 30 c9 3a be 71 ec d3 be
       -0.26786014 -0.49114907 -0.1824081 -0.41391328
000180 c0 4a 32 bd 74 51 e5 be bd bf 2b bf ce ab a5 3d
       -0.04352832 -0.44788706 -0.67089444 0.0808941
000190 53 3a e3 be 81 aa e4 3d 36 b9 fe 3d 99 fb c7 bd
       -0.44380435 0.111653335 0.1243767 -0.09764785
0001a0 dd 99 6b bf 1f 30 32 bf b1 f9 0c bf 94 2d 0c bf
       -0.9203165 -0.69604677 -0.550685 -0.54757047
0001b0 c5 42 65 be 0a 54 7d be 3f 81 27 3e 22 5d be bd
       -0.22388752 -0.2473909 0.16357897 -0.092951074
0001c0 8a 25 e7 be d9 90 d4 be f7 e2 6f be a0 18 19 bf
       -0.45145828 -0.4151676 -0.23426424 -0.598032
0001d0 ec 79 fa be a5 54 eb 3d 22 d1 24 bf 77 59 57 3d
       -0.48921144 0.11490754 -0.6438161 0.052575555
0001e0 2a b9 5f 3e 6b 52 c9 be 9d 1b 7d be 33 2e 73 bd
       0.21847978 -0.39320692 -0.24717565 -0.05937023
0001f0 28 b8 21 be 1d 75 40 bf c9 d7 a8 3e 75 2c 3a 3e
       -0.15792906 -0.751787 0.3297713 0.18181022
000200 fc cb 59 3e 62 2b f9 be d9 64 21 be fb 46 82 be
       0.2126922 -0.4866591 -0.15761127 -0.2544478
000210 13 a2 93 be 47 ee d6 be ed 4c 22 bf 7e e0 ab be
       -0.2883459 -0.41978666 -0.6339863 -0.3356971
000220 17 72 7f be 1b 81 13 bf 8d e7 a4 be 5f c2 e8 be
       -0.24945866 -0.57618874 -0.3220791 -0.45460793
000230 4e d6 05 be 1b ea 0d 3e 08 da c6 be cb 5a be bc
       -0.13070032 0.13858835 -0.3883822 -0.023236653
000240 f8 7a 20 bf f2 ec 57 3d 8d 89 b7 bd 5e 16 8c 3d
       -0.62687635 0.052716203 -0.089617826 0.06840204
000250 54 7c 8c be 10 0e a5 3e b6 ea 25 bf d5 e0 c5 3c
       -0.27438605 0.3223729 -0.64811265 0.02415506
000260 f0 cf 77 bd 0d 4e 40 be 45 30 2d be 71 53 35 bf
       -0.06050104 -0.18779774 -0.16912945 -0.70830446
000270 8d 34 0b 3d 79 bb 18 3c 38 7d 95 be e1 d1 dd be
       0.033985663 0.009322041 -0.29197097 -0.43324187
000280 de 99 c3 be 9c a2 18 bf 74 25 51 3e b8 9d 36 be
       -0.3820333 -0.5962312 0.20424443 -0.17833602
000290 24 8d 79 be da 4a e3 be f8 d8 0f 3e 96 a2 13 bf
       -0.24370247 -0.44393045 0.14047611 -0.5766996
0002a0 e9 86 60 bd 53 e0 97 3d d4 b2 1b be 94 6f cb be
       -0.05481616 0.07415833 -0.15204936 -0.39733565
0002b0 7c 5d 02 bf 59 8e e3 be fb 1f 6a bd f6 49 d8 bd
       -0.50923896 -0.4444454 -0.057159405 -0.10560982
0002c0 88 bf 4b be 0c 45 9f bd 5e d7 f5 be e5 2f eb be
       -0.19897282 -0.077768415 -0.48015875 -0.45934978
0002d0 2b c5 ba be 8a 26 33 3e f2 e9 bb be 49 76 20 bf
       -0.36478552 0.1749517 -0.36701924 -0.6268049
0002e0 9d 4e ba be c1 6b a4 3d d1 e7 cc 3e 44 c5 cc bd
       -0.36388102 0.08028365 0.40020612 -0.09998563
0002f0 84 b7 0c bf 80 43 08 bf 79 51 4e 3e 4d d2 33 3d
       -0.5496752 -0.53227997 0.20148267 0.04390173
000300 be fd 26 bf 5d 8d 39 3e 74 31 03 3d e0 ec 69 bb
       -0.6523093 0.18120332 0.032029584 -0.0035694167
000310 4d a0 d6 be 45 1e 05 be 89 6b dd bd 3b e3 ec 3d
       -0.41919175 -0.12999828 -0.10811526 0.11566778
000320 e3 de 10 bf 51 58 9e bc 27 7f 2b bf ff 2a 12 bd
       -0.565901 -0.019329222 -0.66990894 -0.035685536
000330 df 59 06 be 60 70 ab be 04 8f 2c 3e 4b ad a3 be
       -0.1312022 -0.33484173 0.16851431 -0.3196815
000340 df 57 ed be dc d8 f0 3d a6 f0 94 3d 9e e3 c6 be
       -0.46356103 0.11760113 0.072724625 -0.38845533
000350 0e 9c e4 be 04 89 e2 be 4a ce 58 3e 0a ed e3 be
       -0.4465031 -0.4424516 0.21172443 -0.44516784
000360 42 ae f7 be 5a 5f 21 be dc 57 b5 3d 6d 46 fb be
       -0.48375136 -0.1575903 0.088546485 -0.49077168
000370 23 28 37 be 02 17 c0 be ed 70 4c 3d 4a 6c 81 3e
       -0.17886405 -0.37517554 0.049912382 0.2527793
000380 51 c9 dd be 87 53 39 be 34 5f 3f bf d8 b1 25 be
       -0.43317655 -0.1809827 -0.74754643 -0.16181123
000390 00 87 66 bb 84 f4 65 3d f2 86 37 bf 8d d7 12 3e
       -0.003517568 0.05614139 -0.71690285 0.14340039
0003a0 39 fe 1f bf 2d 72 36 bf 74 63 41 3d 2f a0 ce 3e
       -0.6249729 -0.7126797 0.047213987 0.40356585
0003b0 4d cc 3e 3e a9 38 e3 be 32 20 e0 be d6 87 14 bd
       0.18632622 -0.44379166 -0.43774563 -0.036262356
0003c0 82 ed 4f 3d ab 3c 21 3e 6c 3e 8b be 56 c7 76 be
       0.050763614 0.15745799 -0.27196062 -0.24099478
0003d0 67 88 81 be 26 cc be be c4 31 d8 3b cb 4f 53 bd
       -0.2529938 -0.37265128 0.0065977294 -0.05158977
0003e0 3b 97 7f be 33 c1 93 be 7b be d8 be 79 ff 0e bf
       -0.24960034 -0.28858337 -0.42332825 -0.5585857
0003f0 78 00 7e be 82 79 2d 3d b7 b1 5a be 19 d8 c8 be
       -0.24804866 0.042352207 -0.21356855 -0.3922737

net.fc2.weight f4 [256, 256]
000000 c2 6c 16 3c 80 85 de bb 5c 50 70 be f4 8b b2 be
       0.009181203 -0.006790817 -0.23468155 -0.348724
000010 e8 e4 a7 bd bd a9 df bd 2d 61 11 be 87 25 35 3e
       -0.08197957 -0.10921047 -0.14197226 0.17690097
000020 b8 3f d8 be a5 68 e4 bd b5 00 cc bd d1 ba 03 3b
       -0.42236114 -0.11152772 -0.09961072 0.0020100365
000030 78 e9 22 bd 2c 7c 8f bd f3 d8 02 3e 40 36 33 3e
       -0.039773434 -0.07006106 0.12778072 0.17501163
000040 b9 87 03 be f5 be 2d bd 8c ed df be a5 f5 03 3e
       -0.12844743 -0.04241844 -0.4373592 0.12886675
000050 75 10 95 be ad 17 6b 3d 76 8b d7 3d 61 8d 4d be
       -0.29114118 0.057395626 0.10524647 -0.20073463
000060 f2 81 36 3e 43 a6 e2 3d 05 05 97 be 8d e3 ff 3d
       0.17823008 0.11066868 -0.29496017 0.12494574
000070 85 bc e6 bd 45 e9 05 bd f5 fc 45 bd f2 bc 54 bc
       -0.11266426 -0.032693166 -0.04833694 -0.012984501
000080 50 27 3a 3e 02 a5 10 bd a0 44 f0 3a f1 cd 92 3c
       0.18179059 -0.035313614 0.0018330999 0.017920466
000090 88 0d 6b 3e 91 87 2f 3e 64 1f b6 bd 85 c6 4c 3c
       0.2295438 0.17141558 -0.08892706 0.012498503
0000a0 36 ca d3 3c 1d 8f 8c bd 37 d7 9a 3d 1f 7c c3 bd
       0.025853258 -0.06863234 0.0756058 -0.095451586
0000b0 0d 3c b4 bd 3a 1e 4b be ce d7 92 3c 9c 38 ef bd
       -0.08800516 -0.1983575 0.01792517 -0.11680719
0000c0 2a be 88 be 6b 02 c1 3d ca 24 da 3d ce d8 d9 bd
       -0.26707584 0.09424289 0.10651548 -0.10637055
0000d0 d4 b8 70 be bd 6e 25 3e f3 2e 67 3b 89 08 ce be
       -0.23508006 0.16155525 0.0035275787 -0.40240887
0000e0 f6 bf 16 3e 05 31 05 bd 7a 08 41 3d 80 7a 98 be
       0.14721665 -0.03251745 0.047127225 -0.2978096
0000f0 e9 26 c0 bc 0f 7b 07 be 3a e8 80 3e 26 8f e8 bc
       -0.023456054 -0.13230537 0.25177175 -0.028388571
000100 35 a1 04 3e a0 ad ee bd 74 57 d8 3d a5 91 01 3f
       0.1295212 -0.1165421 0.10563555 0.5061286
000110 45 25 06 3e 38 df a4 3d 01 34 07 be 5f 26 99 bd
       0.13100155 0.08050388 -0.13203432 -0.07478022
000120 9d 97 26 bd 33 8c d0 3d 09 e5 53 3e fc ae 28 3e
       -0.040671933 0.10182991 0.20692839 0.16473001
000130 70 a6 46 3c 3e 0c 06 bd fc 6b 13 bd b1 b5 85 3d
       0.012124643 -0.03272652 -0.035991654 0.065287955
000140 20 38 f7 bc 3d 19 3d 3d 2f 19 cf bb 6e dd 16 3e
       -0.03017813 0.046166647 -0.006320141 0.14732906
000150 a5 9d 8d 3d 20 2b 20 bd 01 07 8e 3d df 54 0d 3d
       0.06914834 -0.039103627 0.0693493 0.034504768
000160 77 2b 26 3d cd 2e 89 bd b2 45 2a 3e bb 72 a4 be
       0.040568795 -0.0669838 0.16628149 -0.32118782
000170 50 1e 04 be d4 56 19 3d 48 fb 04 be 76 79 ae 3d
       -0.12902188 0.03743632 -0.12986481 0.085192606
000180 f8 75 a0 bd 6f 1a f9 3d 50 65 be 3d e7 5a 7d be
       -0.07835001 0.12163245 0.092966676 -0.24741708
000190 49 0e b0 3d fc e3 13 3d b0 a5 52 be 65 d8 4c 3e
       0.08596475 0.036106095 -0.20571017 0.20004423
0001a0 bc ac a8 bd 25 5a 89 bd cd 57 bd be f4 e7 eb be
       -0.082360715 -0.06706647 -0.3698105 -0.46075404
0001b0 1e 1f 8f 3d de ed 7c bd c8 ee 58 3d ff 51 4d 3d
       0.06988357 -0.061750285 0.052962095 0.050127026
0001c0 fc e7 36 3d a3 8c fc 3d ff 41 b4 bd e8 9c 9d 3b
       0.04465483 0.12331512 -0.0880165 0.0048099644
0001d0 c8 4e c2 3d 07 d5 46 bd 12 ad 9f be 1e 1f 20 3e
       0.094876826 -0.048543002 -0.3118673 0.1563687
0001e0 7f f6 3a 3d 6d 7e 9d 3d 05 81 1e 3e 46 9c fd 3d
       0.045645233 0.076901294 0.15478905 0.123833224
0001f0 e3 8e 23 be ef cd b7 3e 23 cc 8b 3d 80 e3 dd bc
       -0.15972476 0.35899302 0.06826045 -0.02708602
000200 c1 71 54 be a5 10 b5 3c 3b ba 01 be 65 d8 40 3e
       -0.20746519 0.022102663 -0.12668698 0.18832548
000210 84 bc c6 bc 37 3d 23 be d2 2e 70 bd 26 45 a3 bd
       -0.024259813 -0.1594132 -0.0586384 -0.079721734
000220 5c 84 83 3e 0f 32 47 3e ce 81 2d 3e 87 77 8d be
       0.2568692 0.1945269 0.16944048 -0.27630255
000230 ce d4 d7 3d f2 24 3f 3d 12 07 b3 3d bf 09 9b bd
       0.10538636 0.046666093 0.08741583 -0.07570218
000240 7a b4 83 be 18 0e 96 bd f3 cb e8 3d fd a6 4f be
       -0.2572363 -0.07326907 0.11367025 -0.20278545
000250 08 31 fb 38 40 36 63 3c 77 36 97 bc a8 49 0e 3d
       0.000119777455 0.013867915 -0.018458588 0.034738213
000260 67 09 01 3e 74 0b 39 be 96 86 ed 3d 10 9e 6c be
       0.12601243 -0.18070775 0.11597936 -0.23107171
000270 77 8e 87 be 46 4f a6 bd cc 0b 83 be 02 4c 3d 3d
       -0.2647588 -0.08120589 -0.25594938 0.046215065
000280 31 68 97 bd f2 76 f2 bd 52 c3 00 3e 31 fd 91 bc
       -0.0739292 -0.11839093 0.12574509 -0.017820926
000290 74 b5 20 bc ef cc 2f be 08 c3 3b be eb 91 e5 3d
       -0.009808887 -0.1716802 -0.18336117 0.11209472
0002a0 30 2b 72 3d 8e 69 98 be ba 17 e0 be dc be ae 3d
       0.059123218 -0.29768032 -0.43768102 0.08532497
0002b0 78 ba 61 3e cb ad 10 3e d7 93 86 bd ff 24 0b bd
       0.22043788 0.14128797 -0.06571167 -0.03397083
0002c0 27 7d 3b bb 70 54 26 bd 98 49 f4 3c 9e c7 9f bb
       -0.0028608532 -0.04060787 0.029820248 -0.004876091
0002d0 f3 34 39 3e a5 9a 78 3d 45 13 db 3d 5f a5 1a be
       0.18086605 0.060694356 0.10697035 -0.15102147
0002e0 cb 0c 3a bd 1f 94 3a 3d d1 69 97 bd 07 9a 65 3b
       -0.045422357 0.045551416 -0.0739323 0.0035034434
0002f0 fb 8f f9 3d ab 84 53 bd 78 45 d4 be e6 b4 2a be
       0.12185665 -0.051640194 -0.4145925 -0.1667057
000300 d9 4f 2d 3e 6f 47 b1 bd fc 87 25 bd 04 76 d0 3d
       0.1692499 -0.08656203 -0.040412888 0.1017876
000310 3c 3e 3a 3e e1 bd 44 3e c6 28 8b 3d 4b c8 3e 3d
       0.18187803 0.19213058 0.06794886 0.046577733
000320 fd 58 77 3e 83 75 65 bc 05 a8 d4 bc 26 8c 76 3d
       0.2415504 -0.014005068 -0.025959024 0.06019225
000330 b6 09 c8 bc fe 5a e8 3d fe 62 99 bd b5 e3 8c 3d
       -0.024418693 0.113454804 -0.074895844 0.06879369
000340 4f de 4a 3e b4 12 b2 3d af e2 a8 bd dd 31 0c 3e
       0.19811366 0.086949736 -0.082463615 0.13690896
000350 2f 70 bb 3d 63 5a 38 3e 38 a8 84 3d 93 1e 8c bd
       0.09152257 0.1800323 0.06477398 -0.06841769
000360 96 77 10 3e 43 89 5e 3e ee f9 63 3d 1a de 16 3e
       0.14108118 0.21732049 0.055658273 0.14733163
000370 99 d9 08 3e f0 b2 25 3e 2d 10 3f be bb d0 fe bd
       0.13364257 0.1618154 -0.18658514 -0.12442156
000380 c0 ab 2c 3e c2 88 1e 3d c2 51 a5 3c 73 ad 58 3e
       0.16862392 0.03870464 0.020180587 0.21159916
000390 c3 66 f6 bc 20 31 17 3d ed e2 7f be e0 d9 af 3c
       -0.030078297 0.036912084 -0.24988909 0.021466196
0003a0 c1 74 03 be 13 7e ae be 73 c2 91 3c b2 f2 f8 bc
       -0.12837507 -0.34080562 0.017792916 -0.030389164
0003b0 eb 20 10 3c c5 05 e4 3e 47 e4 0d bf 63 dd 1b 3e
       0.008796911 0.44535652 -0.5542645 0.15221171
0003c0 ae a7 41 bc 99 2c e1 bd f1 be dd 3d e3 83 5d 3d
       -0.011819763 -0.109948345 0.10827435 0.054080855
0003d0 c8 c8 91 3d ff 33 24 3c fd fb a6 3c b4 f2 ea bd
       0.07118374 0.010022162 0.02038383 -0.11472073
0003e0 3d c4 42 be 6d 5c 40 be 80 b1 60 3e 88 75 fa 3c
       -0.19020171 -0.18785258 0.21942711 0.030573621
0003f0 13 ff 37 bd 2a 2a f6 3d 6b 5f 62 3d ab 42 2b 3e
       -0.044920992 0.12019761 0.05526678 0.1672465

net.fc2.bias f4 [256]
000000 a5 44 d3 be 6c 49 df be cd 86 63 be 0d 6f a0 3c
       -0.4126331 -0.43610704 -0.22219391 0.019584203
000010 49 8a f3 be 88 79 bd be 33 9c e5 bd 7d 56 51 be
       -0.4756644 -0.37006783 -0.11211433 -0.20443149
000020 86 5d 9c be 67 5e 91 be 3d 32 18 bf 4c 11 ea be
       -0.30540103 -0.28392336 -0.5945166 -0.4571632
000030 da 7f 05 3d d0 9f 44 bd 62 82 54 be 67 b0 97 be
       0.032592632 -0.04800397 -0.20752862 -0.29626772
000040 68 67 1d be 7d f6 a3 be f6 25 97 be 02 88 f3 be
       -0.15371478 -0.32023993 -0.2952115 -0.47564703
000050 6a a1 08 bd 37 9a 56 be 47 d0 d7 be 40 c2 8f be
       -0.03335706 -0.20957266 -0.4215109 -0.28077888
000060 79 6e a6 be cc 21 d5 bd e2 72 65 be 33 2c 2f bd
       -0.3250616 -0.10406837 -0.22407106 -0.04276676
000070 0c d2 ce be 9c d7 13 bf 1d ff bb be cb 7b 97 bd
       -0.40394628 -0.5775087 -0.36718073 -0.073966585
000080 47 84 92 be 22 37 60 be fa 1c cb be 54 60 8e be
       -0.28616545 -0.21896031 -0.39670545 -0.27807868
000090 52 eb 86 be dc 5d a4 3d 83 60 04 bf c1 d7 e8 be
       -0.2635141 0.08025715 -0.51709765 -0.45477107
0000a0 a9 8e bf be bf 45 28 be 35 0e 71 be ed 4e 07 bf
       -0.3741353 -0.16432856 -0.23540576 -0.52854806
0000b0 2d 2b de be c0 bf c5 3c 05 f5 30 be 9e 76 2b be
       -0.43392316 0.024139285 -0.17280968 -0.16744468
0000c0 8e f5 64 be 60 35 da bd ff 5f d9 be 5a a2 9a be
       -0.22359297 -0.10654712 -0.42456052 -0.3020199
0000d0 17 ac cf be 7d 66 b5 be 00 ad 9f be 4f 4c 6e be
       -0.40560982 -0.35429755 -0.31186676 -0.23271297
0000e0 ce 68 c5 be 28 5b f8 be e4 1c 60 be 86 4d 0f be
       -0.38556522 -0.48507047 -0.21886021 -0.13994417
0000f0 c4 ab d7 be 25 9c 1f 3e 17 94 ee be ac c7 ed bd
       -0.42123234 0.15586908 -0.4659736 -0.1161035
000100 94 b5 b6 be aa 31 03 bf 71 2d 8f be 49 9b 00 bf
       -0.35685408 -0.51247656 -0.27964357 -0.50236946
000110 4c 4c 16 bd 41 f7 67 be a1 2b bc be ac 5d 00 bf
       -0.036693856 -0.22652914 -0.36752036 -0.5014293
000120 aa 7d 70 be fd d5 12 bf 6f ca eb be a1 9e 38 3e
       -0.23485437 -0.5735777 -0.46052882 0.18029262
000130 d1 f6 43 be 6f 6f d5 be 21 b0 8d bd 17 2a 9d be
       -0.19137122 -0.4168658 -0.069183595 -0.30696175
000140 88 b6 60 be b8 de 07 bf e0 50 15 bf 2a 67 b7 bd
       -0.2194463 -0.53074217 -0.5832653 -0.08955224
000150 84 5c ac be 75 e6 68 be 52 d3 97 be af 3d 0a be
       -0.33664334 -0.22744162 -0.29653412 -0.13500093
000160 e9 c8 fc be 78 50 5c 3e b8 54 6f bd 0a 9e 55 bd
       -0.49372032 0.21515071 -0.058430403 -0.05215267
000170 6d 19 c2 bd 28 09 71 be a2 c7 00 bf 2b 63 6a be
       -0.09477506 -0.23538649 -0.50304615 -0.22889392
000180 22 67 f9 be a9 46 d4 be c0 ae 9e be dd 2f 4a bc
       -0.48711497 -0.4146016 -0.309927 -0.012340513
000190 bc 1b 3f bb 2d 9b 59 bd 68 dd 12 bd e1 e7 c9 be
       -0.0029160818 -0.053126503 -0.03585568 -0.39434722
0001a0 23 9b f1 be 8d 67 9f be 83 c0 53 bf 5f 03 8f be
       -0.47188672 -0.3113369 -0.82715625 -0.2793226
0001b0 6a 4a dd be bb a6 ff bd f7 1e 96 bd 95 3f f3 be
       -0.43220836 -0.12482973 -0.07330125 -0.47509447
0001c0 ce aa 17 be a9 23 08 bf 6d 2f 85 be fe 1f ad be
       -0.1481125 -0.53179413 -0.26012745 -0.3381347
0001d0 b4 be 4d be 78 d6 01 bd a6 24 29 be 3a 1b c6 be
       -0.20092279 -0.031698674 -0.16517887 -0.38692647
0001e0 74 d6 b8 bd 0b 12 8d 3e ef a2 61 be 6e 31 37 be
       -0.09025279 0.27552828 -0.2203481 -0.1788995
0001f0 fb c5 ab be b3 6f 96 bd c6 14 40 be ca 48 2d be
       -0.33549485 -0.07345524 -0.18757924 -0.16922298
000200 0e 48 4b 3e e7 18 1d be 23 8a 50 3e 88 0f 89 be
       0.19851705 -0.1534153 0.20365195 -0.26769662
000210 d7 ae de be 2c eb 8b be 58 db 5e be fc d1 e9 be
       -0.43492767 -0.2732786 -0.2176336 -0.45668018
000220 64 07 d0 be 1c 70 c5 be f8 50 5f be 66 f2 1a bf
       -0.4063064 -0.38562095 -0.21808231 -0.6052612
000230 d9 4f 00 bf 91 d9 61 be c8 44 8a be 35 dc 88 be
       -0.5012184 -0.22055651 -0.270056 -0.26730505
000240 7d a6 2e be 09 23 25 bd 44 9e f2 be c0 9e f3 bb
       -0.17055698 -0.040316615 -0.47386372 -0.007434696
000250 e5 b5 c8 be 0c 71 ad be 5b 57 8c be 0a 1b b8 bd
       -0.39201275 -0.3387531 -0.27410397 -0.08989532
000260 c7 b2 c2 be b5 23 d2 be b0 09 e4 bd 22 66 d4 bd
       -0.3802702 -0.41042867 -0.1113466 -0.10371043
000270 23 1b e7 3c ef ff eb be f6 f8 5a be 25 bc 7f bd
       0.028211182 -0.460937 -0.21384034 -0.062435288
000280 81 ae 9a be d1 41 cc be 68 53 8e be cf a6 87 be
       -0.3021126 -0.39893964 -0.2779801 -0.26494452
000290 23 a9 10 bf 83 4b 0d bf 0f 8a d4 bd 6e 69 34 be
       -0.5650808 -0.55193347 -0.10377895 -0.17618343
0002a0 f8 2f 38 be 2b 86 3f be c4 79 a2 be c5 b4 7f 3d
       -0.17987049 -0.18703525 -0.31733525 0.062428255
0002b0 49 85 f9 be 53 14 8c be 46 9b 25 bf 19 30 0f 3b
       -0.487345 -0.27359256 -0.64690053 0.0021848737
0002c0 83 86 b3 bd 97 80 f8 be db c6 e2 be a0 66 eb be
       -0.087658904 -0.48535606 -0.4429234 -0.45976734
0002d0 a4 24 ce be bd 32 c2 be a6 b0 7a be 0c 84 e6 be
       -0.4026233 -0.37929335 -0.24481449 -0.4502262
0002e0 91 fc c2 bd 54 af 13 bf 99 4a 0c bd d4 b2 3c be
       -0.095208295 -0.57689404 -0.03425083 -0.18427593
0002f0 8e c5 ad be 98 be e8 be d0 ed 24 bf f0 c9 8a be
       -0.33939785 -0.45457911 -0.64425373 -0.2710719
000300 a0 59 2c be 9f b2 85 bb 20 66 95 be 84 1f 6c be
       -0.16831064 -0.004080131 -0.29179478 -0.23058897
000310 60 ea aa be 37 cc a5 be 97 a9 c3 be 14 68 cf be
       -0.3338194 -0.32382366 -0.38215324 -0.40509093
000320 54 80 a0 bb f3 57 b5 be 12 3e d8 3c 2f a7 7c be
       -0.0048981104 -0.35418662 0.026396785 -0.2467315
000330 ef 89 f9 be f1 d9 9c be 3e 92 e4 be a6 6f cf 3d
       -0.48738047 -0.30635026 -0.44642824 0.10128717
000340 7b cc 6b 3d 6c 0b 10 be a4 d6 11 be 6c a5 e8 be
       0.057568055 -0.14066857 -0.14242035 -0.45438707
000350 91 e3 63 be 3b 19 e1 3d 4f 54 a9 be 78 f0 21 be
       -0.22254778 0.109911405 -0.33072135 -0.15814388
000360 08 81 95 be ff a1 f6 be d0 87 83 be a6 84 bf be
       -0.29200006 -0.48170468 -0.25689554 -0.3740589
000370 61 b5 51 be de e4 97 be 15 53 e9 be 4c 4f b4 be
       -0.20479347 -0.296668 -0.455712 -0.3521675
000380 f7 d5 80 be 07 33 bd be e6 b6 fe bd df 81 16 bd
       -0.25163242 -0.36952993 -0.12437229 -0.03674495
000390 0d 18 e4 be 4a f2 ab be 6f 5e a8 bd 35 00 eb be
       -0.445496 -0.3358329 -0.08221137 -0.45898595
0003a0 2a ea 84 bc 8f ce f1 bc 4c 5e 13 be f5 13 06 3e
       -0.01622494 -0.02951744 -0.1439144 0.1309355
0003b0 3f 26 5f be 4e 99 70 be f5 70 9f bc ae 28 cb bd
       -0.21791933 -0.23495981 -0.019463042 -0.099198684
0003c0 89 3b e7 be d9 6e 87 be 6e 03 4d bd 76 01 e9 be
       -0.4516261 -0.26451758 -0.0500521 -0.45508927
0003d0 f0 9d 2c 3e 74 54 a6 be 03 ea 5f be 63 e5 3e bb
       0.16857123 -0.32486308 -0.21866612 -0.0029128424
0003e0 db c8 5d 3d bb 33 20 bb ee c8 45 be 4c 82 98 be
       0.05414663 -0.0024444896 -0.1931493 -0.2978691
0003f0 e7 07 c0 be 93 11 8d be ab 1c e2 be ce 0b be be
       -0.3750603 -0.2755247 -0.44162497 -0.3711838

net.fc3.weight f4 [256, 256]
000000 8d 84 71 bd 6a b9 05 3e af 8e 92 3d bc e5 43 be
       -0.0589643 0.13059011 0.07156121 -0.19130605
000010 33 71 72 bd 2e d0 46 be 80 80 82 bb b9 47 80 bd
       -0.059189986 -0.19415352 -0.0039826035 -0.0626368
000020 89 53 bd 3c c7 78 85 bd de 05 00 3e 7c dd f6 3d
       0.023111122 -0.06517177 0.12502238 0.120539635
000030 53 98 1e 3b a1 c9 04 be f7 3f d1 3d c1 0f 0d be
       0.002419968 -0.1296754 0.102172785 -0.13775541
000040 92 5e 61 be 57 04 f7 bc 90 5b 4b bd c4 27 1f 3e
       -0.22008732 -0.030153437 -0.049647868 0.15542513
000050 42 56 1a be 12 35 12 bc d1 27 20 3c 39 4f 09 3d
       -0.15071967 -0.008923786 0.009775118 0.03352282
000060 99 13 80 3d 13 3b c9 bd c3 e8 52 3d db 4c 9c 3d
       0.06253738 -0.09825721 0.05149151 0.076318465
000070 ae c8 61 3e a5 de 46 3e 78 ae 69 3e ee d9 6a 3e
       0.2204921 0.1942087 0.22820461 0.22934696
000080 b5 09 c3 3e 84 66 8a bd 50 3a 18 be 9e 97 23 3d
       0.38093343 -0.067578346 -0.14865994 0.039939515
000090 a6 5e 3b be d3 22 0d 3d f9 d9 2d 3d 44 fc b8 3d
       -0.18297824 0.03445704 0.042444203 0.09032491
0000a0 94 46 7b 3c 4f e1 87 3b 8b c4 eb bc ef eb 13 3e
       0.015336651 0.004146732 -0.028780242 0.1444547
0000b0 6e 6e b9 3d d3 94 1b 3e 0e 91 ad 3d dd 22 05 3a
       0.09054266 0.1519349 0.084749326 0.00050787424
0000c0 a4 e9 1a 3e 78 86 dc bd 63 7c 02 3e 06 52 dc bb
       0.1512819 -0.107678354 0.12742762 -0.006723645
0000d0 7b 90 cb bc e0 8c b4 be c2 50 09 3d bc f0 40 3d
       -0.024849167 -0.3526373 0.033524282 0.047104582
0000e0 e4 36 ad bd b1 d7 19 3d 7f c7 34 3e 27 9f 4c be
       -0.08457735 0.037559215 0.17654227 -0.19982587
0000f0 6c 4d 73 3e 13 02 a3 bd 90 25 df 3d 57 be 71 3d
       0.23760003 -0.0795938 0.10895836 0.059019413
000100 ff 08 32 3e 0f 8c cd 3d 2a 93 26 bd 04 61 bb 3e
       0.17386244 0.1003648 -0.04066769 0.36597455
000110 07 a4 b4 bc 25 d6 c5 bd d0 f3 cf bc 92 2d 49 3e
       -0.02205087 -0.096599855 -0.025384814 0.1964629
000120 4b 45 52 3d 2a e3 0a 3e 60 f5 53 be fa d9 2f 3d
       0.051335614 0.13563219 -0.20699072 0.042932488
000130 3a da 9a 3d 4d 09 df bd 6f 50 34 3c 2c 6e 93 3d
       0.07561155 -0.10890446 0.011005505 0.07198748
000140 58 13 fb bd 8b b6 55 3e 60 e3 bc bd cc 17 e5 bd
       -0.12259549 0.20870416 -0.09223056 -0.111861795
000150 ef c3 9c bd 5f f2 08 3c 65 6b 54 bd 1c 9e 3a bd
       -0.07654559 0.008358567 -0.051860232 -0.04556094
000160 17 5e 3e 3e e3 1a da bd 21 64 56 be c1 81 a7 3d
       0.1859058 -0.106496595 -0.20936634 0.081790455
000170 e5 78 ea 3c 0f 8e 4c be 22 8e 88 3e 29 e8 b3 bd
       0.0286221 -0.19976066 0.2667094 -0.087845154
000180 55 67 59 3c 0e 8e 4a 3d bd fb 94 3e 00 e7 a7 3d
       0.013269265 0.04945188 0.2909831 0.08198357
000190 10 fb d6 bc 22 05 ef bd 56 20 56 bc f4 60 59 bd
       -0.026242763 -0.11670901 -0.013069233 -0.053070977
0001a0 05 d6 b9 bd ee d8 6d bd f1 79 95 3e 36 92 b4 be
       -0.09074024 -0.05806821 0.29194596 -0.352678
0001b0 53 c5 cc 3c 3b 98 8e bd 45 5d 54 bd b5 a4 0c 3e
       0.024996435 -0.069626294 -0.05184676 0.13734706
0001c0 f8 9b c9 bc f8 82 19 bc e7 da 87 bb a3 2f d7 be
       -0.024610505 -0.009369604 -0.0041459682 -0.4202853
0001d0 9d 0b 93 be 26 bc 22 3e df a7 a6 bd b3 2f 57 3d
       -0.28719798 0.15892085 -0.081374876 0.052535724
0001e0 c0 c7 13 be 83 80 d2 bd 56 8c 7a 3d 3d 10 4a be
       -0.14431667 -0.10278418 0.06116899 -0.19732757
0001f0 bf e2 38 3d 04 9b 07 bd c9 c9 a5 3b 26 5f aa 3c
       0.045138117 -0.03310682 0.005059455 0.020797323
000200 f4 92 f8 bc 62 98 93 3e a2 56 9a bd ab 69 45 3d
       -0.03034351 0.28827196 -0.07536055 0.048196476
000210 a5 2e 15 3c 09 af 7e be 5e eb 33 bd c9 71 06 be
       0.009105359 -0.24871458 -0.043925636 -0.13129343
000220 9a 4a 83 3e f5 9f 29 3e df b0 5e be b6 d1 54 3d
       0.25642854 0.16564925 -0.21747158 0.05195781
000230 0b 46 92 3c 92 87 c3 bd e9 74 76 be 06 76 34 be
       0.017855665 -0.09547342 -0.24068035 -0.17623147
000240 c5 0d c1 be 24 e2 ca be 89 9e c0 3d 3e 40 7a 3d
       -0.37705818 -0.39625657 0.09405238 0.061096422
000250 79 b6 b2 bd 6e 35 e4 bd a0 8a 2c 3e 2e 9e 49 be
       -0.0872621 -0.111430034 0.16849756 -0.19689247
000260 91 42 ce 3d 0b ed 5a 3e 57 12 90 bd 1e 89 20 3e
       0.1007129 0.21379487 -0.07034748 0.15677306
000270 88 2d e2 bd b1 2f 00 3e 61 ea 23 3d 42 b7 58 bd
       -0.11043841 0.12518193 0.040018443 -0.052909143
000280 03 98 09 bd 81 9b 2a 3e 4b eb 0e bf 46 0f 08 bc
       -0.033592235 0.16660883 -0.5582778 -0.008304423
000290 b8 23 2e bd 76 36 ff bd 8c 98 5b bd 06 f8 b6 bc
       -0.042514533 -0.124615595 -0.053612277 -0.022335064
0002a0 a5 84 80 bd fe 43 4f be da ea 8c 3c 67 96 26 bd
       -0.062753 -0.2024078 0.01720183 -0.04067078
0002b0 d6 53 f3 3c e0 56 f2 bd e6 4c ac 3e af 57 34 be
       0.029703062 -0.11832976 0.3365242 -0.17611574
0002c0 c8 bf e0 bd 86 b6 6d 3d b1 39 50 be 82 d0 1c 3e
       -0.10974079 0.058035396 -0.20334508 0.15313914
0002d0 16 f5 16 be fb fe fd bd e6 c4 fd bc 89 6b 26 be
       -0.1474193 -0.12402149 -0.030977678 -0.16251959
0002e0 7a e7 b6 be c3 d4 00 3e e3 ad 33 3c a8 12 14 be
       -0.35723478 0.12581162 0.010966751 -0.14460242
0002f0 4a 17 84 3c 62 ac 1f 3d 85 3c bb 3d 28 fa 9a 3e
       0.016124386 0.038982756 0.091424026 0.3026898
000300 f3 44 da 3d 91 4a 93 bd 1c 9d 27 be 4e 0e 5b be
       0.10657682 -0.07191957 -0.16368526 -0.21392176
000310 9e 13 1c 3e 5e 3a 13 bd c4 2e 95 3e b5 72 8f bc
       0.15241858 -0.035944335 0.29137242 -0.017510751
000320 75 c5 68 be 86 e4 d0 3d 32 cb 9a bd 4c d6 21 3c
       -0.22731574 0.101998374 -0.07558288 0.0098777525
000330 52 6f 13 3e 05 d9 dc bc 08 54 1a 3d e3 9c 42 be
       0.14397934 -0.026958952 0.037677795 -0.1900516
000340 b5 08 e6 bd 64 cf 89 be 54 0b b7 bd df d9 5d 3b
       -0.112321295 -0.2691604 -0.089377075 0.0033851785
000350 a3 63 17 3d bd a5 7e be 01 16 cd 3e 9e bd 54 be
       0.036960255 -0.24867912 0.4005585 -0.20775458
000360 d7 23 5d 3d af 88 ea 3c 27 d6 3b 3d 97 7e 9d 3c
       0.053989258 0.028629629 0.04585853 0.019225402
000370 26 7e f3 bd 3f e2 da bd 30 15 08 be 72 c1 14 3e
       -0.11889295 -0.10687684 -0.13289332 0.14526919
000380 75 43 ed 3c ae c4 7b be 22 ce 05 3d 15 65 85 be
       0.02896283 -0.24586746 0.032667287 -0.26053682
000390 91 45 2a bd 4e 6d 11 3d 5f 7c 8d be 4b a6 2a be
       -0.04157025 0.03550463 -0.2763395 -0.16664998
0003a0 19 20 8b 3d 0b 67 7f bd 87 26 f6 bb ea 35 a5 3d
       0.067932315 -0.06235413 -0.007511917 0.08066924
0003b0 e5 d2 a5 3e 39 b3 f4 bd 51 df fe 3c 20 c3 2b be
       0.32387462 -0.119482465 0.031112345 -0.16773653
0003c0 aa d2 36 3e 5c d0 e5 3c 37 38 7b bd a8 f2 4a bd
       0.178538 0.028053455 -0.061332908 -0.04954782
0003d0 84 4e 40 3d 0b 2f 1a be b9 60 ad bd d1 06 a5 be
       0.04694988 -0.15057008 -0.08465714 -0.32231763
0003e0 5b 4c a5 bc cf b3 1e bf 8e 3f 5d be 24 aa e9 3d
       -0.02017801 -0.61993116 -0.21606275 0.11409405
0003f0 7a 6d 10 be be f8 20 bf 93 2d 59 be 78 9d de bd
       -0.14104262 -0.6287955 -0.21208791 -0.108698785

net.fc3.bias f4 [256]
000000 dd ab 5b be 0a 57 b5 be 30 ed 24 bd 19 ad 32 3d
       -0.2145228 -0.35417968 -0.040265262 0.04362211
000010 59 73 17 3c 0e ec 96 be 27 54 75 be 45 4f d3 be
       0.00924381 -0.2947697 -0.23957883 -0.41271415
000020 f3 fb c6 3c 6a 5b 15 3e 7e b4 aa be 9a da b3 3d
       0.02429006 0.14585653 -0.3334083 0.08781929
000030 ba 64 40 bf 27 81 e2 be e2 33 0b bf 56 23 96 3c
       -0.75153697 -0.4423916 -0.5437604 0.018327396
000040 fc 3d ed be 7a 4e 90 be 18 cb 03 bf 45 35 cc 3c
       -0.46336353 -0.28184873 -0.5148177 0.024927745
000050 97 f9 83 be 7e 3b 4c 3d 4d 55 68 bf 2d 80 cf be
       -0.2577636 0.049861424 -0.9075516 -0.40527478
000060 5e 70 00 3e 55 b7 73 bd 9f 35 29 be a5 be 6d be
       0.12542865 -0.05950101 -0.16524361 -0.23217256
000070 1a b4 14 bf d0 7a a8 be e4 5e 0f bd eb 2b b4 be
       -0.58087313 -0.32906199 -0.035002604 -0.35189757
000080 17 f5 12 be 67 9c 8d bd fc da 60 bd 28 4a 47 be
       -0.14351307 -0.06914597 -0.05489634 -0.19461882
000090 c7 0d 68 be ea e5 91 3d 95 2e 12 be 89 c3 84 3d
       -0.22661506 0.07123931 -0.14275582 0.06482608
0000a0 af b4 8e be be bf 9b bd 2b 06 98 3c f5 f8 ca bc
       -0.27872226 -0.07604931 0.018557629 -0.024776915
0000b0 95 5f 91 bd f6 2f be bd ba 1c fc bd 9b 9f a0 be
       -0.07098309 -0.092864916 -0.12310167 -0.3137177
0000c0 0a 85 e9 be c2 79 89 be 83 11 a5 be 53 95 7e bd
       -0.45609313 -0.26850706 -0.32239923 -0.062154125
0000d0 d4 5f 68 be 66 ef 26 bd 8c 14 91 be 16 8c 70 bd
       -0.22692806 -0.040755652 -0.2833599 -0.058727346
0000e0 57 05 36 3e 90 97 bb bd 00 f2 ab bd 0c 82 67 be
       0.17775474 -0.09159768 -0.08395767 -0.22608203
0000f0 0d 75 0c be e0 aa 0b bf e6 ae 88 be e9 0b cc 3c
       -0.13716526 -0.5455761 -0.26695937 0.024908023
000100 23 e3 9f be 0f 07 00 3e cf 88 8f 3d 46 91 e9 be
       -0.3122798 0.12502693 0.07008516 -0.45618647
000110 e0 d7 af bd b6 b1 76 bd 56 b9 48 be 1c 74 a2 be
       -0.08586097 -0.060228072 -0.1960195 -0.3172921
000120 e4 0d 66 3e 5b 39 0c be 2f cc 5c bf 8c ae a7 bd
       0.22466236 -0.13693754 -0.8624906 -0.08187589
000130 5f ab 56 3d c8 9b 7e be c5 a3 8c be 9d 4d ad 3d
       0.052409526 -0.24864113 -0.27468696 0.08462069
000140 ce 9c 37 3d ce 3e 1a be ef 9d c3 bd ff 2b b1 bd
       0.044827275 -0.1506302 -0.09551608 -0.0865097
000150 e6 11 00 bd 1d 2f b9 3d 2f de 4a 3e a0 6f d3 be
       -0.03126707 0.09042189 0.19811319 -0.412961
000160 ce 20 ea be 88 6f 37 be 51 79 9b be c6 9b 0f bd
       -0.45728153 -0.1791364 -0.30365995 -0.035060667
000170 8c f2 6a 3e 30 6a 1f 3e 41 2a 88 3e 8d ee 42 3e
       0.22944087 0.15567851 0.26594737 0.19036312
000180 c6 39 74 3d 4c 8a 52 be d6 24 68 be 85 bf 9f 3c
       0.05962541 -0.20560569 -0.22670302 0.019500503
000190 53 05 85 be 21 f5 f9 3b bc 78 cd be b2 70 c3 bd
       -0.25980625 0.0076280986 -0.40131176 -0.09542979
0001a0 8a f2 7f bc 5e 9b fe bd 8e 68 52 3d 1e 85 91 3d
       -0.015621791 -0.12431978 0.051369242 0.07105468
0001b0 6e b9 96 be d2 d3 90 be 88 8d 03 be b3 61 e8 bd
       -0.29438347 -0.28286606 -0.12846959 -0.1134676
0001c0 e4 c0 a6 be 10 49 94 be 71 78 67 3d e1 ba c8 be
       -0.3256904 -0.28961992 0.056511346 -0.39205077
0001d0 21 5f ed bd c2 64 a6 be ed 0b 89 bd 1f 83 c1 3d
       -0.1159041 -0.32498747 -0.06691728 0.094488375
0001e0 1c 88 bd 3b 3a da d9 be 70 c7 77 be c1 e0 e1 be
       0.005784048 -0.42549306 -0.24197173 -0.44116786
0001f0 6f 64 39 be ae de 9a be 94 0b 88 be 92 9b fc be
       -0.18104719 -0.30248016 -0.26571333 -0.4933744
000200 1c 68 24 bb fe d2 71 bc 39 bc c4 bd 76 e3 5e 3d
       -0.0025086468 -0.014759777 -0.09606213 0.054416142
000210 2d ec bf be 8c 25 e8 3d 39 5c 95 be b4 9c 99 be
       -0.37484875 0.113352865 -0.29171923 -0.30002367
000220 67 93 02 bf 32 e8 67 be 44 8c 06 3e 74 53 14 bd
       -0.5100617 -0.22647169 0.13139445 -0.0362124
000230 b4 96 94 be 55 ee 2a bd 22 41 a9 be 49 1f d5 be
       -0.29021227 -0.041731197 -0.33057505 -0.4162543
000240 d6 05 eb bd 6f 93 19 be 77 f3 e2 3d f6 9f 49 be
       -0.114757225 -0.14997648 0.110815935 -0.19689927
000250 1a 3f ca bd 74 2d 33 be f5 20 60 3d 9e 42 53 be
       -0.09875317 -0.17497808 0.05471893 -0.20630881
000260 90 4b e1 be 95 ea 75 be c0 bf 2b ba 64 ad a5 be
       -0.44002962 -0.24015267 -0.00065517053 -0.3235885
000270 1d 78 6a be ab 6e f8 be 7e ee 96 be 7f 12 30 bd
       -0.22897382 -0.48521933 -0.2947883 -0.04298639
000280 24 fc d7 3c 7f 87 1a bd d4 2e 99 39 94 2a dd bd
       0.026365347 -0.037726875 0.00029217324 -0.10799137
000290 8f 60 05 bd 52 ba 43 be 5e e8 6d be a9 c5 38 bd
       -0.03256279 -0.19114044 -0.23233172 -0.04511038
0002a0 31 ac 6c bd c0 f7 92 be 10 bd 22 be 22 c2 4b be
       -0.057781402 -0.28704643 -0.15892434 -0.19898275
0002b0 89 dd 45 be ac dd 30 bf 57 d6 3b be 31 01 8b be
       -0.1932279 -0.69088244 -0.18343483 -0.27149346
0002c0 54 d3 78 bd 40 47 12 b9 57 77 6d bd cc 58 28 be
       -0.060748413 -0.00013950188 -0.05797514 -0.16440123
0002d0 28 4b a5 be 0d 57 04 3c 37 30 a7 be 58 06 00 3e
       -0.32283902 0.008077395 -0.32653973 0.1250242
0002e0 b5 bc 34 be 0f 1c 45 be 8d cb fb be ec 44 94 be
       -0.17650111 -0.19248985 -0.49178734 -0.28958833
0002f0 4b 6d 26 3e 52 13 a6 bd c7 02 21 be 0d 57 9d be
       0.1625263 -0.08109154 -0.15723716 -0.30730477
000300 92 4e a1 be da 53 1a be ec a3 09 be ec 05 c0 bb
       -0.31505257 -0.1507105 -0.13441437 -0.005860081
000310 88 49 51 be 3f 47 c1 be 41 50 67 be 86 08 57 3e
       -0.20438206 -0.3774967 -0.22589208 0.20999345
000320 4d 22 ae be 3e cc 68 be a8 59 8f bd ed 9a 82 be
       -0.34010544 -0.22734162 -0.069995224 -0.25508824
000330 32 81 06 be 2a d2 a2 bd 2e ca 2f be c3 1f 04 3d
       -0.13135222 -0.07950242 -0.17166969 0.032256853
000340 8e e8 2d be 65 7d be bb 5a 67 56 be 57 5b d3 be
       -0.16983244 -0.005813288 -0.20937863 -0.41280624
000350 48 a3 a8 be 8c f2 df be be f1 02 3d 61 9d dd be
       -0.32937074 -0.43739736 0.031968825 -0.43284133
000360 8f 14 0d bf 71 c6 68 be b1 51 1a bd 3b f3 95 be
       -0.55109495 -0.2273195 -0.037675563 -0.29287133
000370 de 7e e5 3d e0 a5 12 bc 14 fe 98 be 13 92 c6 be
       0.112058386 -0.0089506805 -0.29881346 -0.3878332
000380 54 b3 58 be 37 25 e8 ba c7 d5 8b 3d 59 c7 83 be
       -0.21162158 -0.0017711286 0.06827884 -0.25738028
000390 b7 92 ce be 86 fc 05 be 40 7b 07 bf 13 b5 c3 be
       -0.4034631 -0.13084611 -0.5292244 -0.38224086
0003a0 12 31 2e be f8 2a f4 ba 33 2b cc 3c 9e 08 3f be
       -0.17010906 -0.0018628528 0.024922943 -0.18655631
0003b0 ed e0 01 3e b3 0f 54 be f9 de 46 be 79 a6 54 bd
       0.12683459 -0.20709114 -0.19420995 -0.051916573
0003c0 73 68 9b bd 7c 98 0b bd 87 c5 a4 bc 72 0d 93 3d
       -0.075882815 -0.034080967 -0.02011372 0.07180299
0003d0 1b 33 e0 3c 1a bd 64 be 6b 19 cd 3d 21 a7 1a bf
       0.027368119 -0.22337762 0.10014614 -0.6041127
0003e0 63 db 35 be 9b 65 91 3c 23 64 b9 be a2 4d ce b8
       -0.1775947 0.017748645 -0.3620921 -9.837306e-05
0003f0 ff 08 d8 ba 33 90 8a bd 5a 6c 11 be 87 81 dc be
       -0.0016482173 -0.06765785 -0.14201489 -0.43067572

net.fc4.weight f4 [256, 256]
000000 48 75 f8 bb f8 75 2c be 04 1e a4 3d 51 12 a6 bd
       -0.0075823404 -0.16841877 0.080135375 -0.08108962
000010 53 e0 65 bb f1 97 9a be 16 db 0a be ec d0 8d bd
       -0.0035076335 -0.30194047 -0.13560137 -0.06924614
000020 0d c0 c1 3d c8 18 91 3d c1 79 28 3e d3 bc c1 3d
       0.09460459 0.07084805 0.16452695 0.094598435
000030 fa 31 66 3f 35 4a 9b 3d c4 ab a1 3d 3c cf c9 3d
       0.8992001 0.07582513 0.0789409 0.0985398
000040 38 ae b8 be a1 f8 0a 3d 20 b9 3e bd 96 35 ad 3c
       -0.36070418 0.033928517 -0.046563268 0.021143716
000050 e8 55 fb 3d a1 d9 e5 3d 28 49 01 bf ca 83 a5 be
       0.12272245 0.1122315 -0.5050225 -0.3232711
000060 53 6f 9e bd b2 fa 76 3d d5 83 01 be 0b a7 ab be
       -0.07736077 0.060297675 -0.12647946 -0.3352588
000070 f2 78 46 3f 6b a5 90 3d d4 5c 91 bd de a4 68 bd
       0.775283 0.07062801 -0.07097784 -0.056797855
000080 50 c7 e6 3d fa 76 b7 bd 2e 8e 1b ba ae 1e b2 be
       0.112684846 -0.0895824 -0.0005933967 -0.34789032
000090 77 ed 86 be 70 e7 96 bd 71 b7 3e 3d 8f 7b a4 bd
       -0.26353046 -0.07368362 0.046561662 -0.080313794
0000a0 36 8e 25 3e 4d d0 0e 3e a7 0f 7f 3c e1 8f 93 3d
       0.1616753 0.13946648 0.015567697 0.07205177
0000b0 8f 10 bf 3d c9 6f 83 bd 9a d2 0b be 15 cc e7 bd
       0.0932933 -0.06417806 -0.13654557 -0.113182224
0000c0 29 49 86 bd 5d ed 36 3e dc 7a 15 3f 27 40 6a 3d
       -0.06556923 0.17863984 0.58390594 0.057190087
0000d0 9e d6 b0 be ae fc 01 bf 01 3c a0 bd 15 23 92 3d
       -0.3453874 -0.50776184 -0.07823945 0.071355976
0000e0 d9 bb 83 3d e6 ec b5 bd 7e 86 c1 bb 00 f3 1a 3a
       0.064323135 -0.088830754 -0.0059059253 0.00059108436
0000f0 42 cb 55 bf 75 81 6e 3d 3a 03 74 3d b6 e4 7e 3c
       -0.8351327 0.05822893 0.05957339 0.015557459
000100 21 fb a6 3e 48 f4 e9 bd 43 57 4e 3a d7 39 ac 3d
       0.3261347 -0.11423546 0.00078712794 0.084094696
000110 fc 8e 24 3d 89 bd 04 3d 74 a0 80 be 03 b3 9a 3d
       0.040175423 0.032407317 -0.25122416 0.07553675
000120 7d a9 a8 bc e0 8f 74 bc e3 c2 2d 3f 3c 75 3c 3e
       -0.02058863 -0.014926881 0.678755 0.18404096
000130 2a b2 a3 bd a6 5b 96 3e 33 f0 b4 3c a7 dc fc bd
       -0.079929665 0.29366797 0.022087192 -0.123467736
000140 fc a6 22 3c be b2 4c 3d fa 74 50 bc ea c1 95 3c
       0.0099275075 0.04997515 -0.012723202 0.018280942
000150 8a 65 3a 3c 38 b7 96 bd 07 b4 22 be 1c 40 4d 3b
       0.011376748 -0.07359165 -0.15888987 0.003131873
000160 13 ad d5 bd c2 3d 02 3e 44 f0 07 3d 70 6c 27 3c
       -0.10433402 0.12718871 0.03318812 0.010218725
000170 38 95 39 3d be c3 c1 bd 80 8c b5 bd 03 af 31 be
       0.04530832 -0.09461163 -0.08864689 -0.17351918
000180 3f f2 f4 bc 79 13 a7 bd a9 0c ed 3d 25 d3 c0 3a
       -0.029900668 -0.08158011 0.1157468 0.0014711363
000190 31 4c 94 be 0f 1f 83 bd e8 f4 fa be e0 73 1c be
       -0.2896438 -0.06402408 -0.49014974 -0.15278578
0001a0 9d 51 a0 bd a4 6e 8d bd 00 54 71 bc 60 e6 17 3e
       -0.078280665 -0.06905869 -0.0147295 0.14833975
0001b0 cd 4f 4b be 06 c4 5b 3d c6 b2 9c bc 3d d1 b0 bd
       -0.1985466 0.05365374 -0.019128215 -0.08633659
0001c0 28 63 fa 3b 61 5e db be 99 c0 86 3d 93 55 36 bf
       0.007641215 -0.42845443 0.06579704 -0.71224326
0001d0 ea d4 21 3e e9 f3 17 3e 8b 3a 81 3e 6c 93 1f bd
       0.15803877 0.14839138 0.25239977 -0.03895895
0001e0 3a bd 6a 3e 4a 24 18 be c2 2f 3a bf 2c 2c 3b 3e
       0.22923747 -0.14857593 -0.7272912 0.18278569
0001f0 23 b0 ae be a5 d1 86 3e 55 bc ab bd b5 c0 20 3e
       -0.34118757 0.2633182 -0.08385531 0.15698512
000200 db 29 82 bd 48 43 14 3e 1c 44 f4 bc 77 73 ec bc
       -0.063556395 0.14478791 -0.029817633 -0.028863652
000210 0c 80 e9 be 4a f3 4b bb 91 4f 9d be 8d 8a b2 bd
       -0.45605505 -0.0031120353 -0.30724767 -0.08717833
000220 a2 23 b6 3d 06 c5 7f 3e 40 7f 1e 3e 0b 26 a4 bc
       0.08893515 0.24977502 0.1547823 -0.020037672
000230 38 e3 43 be e3 0f 2b bd 73 00 35 3e 0b 39 77 be
       -0.19129646 -0.041763198 0.17675953 -0.24142854
000240 c2 f2 ca 3d 55 65 ed bd a9 fa 80 3c 37 10 bc 3d
       0.09909584 -0.11591593 0.015744524 0.0918278
000250 ec 5b 61 3e 2f 9f 50 be 1a ff 1d 3d 24 c5 d7 3d
       0.22007722 -0.20373224 0.038573362 0.105356485
000260 89 07 8c bd e0 6d 2f bd 38 cf 99 bc 71 88 0f be
       -0.06837375 -0.042829394 -0.018775567 -0.14016892
000270 a3 c4 e1 bd 5b 35 bc 3d eb a3 c6 3c 5d 9d 98 bd
       -0.110238336 0.09189864 0.024248084 -0.0745189
000280 2b ca b6 3d 72 dc 15 be 60 e9 03 be f7 93 5a 3d
       0.08925279 -0.14634874 -0.12881994 0.053363767
000290 25 53 4a be 64 c6 e3 3c 83 85 13 bf 27 95 c1 3d
       -0.1975828 0.027804561 -0.576256 0.09452277
0002a0 d4 32 dc 3d 31 fd ab be 41 56 98 ba 48 21 c9 bb
       0.10751882 -0.33591607 -0.0011622385 -0.0061380006
0002b0 33 48 ef 3d 11 c9 03 bf 87 9c b1 3c 06 bd af 3c
       0.11683693 -0.5147868 0.021681083 0.021452438
0002c0 85 9b 4a 3d cc 0f b8 3c 6f 4f 15 bd 5a d1 29 bc
       0.04946472 0.02246847 -0.036452707 -0.010364855
0002d0 6b 2d 9f bd 51 0c 20 bc 71 6b 5f 3e fd 05 2b bd
       -0.07772335 -0.009768561 0.2181833 -0.041753758
0002e0 8f 5c 3d bd d3 d9 1a be e4 d2 ba 3d 49 31 1b be
       -0.04623085 -0.15122156 0.091222554 -0.1515552
0002f0 a7 d8 99 bd d0 b2 f2 bc 44 43 ad 3c 15 6e f7 3b
       -0.07512026 -0.02962628 0.021150239 0.0075509646
000300 a0 af 11 3e dc bf 44 3e ee 7b 20 be e4 96 98 3d
       0.14227152 0.19213814 -0.15672275 0.07450655
000310 14 f5 bd bc e9 f8 f8 bd 34 80 c5 3e 8c 20 7b bd
       -0.023188151 -0.12156851 0.38574374 -0.061310336
000320 fe 56 6e 3e a3 c1 bd bd b1 31 0b bd ee 3c b5 3d
       0.23275372 -0.09265449 -0.033982936 0.08849512
000330 10 09 17 be 29 78 ac 3d a9 88 20 bf fc 55 f4 3d
       -0.14749551 0.08421356 -0.62708527 0.11930463
000340 15 57 7d bd ad eb 82 bd fd 0d 86 3e e1 57 54 3e
       -0.061850626 -0.06392608 0.26182547 0.20736648
000350 24 ca 41 be 25 de 97 be ff e1 f7 3d 17 77 81 be
       -0.18924767 -0.2966167 0.12103652 -0.2528617
000360 43 04 2e 3e ea f3 8a be 15 0c d5 bd f5 2e 8a bd
       0.16993813 -0.27139217 -0.10402695 -0.067472376
000370 6d d3 8f bd 80 24 4a 3e f6 01 09 3b 75 e4 ca 3d
       -0.07022748 0.19740486 0.002090571 0.09906856
000380 16 48 c7 be 02 18 1a 3d 6d 7b 63 3d a5 09 08 bd
       -0.38922185 0.037620552 0.05553763 -0.033212323
000390 ec ec 1d be 8e e8 d1 3d 95 bd 3d be dd 86 26 3e
       -0.1542241 0.102494344 -0.18529351 0.16262384
0003a0 08 75 7f bd 17 9f 63 3e a5 7b c8 3c 84 72 cf bd
       -0.06236747 0.22228657 0.02447302 -0.10129264
0003b0 b8 c8 8d bd d8 97 ed 3e 91 b1 0a bd 8b c4 9b 3d
       -0.0692305 0.4640491 -0.033860747 0.07605847
0003c0 8d 9f 85 bc c6 53 b9 bc ec 6b f2 bd 98 2d 6d bd
       -0.016311431 -0.022622954 -0.11836991 -0.05790481
0003d0 97 15 a4 bd ff 1b b2 3d 44 90 73 bd 1e 83 a8 3e
       -0.080119304 0.08696746 -0.059463754 0.32912534
0003e0 3b 86 8b 3d 49 20 59 3e f9 0a c6 be cb 84 95 3d
       0.06812712 0.21203722 -0.38680246 0.07300719
0003f0 40 8a ae 3d 39 c3 18 3e 73 ff 44 3e 38 3d 1a 3e
       0.08522463 0.14918222 0.19238071 0.15062416
