models/final_model.pt (torch, 547951 bytes, 7 tensors)

net.fc1.weight f4 [256, 16]
0	0xbdc0d4d8	-0.09415597
1	0x3e2d6add	0.16935296
2	0x3d67ca8c	0.056589648
3	0x3d4fb1ae	0.050706558
4	0x3e333880	0.17502022
5	0x3d3ce523	0.04611696
6	0x3d863ba5	0.06554345
7	0x3dfc6e0f	0.123256795
8	0x3ea43563	0.3207198
9	0xbd558214	-0.052126005
10	0x3ea68852	0.3252588
11	0xbc92953d	-0.017893428
12	0x3e2f6a85	0.17130478
13	0x3db5c9f1	0.08876408
14	0xbe5adff3	-0.21374492
15	0xbf15da20	-0.5853596
16	0xbd88eb28	-0.066854775
17	0x3d5e8db8	0.054334372
18	0xbd0ca5eb	-0.03433792
19	0x3d6c2670	0.057653844
20	0xbd81003a	-0.06298871
21	0x3b95e21d	0.004574074
22	0x3ded21a3	0.11578681
23	0x3d2e305f	0.0425266
24	0x3c8fd516	0.017557662
25	0xbd783a29	-0.06060234
26	0xbd6e653e	-0.05820202
27	0x3d0b211b	0.03396712
28	0xbb10c7c9	-0.0022091737
29	0xbd364e35	-0.044508178
30	0xbd396637	-0.045263495
31	0xbfc1788d	-1.5114914
32	0xbe271f04	-0.16320425
33	0xbdb0fd63	-0.0864208
34	0xbd92956d	-0.07157407
35	0xbd33fa66	-0.04393997
36	0xbdb03aac	-0.08604941
37	0xbeb523a7	-0.35378763
38	0xbda8c757	-0.08241146
39	0xbd5d38fc	-0.054009423
40	0x3d388772	0.045051046
41	0xbd0d7158	-0.03453192
42	0x3d39a4c4	0.04532315
43	0xbcda80fe	-0.026672836
44	0xbdd67a76	-0.10472576
45	0xbe09d423	-0.1345983
46	0x3bdd25f0	0.0067489073
47	0xbfd2fc33	-1.6483215
48	0xbe2243fd	-0.15846248
49	0xbe5e19f4	-0.21689588
50	0x3d60b1dd	0.054857124
51	0x3bb2de23	0.0054586097
52	0xbcea91be	-0.028633948
53	0x3d00df77	0.031463113
54	0x3d900938	0.07033008
55	0xbdcac3fc	-0.09900662
56	0xbcebf995	-0.028805533
57	0xbe165184	-0.14679533
58	0x3d1b69c6	0.03794267
59	0x3d7b3b82	0.061336048
60	0x3e1094e3	0.14119296
61	0xbdc8b100	-0.09799385
62	0xbc6a8ec9	-0.014316269
63	0x3f90010d	1.1250321
64	0xbcaf25d8	-0.02138035
65	0xbca26f48	-0.019828454
66	0x3d798a60	0.06092298
67	0xbd4ca8cb	-0.04996566
68	0x3daf7c08	0.08568579
69	0x3e183624	0.14864403
70	0xbdc3172d	-0.09525905
71	0xbc7e2a7d	-0.01551306
72	0x398adf26	0.0002648767
73	0x3c3d6fd3	0.0115623055
74	0xbe0b7f32	-0.1362274
75	0xbdeabeb6	-0.114621565
76	0x3d705faa	0.058684982
77	0x3d448d1f	0.047986146
78	0xbe4f3351	-0.2023442
79	0x3f3b7d55	0.73238117
80	0xbdbee3d9	-0.09320802
81	0xbe60596b	-0.2190911
82	0xbe970e9e	-0.2950334
83	0x3a51fc0a	0.0008010274
84	0x3df19732	0.11796416
85	0xbd4bbd85	-0.049741287
86	0x3d647ea4	0.055784836
87	0x3e306e38	0.17229545
88	0x3ce91503	0.028452402
89	0x3eecfa5f	0.46284768
90	0xbdd6471c	-0.10462782
91	0xbabfb341	-0.0014625565
92	0x3f1507fa	0.58215296
93	0x3e84980e	0.2589726
94	0xbdd7c2ea	-0.10535224
95	0x3efb4b24	0.49080765
96	0xbe196701	-0.14980699
97	0xbd8456f5	-0.06461898
98	0x3e08c8f5	0.13357909
99	0xbd9b550b	-0.0758458
100	0xbdb0d0bf	-0.08633565
101	0xbdc9d1b3	-0.0985445
102	0xbe2f3530	-0.17110133
103	0xbdb8f418	-0.09030932
104	0xbc6a1755	-0.014287789
105	0xbe82ad79	-0.25522974
106	0xbd90f91d	-0.070787646
107	0xbc789bd7	-0.015173874
108	0xbd149e92	-0.036284037
109	0x3df83b7a	0.12120719
110	0x3d48f82a	0.049064793
111	0x3f4eb716	0.80748117
112	0x3b005f43	0.001958803
113	0x3dc2b3ba	0.09506936
114	0xbe1a9d49	-0.15099062
115	0xbd32891a	-0.04358778
116	0x3d308524	0.043095723
117	0x3d5373e5	0.051624198
118	0xbda531b6	-0.08066122
119	0x3cf963e2	0.030443136
120	0x3cf68da7	0.030096842
121	0xbe44f86c	-0.1923539
122	0x3e48648c	0.19569606
123	0x3e8145ea	0.25248653
124	0x3d856891	0.06514085
125	0x3b5099ba	0.003182991
126	0x3d334972	0.043771215
127	0x3ead34fc	0.33829486
128	0xbcdbd754	-0.026836075
129	0x3e069648	0.13143265
130	0x3d8048c7	0.06263881
131	0xbd74f9d5	-0.05980857
132	0x3cb5ece5	0.022207687
133	0xbdbecd4d	-0.09316502
134	0xbd886f93	-0.06661906
135	0xbd7e177c	-0.062034115
136	0xbd6f66bd	-0.05844759
137	0x3dc37c46	0.09545188
138	0x3cdd8675	0.027041653
139	0xbd4ee30f	-0.05050951
140	0xbe00ce37	-0.12578665
141	0xbca01d89	-0.019545333
142	0x3cbc63e6	0.022996854
143	0xbf0fdb86	-0.5619434
144	0x3e2056b9	0.15658082
145	0x3df51c27	0.1196826
146	0x3de134a1	0.10996366
147	0x3e207d1c	0.15672725
148	0x3d9c1b2a	0.07622369
149	0xbe0181f8	-0.12647235
150	0xbe22526f	-0.15851758
151	0xbd419c69	-0.047268305
152	0x3d804e46	0.062649295
153	0x3ce4780c	0.027889274
154	0xbdf24194	-0.11828914
155	0xbe43a662	-0.19106439
156	0xbd991780	-0.074751854
157	0x3e351931	0.17685391
158	0xb94fb8f9	-0.00019809966
159	0x3f343f4d	0.7040909
160	0x3d1d0424	0.038334027
161	0x3d8088ec	0.06276116
162	0xbc96d829	-0.01841362
163	0xbe637a2d	-0.22214575
164	0x3dd5ab18	0.10433024
165	0x3d91d21b	0.071201526
166	0xbd8d4499	-0.068978496
167	0xbd81255a	-0.06305952
168	0xbc83d5d3	-0.01609317
169	0x3e2e4bff	0.17021178
170	0xbe00d14f	-0.12579845
171	0x3d9ed583	0.07755568
172	0x3d1b1c3e	0.03786873
173	0x3ddeff25	0.10888509
174	0x3d178efd	0.0370016
175	0xbfaa9f96	-1.3329952
176	0x3ce41421	0.02784163
177	0xbda621fb	-0.0811195
178	0x3c34cec4	0.011035625
179	0x3dc51551	0.096232064
180	0x3d139a21	0.03603566
181	0xbd215a6a	-0.039392866
182	0x3d2219ee	0.03957551
183	0xbdfcf813	-0.12352004
184	0xbd8e5e8f	-0.06951629
185	0xbc5361fb	-0.012901778
186	0x3e386d8e	0.18010542
187	0x3d5028fc	0.050820336
188	0x3d2ea185	0.042634506
189	0x3da18328	0.07886344
190	0x3dc30d02	0.095239654
191	0x3f5ecbfa	0.87029994
192	0xbcfa7eb8	-0.030578002
193	0xbd3a4df2	-0.04548449
194	0xbc977b10	-0.018491298
195	0x3d6637e1	0.056205634
196	0xbcc61e10	-0.024184257
197	0xbde5b37e	-0.11215876
198	0x3e0a637e	0.13514516
199	0x3e81de3d	0.25364867
200	0xbe25c41b	-0.1618809
201	0x3d5ee58f	0.054418143
202	0xbdbc301c	-0.09188864
203	0xbd815adf	-0.063161604
204	0x3db9254e	0.090403184
205	0xbea3858c	-0.31937826
206	0xbd0e087a	-0.034676053
207	0x3f1c4f4a	0.61058486
208	0xbcb2a38e	-0.021806505
209	0xbafc16a3	-0.001923282
210	0xbd0a2d33	-0.03373451
211	0x3ca08ed2	0.019599352
212	0x3bc1b1aa	0.005911072
213	0x3c3c8b97	0.01150789
214	0xbd99936c	-0.074988216
215	0xbd1ce2fb	-0.038302403
216	0x3d104512	0.03522212
217	0x3d907c7d	0.07054994
218	0x3c4431d9	0.011974775
219	0x3ca503d2	0.020143423
220	0x3d2bb96e	0.041924886
221	0x3dd27c4e	0.102776155
222	0xbd38d712	-0.045126982
223	0xbf939b2b	-1.1531729
224	0xbd63ae38	-0.05558607
225	0xbcb9c215	-0.022675553
226	0x3c1b5708	0.009481199
227	0x3daa83d6	0.08325927
228	0x3d469a7d	0.048487175
229	0x3d1618be	0.03664469
230	0xbd21f961	-0.039544467
231	0x3db6eb5f	0.08931612
232	0x3d93f7d7	0.07225006
233	0xbdf43f03	-0.11926081
234	0x3e3aa823	0.18228202
235	0xbd783d93	-0.060605597
236	0xbde4e740	-0.1117692
237	0xbda931f8	-0.08261484
238	0xbda6f9ef	-0.0815314
239	0xbfb3c925	-1.404576
240	0x3e2c36a0	0.16817713
241	0xbbe38ac6	-0.0069440333
242	0x3e301c87	0.17198382
243	0xbd85b202	-0.06528093
244	0xbd33a768	-0.043860823
245	0xbe269955	-0.16269429
246	0xbdca6379	-0.09882254
247	0x3d8cfdee	0.06884371
248	0xbdcaa65c	-0.09895012
249	0x3e8a6e9f	0.27037522
250	0xbe05e10e	-0.13074133
251	0xbe6caf00	-0.23113632
252	0xbecee98b	-0.40412554
253	0xbdbf1de4	-0.09331873
254	0x3bef11ac	0.007295808
255	0x3f12b310	0.5730448

net.fc1.bias f4 [256]
0	0xbeab0779	-0.3340414
1	0xbe84d50a	-0.25943786
2	0x3f0f8496	0.56061685
3	0x3c6eeb6a	0.014582494
4	0x3e7c3c9c	0.24632496
5	0x3f098243	0.5371439
6	0x3f0b88be	0.54505527
7	0x3efd7594	0.49503767
8	0xbf4fffec	-0.8124988
9	0x3eeffa27	0.4687054
10	0xbe120baa	-0.14262262
11	0x3eddb569	0.43302467
12	0x3f24e961	0.6441861
13	0xbeb49b23	-0.3527461
14	0xbeb00cc8	-0.3438475
15	0x3edabb95	0.4272124
16	0xbe73ab06	-0.23795709
17	0x3f2573af	0.64629644
18	0x3ee516f2	0.44744068
19	0xbefdc8b0	-0.49567175
20	0x3f2f3b34	0.6844971
21	0x3ec57f3a	0.3857363
22	0x3ef0a5bb	0.47001442
23	0x3eb90b15	0.36141267
24	0xbe19b11c	-0.15008968
25	0x3f302a93	0.68814963
26	0xbeba6217	-0.36402962
27	0x3ebaa720	0.3645563
28	0x3ddd489f	0.10804867
29	0x3d8a0974	0.06740084
30	0xbe84bea5	-0.259267
31	0xbe823aaa	-0.25435382
32	0x3e7a4912	0.24441937
33	0x3e23e06f	0.16003583
34	0xbee37f6a	-0.44433147
35	0xbe89653c	-0.26835048
36	0x3e0f512c	0.13995808
37	0xbedd841f	-0.43264863
38	0xbe74d3ea	-0.23908964
39	0xbdc44ce4	-0.09584978
40	0xbec77c06	-0.3896181
41	0x3eca2e99	0.39488676
42	0xbea964a6	-0.330846
43	0x3f8b8f6c	1.0903144
44	0xbe2c5493	-0.16829138
45	0x3f159f85	0.5844653
46	0xbe5675cf	-0.20943378
47	0xbea7ac95	-0.32748857
48	0x3f050839	0.5196567
49	0x3ef19f29	0.47191742
50	0x3f6e51ce	0.93093574
51	0xbeb857e1	-0.36004546
52	0x3f0f4208	0.5596013
53	0xbe878089	-0.26465252
54	0xbeb5bc4b	-0.3549522
55	0x3db45007	0.088043265
56	0x3ea557c0	0.3229351
57	0xbd0e7f60	-0.034789443
58	0x3e089e49	0.13341631
59	0xbeca230f	-0.39479873
60	0xbe879fb8	-0.26489043
61	0x3de544fe	0.111948
62	0x3e80c539	0.2515047
63	0xbe9018f2	-0.28144032
64	0x3e868b2d	0.26278058
65	0xbe2e2c54	-0.17009097
66	0x3e87b4cb	0.26505122
67	0xbe625b77	-0.22105204
68	0xbe51a6db	-0.20473807
69	0x3e57c887	0.21072589
70	0xbe6a28c1	-0.22867109
71	0xbdfb37d9	-0.122665115
72	0x3dd98986	0.10621934
73	0x3f5d007f	0.8632888
74	0x3c1527ee	0.009103758
75	0xbd598c2c	-0.053112194
76	0xbc54f77d	-0.012998459
77	0xbefe2a49	-0.49641636
78	0x3d70f58b	0.058827918
79	0xbbbf5848	-0.0058393814
80	0x3cef2606	0.029192936
81	0x3f14329a	0.5788971
82	0x3d8587ac	0.06520018
83	0x3da8ff2c	0.08251795
84	0xbed3b446	-0.41348475
85	0xbd59f12d	-0.05320852
86	0xbea71609	-0.32634
87	0xbe992145	-0.29908195
88	0x3cc200de	0.023682054
89	0xbe91537f	-0.28384015
90	0x3f55f5d1	0.8357821
91	0x3ed4a4e6	0.41532058
92	0xbc8436eb	-0.016139468
93	0xbefcf386	-0.49404544
94	0x3e667219	0.22504462
95	0x3eff6de0	0.49888515
96	0xbee1df9c	-0.44115913
97	0x3f0af347	0.5427746
98	0xbe938480	-0.28812027
99	0xbed1ea16	-0.40998906
100	0x3e22172f	0.15829156
101	0x3c450fac	0.012027662
102	0x3ec6744b	0.387606
103	0x3e9458e2	0.28974062
104	0xbec2f0bf	-0.380743
105	0xbea39f0b	-0.31957278
106	0xbdf8e75f	-0.121535055
107	0xbef72454	-0.48269904
108	0x3ef2d439	0.47427538
109	0xbe8d00e5	-0.27539745
110	0x3eb7a053	0.35864505
111	0xbe82896f	-0.2549548
112	0x3f68ad9a	0.90889895
113	0xbe7ee293	-0.24891119
114	0x3f02da4a	0.5111433
115	0x3e880111	0.26563314
116	0x3e3a0721	0.18166782
117	0xbf1d09c3	-0.6134302
118	0xbe883cc8	-0.26608872
119	0xbd0e2a4d	-0.03470831
120	0xbeec971c	-0.46209037
121	0x3f0eba93	0.5575344
122	0xbeba9e6f	-0.36449
123	0x3ef23340	0.47304726
124	0x3ec634bb	0.38712105
125	0x3e8b7b65	0.2724258
126	0x3d7c03c1	0.061527018
127	0x3ea9df19	0.33178023
128	0x3e662cdb	0.22478049
129	0xbef68f01	-0.48155978
130	0xbf1b9bfb	-0.6078488
131	0xbeec4f4c	-0.4615425
132	0x3ed0d97a	0.4079092
133	0x3e36a5da	0.17836705
134	0xbe6b67b8	-0.22988784
135	0x3eb0b30c	0.34511602
136	0xbed88d1b	-0.42295155
137	0xbe63f1ff	-0.22260283
138	0xbe261a28	-0.16220915
139	0xbeafabce	-0.34310764
140	0x3d88185a	0.0664527
141	0x3dd3a100	0.10333443
142	0xbe89e2b6	-0.2693078
143	0x3be4ce79	0.0069826213
144	0xbf3ea589	-0.74471337
145	0xbecdf61e	-0.40226835
146	0xbea72d31	-0.32651666
147	0xbec6db82	-0.38839346
148	0xbe5276b1	-0.2055309
149	0x3e174e4f	0.14775966
150	0x3e3ab08a	0.18231407
151	0xbf2a5cdc	-0.6654794
152	0x3defc7c9	0.11708028
153	0x3f0085e7	0.5020432
154	0x3f74fbfd	0.95697004
155	0x3c2a16ab	0.010381381
156	0x3e914bd5	0.28378168
157	0x3dd44f10	0.103666425
158	0xbd16de1b	-0.03683291
159	0xbea0c429	-0.31399658
160	0xbedb8e7a	-0.42882138
161	0xbe182061	-0.14856102
162	0xbebb39ca	-0.36567527
163	0x3f1bd237	0.6086764
164	0x3f483639	0.7820774
165	0xbe9f8775	-0.31158033
166	0x3da51202	0.08060075
167	0xbecffaa8	-0.40620923
168	0x3e16efd4	0.14739925
169	0x3e9a5ec7	0.30150434
170	0xbeca1cb8	-0.39475036
171	0xbe93daef	-0.2887797
172	0x3efaa64c	0.48955
173	0xbf037cca	-0.5136229
174	0xbe53b84c	-0.20675772
175	0x3fa07e7e	1.2538602
176	0x3eeb32c4	0.4593717
177	0x3ef2acf0	0.47397566
178	0x3e435a31	0.19077374
179	0x3d16b21e	0.03679096
180	0xbead05a4	-0.33793366
181	0x3e8252a4	0.25453675
182	0xbe43af87	-0.19109927
183	0xbe832d3b	-0.25620446
184	0xbe802964	-0.2503158
185	0xbe7343f4	-0.23756391
186	0xbedf3172	-0.4359241
187	0x3e96650b	0.29373965
188	0xbe3b6a10	-0.18302178
189	0xbf035cab	-0.51313275
190	0xbe490eb5	-0.19634517
191	0xbedc50be	-0.4303035
192	0xbee47745	-0.44622245
193	0x3e89a75e	0.26885504
194	0x3eaa83dd	0.3330373
195	0x3cdcc389	0.026948707
196	0x3f37fa89	0.7186666
197	0x3e1d2074	0.15344411
198	0x3e99f63d	0.30070677
199	0xbeb5942d	-0.35464612
200	0xbddfb09f	-0.1092236
201	0xbebcc2e6	-0.36867446
202	0x3e2caff7	0.16864
203	0x3eeb2984	0.4593011
204	0x3e26de26	0.1629568
205	0x3df8b00b	0.121429525
206	0xbe8819ef	-0.26582286
207	0xbf3b03ff	-0.7305297
208	0xbf062b55	-0.5240987
209	0xbec993c8	-0.3937056
210	0x3f2e82a3	0.68168086
211	0x3f3376c0	0.70103073
212	0xbe828f5e	-0.25500005
213	0x3f4407ee	0.765746
214	0xbedb3ba3	-0.42818937
215	0xbd307f1a	-0.043089963
216	0x3bc6f300	0.0060714483
217	0xbef1b95f	-0.4721174
218	0x3b1af660	0.0023645386
219	0xbdef9e70	-0.117001414
220	0xbf10464d	-0.5635727
221	0x3f15db2c	0.58537555
222	0x3f8a26b7	1.0793065
223	0x3efc5cae	0.4928946
224	0x3e4ea830	0.20181346
225	0x3ec22efc	0.3792647
226	0x3c9295f1	0.017893763
227	0x3f089047	0.5334515
228	0x3ee15c47	0.44015715
229	0x3f2a1dc9	0.664517
230	0xbe98edb1	-0.29868844
231	0x3f1d4db4	0.6144669
232	0xbecf1f02	-0.40453345
233	0xbeacbb8f	-0.33736846
234	0x3f3ad58a	0.72982085
235	0xbcfdfcaa	-0.031004269
236	0xbec1f8ee	-0.3788523
237	0xbe6cbdcb	-0.23119275
238	0x3e918eff	0.2842941
239	0x3f45484c	0.7706344
240	0xbf0f182d	-0.55896264
241	0x3e3602aa	0.17774454
242	0xbe96608c	-0.29370534
243	0xbee4e021	-0.44702247
244	0x3cf75a89	0.030194538
245	0xbeb31f03	-0.34984598
246	0x3f1d66af	0.6148481
247	0xbc0be8aa	-0.008539358
248	0xbd3e69f5	-0.046487767
249	0x3e898ef3	0.26866874
250	0xbe81a7a2	-0.25323206
251	0xbee127f9	-0.4397581
252	0xbd3fa283	-0.046785843
253	0xbe87e5b1	-0.26542428
254	0xbe7cc8e8	-0.24686015
255	0xbe3a485a	-0.18191662

net.fc2.weight f4 [256, 256]
0	0xbe8bd9ef	-0.27314708
1	0xbedc88d9	-0.43073156
2	0xbde8b913	-0.11363425
3	0x3e93c9be	0.28864855
4	0x3d7e0707	0.06201842
5	0xbbc82ba5	-0.0061087185
6	0x3ea3a909	0.319649
7	0x3d068496	0.032841288
8	0xbe69b2ff	-0.22822188
9	0x3e457800	0.19284058
10	0xbe1d7314	-0.1537593
11	0x3e1e873b	0.15481274
12	0x3e305d91	0.17223193
13	0xbeb1324e	-0.34608692
14	0xbecdcd76	-0.40195817
15	0x3ea8786c	0.32904375
16	0xbe9426b4	-0.28935778
17	0x3d8d161a	0.06888981
18	0x3e7690f7	0.24078737
19	0xbe8bcbca	-0.27303916
20	0x3dfdb9fd	0.1238899
21	0x3d1c83f1	0.038211767
22	0x3e82f6c2	0.25578886
23	0x3e6c6b08	0.23087704
24	0xbe8cd9f7	-0.27510044
25	0x3d52000d	0.05126958
26	0x3c9f664e	0.019457962
27	0xbe4ae948	-0.19815552
28	0x3e9861a6	0.29762
29	0x3d8beea7	0.06832629
30	0x3d067d16	0.032834135
31	0xbee0549f	-0.4381456
32	0x3ec01b3c	0.37520778
33	0x3e51078f	0.2041304
34	0xbe8b43e3	-0.2720023
35	0xbea33261	-0.31874374
36	0x3e0a4f91	0.13506915
37	0xbee8be09	-0.45457485
38	0x3eac0e46	0.3360464
39	0x3c1d0129	0.009582796
40	0xbebac1fc	-0.36476123
41	0xbdb0cae9	-0.08632452
42	0xbed15c46	-0.40890712
43	0x3e3a2cdf	0.1818118
44	0xbe4399a7	-0.19101582
45	0xbe51c6a3	-0.2048593
46	0xbdd2a551	-0.10285438
47	0xbef1fa03	-0.47261056
48	0x3e6d7f87	0.23193179
49	0x3e2e1a1c	0.17002147
50	0x3d21dc28	0.039516598
51	0xbf081b9d	-0.53167135
52	0x3e9d47d5	0.30718866
53	0xbefb56fa	-0.49089795
54	0xbe8f9ab0	-0.28047705
55	0x3e264620	0.16237688
56	0x3d916a7b	0.07100388
57	0x3e1568ef	0.1459081
58	0x3e806291	0.250752
59	0xbf28791b	-0.6580979
60	0x3e16d588	0.14729893
61	0x3e7d5fa7	0.2474352
62	0x3d952bc1	0.07283736
63	0xbe9f697c	-0.31135166
64	0x3d87283d	0.06599472
65	0xbe8cea70	-0.27522612
66	0x3d2ff885	0.042961616
67	0xbe93843b	-0.2881182
68	0xbd35e28f	-0.044405516
69	0x3e564918	0.2092632
70	0xbea7796a	-0.3270982
71	0xbbce65b5	-0.0062987455
72	0x3e4ab18e	0.19794294
73	0xbb51bc2d	-0.003200303
74	0xbdc627ed	-0.09675584
75	0x3c8f368f	0.01748207
76	0xbd25580d	-0.040367175
77	0xbe140c2d	-0.1445777
78	0x3d83fe16	0.064449474
79	0x3eda220a	0.42604095
80	0x3eaf5d64	0.3425094
81	0x3dd56387	0.10419374
82	0xbe940f09	-0.2891772
83	0xbe23810f	-0.159672
84	0x3d453d59	0.04815421
85	0xbe492591	-0.19643237
86	0xbebc44f9	-0.36771372
87	0xbecd41e6	-0.4008934
88	0xbe2171d0	-0.15766072
89	0xbec7a664	-0.38994133
90	0x3db1f3e3	0.08689096
91	0xbe186f77	-0.1488627
92	0x3e812055	0.2521998
93	0xbeca91b9	-0.39564303
94	0xbe6cb1f2	-0.23114756
95	0x3d98f2c4	0.07468179
96	0x3e1aa972	0.15103701
97	0xbe410aa3	-0.18851714
98	0x3d9f7e2d	0.07787738
99	0xbf039513	-0.51399344
100	0x3e113530	0.14180446
101	0x3ea3b8f2	0.3197704
102	0x3d86b888	0.06578165
103	0x3e4d7a04	0.20066077
104	0xbf2db52b	-0.67854565
105	0xbf24ae0e	-0.64328086
106	0x3ce8fc4f	0.028440623
107	0x3dfd9182	0.12381269
108	0x3e23a285	0.15979965
109	0xbf100d2b	-0.5627009
110	0xbabf5d8e	-0.0014600025
111	0xbf25daa4	-0.64786744
112	0x3d471c26	0.04861083
113	0xbf2bbd0f	-0.67085356
114	0x3c6d298a	0.014475236
115	0x3eb91eec	0.36156404
116	0xbd2693bc	-0.040668234
117	0xbd6b845b	-0.05749927
118	0xbf1e5744	-0.61851907
119	0xbd3b3add	-0.045710433
120	0x3e762f75	0.24041541
121	0x3e3347e3	0.17507891
122	0xbefc344a	-0.49258643
123	0x3e6bbec1	0.23021986
124	0x3e96765b	0.29387173
125	0xbed333dd	-0.41250506
126	0xbe0d1371	-0.13776948
127	0xbc88d3bf	-0.01670253
128	0x3e0b7aa0	0.13620996
129	0xbdef40e4	-0.11682299
130	0xbd80d2d8	-0.06290215
131	0xbeb47155	-0.35242715
132	0xbdd32bcf	-0.1031109
133	0x3c4aa225	0.01236776
134	0xbf078886	-0.52942693
135	0x3d4950c8	0.049149305
136	0xbf2c7efe	-0.67381275
137	0xbef40da8	-0.4766667
138	0xbe12c753	-0.14333849
139	0xbed41b24	-0.41426957
140	0xbd3384ba	-0.04382775
141	0x3e727307	0.23676692
142	0xbee1a801	-0.4407349
143	0xbed2de3b	-0.41185173
144	0xbdc0d031	-0.09414709
145	0x3e1e0ab6	0.15433773
146	0xbe3c85c4	-0.18410403
147	0xbe45fcd2	-0.19334725
148	0xbeed504f	-0.46350333
149	0x3db3282a	0.08747895
150	0xbe380f3d	-0.17974563
151	0xbd536082	-0.05160571
152	0x3d0578cc	0.032585904
153	0xbd059384	-0.032611385
154	0x3d036ace	0.03208428
155	0x3ea115e7	0.31462023
156	0xbdd5547a	-0.10416503
157	0x3e0ac435	0.1355141
158	0xbddadf88	-0.106871665
159	0xbea89d2b	-0.3293241
160	0x3e62fcda	0.22166768
161	0xbe98fc8e	-0.29880184
162	0xbf0d8e06	-0.55294836
163	0x3e6dfdf8	0.23241413
164	0xbd02cc51	-0.031933133
165	0xbf04a33a	-0.51811564
166	0x3dc3d3bf	0.09561872
167	0xbc23fc5b	-0.010008897
168	0xbcfec920	-0.031101763
169	0xbe3ac098	-0.18237531
170	0xbf0c650d	-0.5484169
171	0xbec32f02	-0.38121802
172	0x3e9cb914	0.30609953
173	0x3e89fa27	0.26948664
174	0x3eaed9b6	0.34150475
175	0x3d492190	0.049104273
176	0x3e40e192	0.18836048
177	0xbe6e1830	-0.23251414
178	0x3e026a14	0.12735778
179	0x3d02c2f2	0.031924196
180	0xbe72deac	-0.23717755
181	0x3e3aaa3f	0.18229006
182	0xbea4e89b	-0.32208714
183	0x3c9fb74a	0.019496579
184	0xbed4b0ec	-0.4154123
185	0xbecf99cf	-0.40547034
186	0xbea7ae3b	-0.32750115
187	0x3e82104f	0.25403067
188	0xbec600a3	-0.3867236
189	0xbeb9d80e	-0.3629765
190	0x3e20ec30	0.15715098
191	0xbedb3efa	-0.42821485
192	0x3e3d53b8	0.18488967
193	0xbe206e8f	-0.15667175
194	0x3cc7abc2	0.024373893
195	0xbcbcbecd	-0.0230402
196	0xbe2365e3	-0.15956835
197	0x3e876d0f	0.26450393
198	0xbe237081	-0.15960886
199	0xbef545df	-0.4790487
200	0xbcc589fe	-0.024113651
201	0xbe8b0bdc	-0.27157485
202	0xbde4391c	-0.11143705
203	0x3e734d5c	0.23759979
204	0x3e986c3c	0.29770076
205	0x3de394bd	0.11112354
206	0xbf06ca3f	-0.52652353
207	0xbe5c50c7	-0.21515189
208	0xbe73b31a	-0.2379879
209	0xbea0b936	-0.31391305
210	0x3e3d7762	0.18502572
211	0x3dc4e299	0.096135326
212	0xbece8471	-0.4033542
213	0x3d3aa4a1	0.04556716
214	0xbf070fc2	-0.5275842
215	0x3db11422	0.08646418
216	0xbe1c0feb	-0.15240447
217	0xbe961045	-0.29309288
218	0xbe143db9	-0.1447667
219	0xbe985aa4	-0.29756653
220	0x3e1cc080	0.15307808
221	0x3e2631eb	0.1622998
222	0x3e7ff5dd	0.24996133
223	0x3db8f6d6	0.09031455
224	0x3e811831	0.2521377
225	0xbdc29439	-0.095009275
226	0x3e426d75	0.18987067
227	0x3cf4c2a0	0.02987796
228	0xbe139fc7	-0.14416419
229	0x3e6d6430	0.2318275
230	0xbec0fceb	-0.3769296
231	0x3e4ed490	0.20198274
232	0x3e9b7917	0.30365822
233	0xbc07fd42	-0.008300127
234	0x3e29028c	0.16504878
235	0x3e81d91e	0.2536096
236	0x3db6a7d0	0.089187264
237	0xbead886f	-0.33893153
238	0x3e8b3cce	0.27194828
239	0x3d91edd1	0.07125438
240	0xbe0812de	-0.13288447
241	0x3da61ca7	0.08110934
242	0xbdf61f8d	-0.120177366
243	0xbebacfae	-0.36486572
244	0x3e9982b3	0.29982528
245	0xbee7b7de	-0.45257467
246	0xbdd83c28	-0.10558349
247	0xbe10fcff	-0.1415901
248	0x3e613bbd	0.21995445
249	0x3cc24c00	0.02371788
250	0xbea2942c	-0.3175367
251	0x3d70c9fb	0.058786374
252	0xbe87cf76	-0.26525468
253	0xbeb9fabc	-0.36324108
254	0xbe886ebe	-0.2664699
255	0xbe5c6f63	-0.21526866

net.fc2.bias f4 [256]
0	0x3ddaead3	0.106893204
1	0xbe757e54	-0.23973972
2	0xbeafad45	-0.34311882
3	0x3cb9dff4	0.022689797
4	0xbe3045b1	-0.17214085
5	0x3ce582c0	0.028016448
6	0xbf2a1ae1	-0.66447264
7	0xbe1ba5ae	-0.1519992
8	0xbed86a64	-0.4226867
9	0xbc0f8e97	-0.008762023
10	0x3d5e26bd	0.054236162
11	0xbda019f4	-0.0781745
12	0x3f068bfa	0.5255734
13	0xbe4320c7	-0.19055472
14	0x3e63d225	0.22248133
15	0x3e77dd42	0.24205497
16	0xbf0335e6	-0.5125412
17	0xbe5dc252	-0.21656159
18	0xbe886b81	-0.2664452
19	0x3e869d1d	0.26291743
20	0xbd3c5beb	-0.045986097
21	0xbe721521	-0.23640873
22	0xbd971c59	-0.07378454
23	0x3db8b9a6	0.09019785
24	0xbe52e31f	-0.20594452
25	0xbe50381d	-0.20333906
26	0xbe70cd8e	-0.23515913
27	0xbdd08484	-0.10181525
28	0x3e57e2ad	0.21082564
29	0xbed5c730	-0.4175353
30	0xbda96c1f	-0.082725756
31	0xbe7c356d	-0.24629755
32	0xbac838ed	-0.0015275754
33	0x3e196ec7	0.14983664
34	0xbe90712f	-0.28211352
35	0xbdd1a200	-0.10235977
36	0xbf04a1f1	-0.518096
37	0x3ccaa46e	0.02473661
38	0x3d8078a9	0.06273014
39	0x3e1172c3	0.14203934
40	0xbd901b42	-0.07036449
41	0xbee0303b	-0.43786797
42	0xbe8996dd	-0.26872912
43	0xbe87e157	-0.26539108
44	0xbea94fb5	-0.33068624
45	0x3f1bf409	0.60919243
46	0xbed8f3a5	-0.42373386
47	0x3e22410a	0.15845123
48	0xbdb84a91	-0.089985974
49	0xbe3b4600	-0.18288422
50	0xbce8e38e	-0.028428819
51	0x3ea55398	0.3229034
52	0xbf44ffec	-0.76953006
53	0xbe326be6	-0.17423972
54	0xbe2ebdf1	-0.17064644
55	0xbe841097	-0.25793907
56	0xbf1567cd	-0.5836151
57	0xbe465242	-0.19367316
58	0xbe3cc073	-0.18432789
59	0x3dbab999	0.09117431
60	0xbcd9af17	-0.026572747
61	0x3d76a2ec	0.06021397
62	0xbe57a431	-0.21058728
63	0xbf0a380a	-0.5399176
64	0xbe5039d6	-0.20334563
65	0xbea24841	-0.3169575
66	0x3e194c31	0.14970471
67	0xbf091602	-0.53549206
68	0x3de064e6	0.10956745
69	0xbe03a24b	-0.12854879
70	0x3e4a3066	0.19745025
71	0x3dc95644	0.09830907
72	0xbca94ec6	-0.020667445
73	0xbe968410	-0.2939763
74	0xbf080a48	-0.5314069
75	0x3dffadca	0.124843195
76	0xbe1835de	-0.14864299
77	0xbe7cbf76	-0.24682412
78	0xbe8b2a87	-0.27180883
79	0xbeba39b0	-0.36372137
80	0xbe8ba8e0	-0.2727728
81	0xbe9f654a	-0.31131965
82	0x3e88c6f2	0.26714283
83	0x3d827fd7	0.0637204
84	0xbdebf505	-0.11521343
85	0xbe3d241b	-0.18470804
86	0x3c331eb4	0.010932613
87	0x3ed107b9	0.40826204
88	0x3de0f780	0.10984707
89	0xbe84d9b0	-0.25947332
90	0xbe3cbe5d	-0.18431993
91	0x3ddc1b17	0.107473545
92	0x3df1cb7c	0.1180639
93	0xbe00a828	-0.12564147
94	0xbe7cb068	-0.24676669
95	0xbe4e5bf3	-0.20152263
96	0x3d110863	0.03540839
97	0xbda9078d	-0.08253393
98	0xbede6856	-0.43438977
99	0x3e370f78	0.17876995
100	0xbddc0159	-0.107424445
101	0xbdf1cd5a	-0.11806746
102	0xbe1d2ff8	-0.1535033
103	0xbe0ba760	-0.13638067
104	0x3c3e1450	0.011601523
105	0xbe90e765	-0.2830154
106	0xbeb98e82	-0.36241537
107	0xbe9eff95	-0.3105437
108	0xbe8ead4e	-0.27866596
109	0xbe00902f	-0.12555002
110	0xbe912308	-0.2834704
111	0x3d28af8f	0.04118305
112	0xbe0fec82	-0.14055064
113	0xbe2e7d4f	-0.17039989
114	0xbe1dddbf	-0.1541662
115	0xbe38741d	-0.18013044
116	0xbec684f4	-0.3877331
117	0xbdf8fc16	-0.121574566
118	0xbdbd525c	-0.092442244
119	0xbe88e325	-0.26735798
120	0xbf29be35	-0.6630586
121	0x3e74d285	0.23908432
122	0xbd725677	-0.05916449
123	0xbf070c45	-0.52753097
124	0xbe6f37cc	-0.23361129
125	0xbe8cd03a	-0.27502614
126	0x3d8c7864	0.068589
127	0x3cb0da95	0.021588603
128	0x3cb8c685	0.022555599
129	0xbe926ea5	-0.2860004
130	0xbed775f6	-0.42082185
131	0xbe8deffa	-0.2772215
132	0xbd2d09ab	-0.04224555
133	0xbc823850	-0.015895993
134	0xbece43c8	-0.40286088
135	0xbeb0f3bd	-0.34560958
136	0x3f169371	0.5881873
137	0xbeb82761	-0.35967544
138	0x3e23d8fc	0.16000742
139	0x3c918ca9	0.017767267
140	0xbe9ddf99	-0.30834654
141	0xbe4a4519	-0.19752921
142	0x3dc8aad4	0.09798208
143	0xbeb329dc	-0.34992874
144	0x3d2736cb	0.04082374
145	0x3dc2c748	0.09510666
146	0xbd217021	-0.039413575
147	0xbe00e637	-0.1258782
148	0xbde647e9	-0.112441845
149	0x3cfbb465	0.030725667
150	0xbea0d824	-0.31414902
151	0xbd8dde7c	-0.06927201
152	0x3d6b3d59	0.057431553
153	0xbe69e348	-0.22840607
154	0xbf227b07	-0.63468975
155	0xbea3acee	-0.31967872
156	0xbef3e4ae	-0.47635406
157	0xbe3343cc	-0.17506331
158	0xbeaac221	-0.33351234
159	0x3d90a8e4	0.07063463
160	0x3f052530	0.5200987
161	0xbbbc567f	-0.005747616
162	0xbe73d31b	-0.23810999
163	0xbe8e9b0c	-0.27852666
164	0xbf6eb9b4	-0.9325211
165	0xbe89df78	-0.26928306
166	0xbe424a5d	-0.1897368
167	0x3e8bde56	0.27318066
168	0xbdbbf396	-0.0917732
169	0xbc9056fb	-0.0176196
170	0xbeae2e32	-0.3401962
171	0xbda07a14	-0.078357846
172	0xbf0e24c7	-0.5552487
173	0xbdadfb1c	-0.08495161
174	0x3c8d1d31	0.017225834
175	0xbeae4dfe	-0.34043878
176	0xbdc7e82c	-0.0976108
177	0xbdeff98a	-0.11717518
178	0xbdb22b4b	-0.08699664
179	0xbd5f39b8	-0.054498404
180	0xbe5a30bc	-0.21307653
181	0xbe7c179b	-0.2461838
182	0xbd1ffa4f	-0.039057072
183	0xbe23973c	-0.1597566
184	0xbddf66b5	-0.10908262
185	0x3c051497	0.008122585
186	0xbe838027	-0.2568371
187	0xbf01df7c	-0.50731635
188	0xbdbc677c	-0.091994256
189	0xbeef2687	-0.46709082
190	0xbe1aeec6	-0.15130147
191	0xbf0924a8	-0.5357156
192	0xbca95b8c	-0.020673536
193	0xbe87c60f	-0.26518294
194	0xbe2a3db8	-0.16625106
195	0x3e96ac1d	0.29428187
196	0xbe5de82c	-0.21670598
197	0xbebc761a	-0.36808854
198	0x3d164e26	0.036695622
199	0x3cb07749	0.021541255
200	0xbeb9ce36	-0.3629014
201	0xbd0bdebb	-0.03414796
202	0xbe0d612e	-0.13806602
203	0x3e09a32e	0.13441154
204	0xbe3ef196	-0.18646845
205	0xbd96ca78	-0.073628366
206	0xbe7fa488	-0.24965107
207	0xbf0f1718	-0.55894613
208	0xbe22e6f2	-0.15908411
209	0xbe859d8d	-0.26096764
210	0xbe6aaf74	-0.22918493
211	0xbdd5035c	-0.104010314
212	0x3bdf01d2	0.006805637
213	0xbe1af05b	-0.15130751
214	0xbe04d6fb	-0.12972634
215	0xbd169a70	-0.036768377
216	0xbc95da4c	-0.018292569
217	0xbd709850	-0.058739007
218	0xbf42c1cc	-0.7607696
219	0xbc94913c	-0.01813566
220	0xbc8da7bd	-0.017291898
221	0xbde9ef58	-0.11422604
222	0xbef9013e	-0.4863376
223	0xbdc65121	-0.09683443
224	0xbe9a74e1	-0.30167297
225	0xbd8f0404	-0.06983188
226	0xbe8052ed	-0.25063267
227	0x3df0cc00	0.1175766
228	0xbf14fb27	-0.5819573
229	0x3e603e05	0.21898659
230	0xbcd02073	-0.025406098
231	0xbe26d8ef	-0.16293691
232	0xbf107cd8	-0.56440496
233	0xbe1fca2d	-0.15604468
234	0xbe4b0a29	-0.19828095
235	0xbe2ce682	-0.16884807
236	0xbd44a5a2	-0.048009522
237	0x3c887cb0	0.016661018
238	0xbef740fe	-0.48291773
239	0xbe92b552	-0.2865396
240	0xbe7c8a04	-0.24662024
241	0x3c9a750a	0.018854637
242	0xbd00d14b	-0.031449597
243	0xbdc5177f	-0.09623622
244	0xbe8b8b1d	-0.27254573
245	0xbf249fbe	-0.6430625
246	0x3e5f9ac0	0.21836376
247	0xbe599083	-0.21246533
248	0xbda53227	-0.080662064
249	0xbefa5d28	-0.48899198
250	0xbdf21b1e	-0.118215784
251	0xbcb5889d	-0.022159869
252	0xbdc536b3	-0.09629574
253	0xbe1f8d96	-0.15581354
254	0xbeedbb34	-0.46431887
255	0xbd526073	-0.051361512

net.fc3.weight f4 [256, 256]
0	0x3c461a85	0.012091284
1	0x3e90b5bd	0.28263655
2	0x3e2375ef	0.15962957
3	0xbda47e54	-0.08031908
4	0xbdd90fc3	-0.105987094
5	0xbdc353eb	-0.095374905
6	0xbea1d087	-0.31604406
7	0xbe0f01e8	-0.13965571
8	0xbdddc482	-0.108284965
9	0xbc8748c3	-0.016514188
10	0x3d20490a	0.039132155
11	0x3d1395bc	0.03603147
12	0xbed2afc6	-0.4114973
13	0xbe18dccb	-0.14927976
14	0xbd80da0e	-0.06291591
15	0x3c97432d	0.01846465
16	0xbcffe684	-0.031237848
17	0xbe25b6a1	-0.16182949
18	0x3e5453e8	0.20735133
19	0x3d85d15d	0.065340735
20	0xbe66a5d0	-0.2252419
21	0x3e73e6d9	0.2381853
22	0xbe0726ac	-0.13198346
23	0xbdd252cb	-0.10269698
24	0xbe2832c8	-0.16425622
25	0xbd2804c6	-0.041020177
26	0x3da23478	0.07920164
27	0xbeb9e7ef	-0.36309764
28	0xbe17247a	-0.14760008
29	0xbe082d6b	-0.13298576
30	0xbd7480e0	-0.059693217
31	0xbcc0b48a	-0.023523588
32	0xbe1d85ea	-0.15383115
33	0xbe3b54e8	-0.18294108
34	0xbf2f35fd	-0.68441755
35	0xbdad86b1	-0.08472956
36	0x3e407d57	0.18797813
37	0x3dd23b1d	0.10265181
38	0x3d0906ed	0.03345387
39	0xbbfa052b	-0.0076300106
40	0x3d558a2d	0.052133728
41	0x3e239c43	0.15977578
42	0x3e4650b3	0.19366722
43	0x3b6ebab1	0.0036427195
44	0x3e34f896	0.17672953
45	0xbea3b08e	-0.31970638
46	0xbd31701e	-0.043319814
47	0xbf161bfb	-0.58636445
48	0xbd5a5722	-0.053305753
49	0x3e4d0edf	0.20025204
50	0xbd54ca73	-0.051950883
51	0xbe3791da	-0.17926732
52	0xbcf52968	-0.02992697
53	0xbe2c5953	-0.1683095
54	0x3dc5aa85	0.09651665
55	0xbe0f55a7	-0.13997518
56	0xbdc17ced	-0.09447656
57	0xbdc7aed5	-0.097501434
58	0x3e3dac1e	0.18522689
59	0xbd4d9219	-0.050188158
60	0x3e269fe6	0.16271934
61	0x3e0ae49f	0.13563775
62	0xbc670a76	-0.014101615
63	0x3dfebdfb	0.1243858
64	0xbc3f14ba	-0.011662656
65	0xbbb79d66	-0.00560348
66	0x3e055806	0.1302186
67	0xbe02a454	-0.12757999
68	0xbe4acd87	-0.19804965
69	0x3ce0a5ad	0.02742275
70	0xbe3a5aa9	-0.18198647
71	0xbd52d014	-0.05146797
72	0xbe8a9ec8	-0.27074265
73	0x3c307fcf	0.010772659
74	0xbe290ee0	-0.1650958
75	0xbee55aa9	-0.4479573
76	0x3d560c16	0.05225762
77	0x3c7973cc	0.015225362
78	0x3e1065db	0.14101355
79	0xbe1adcd8	-0.15123308
80	0xbea51ee0	-0.32250118
81	0x3e333bda	0.175033
82	0xbe226748	-0.15859711
83	0xbdf19558	-0.11796063
84	0x3df79c97	0.12090414
85	0x3cb924e4	0.022600599
86	0x3e1bfe2d	0.15233679
87	0xbe1b4353	-0.15162401
88	0x3c911b0b	0.01771309
89	0xbc9ee530	-0.019396394
90	0x3afb9c79	0.0019196413
91	0xbc120a94	-0.008913655
92	0xbe2dc205	-0.16968544
93	0xbd7097b5	-0.05873843
94	0xbe342cf5	-0.17595275
95	0x3db9764c	0.090557665
96	0x3e7696c8	0.24080956
97	0xbcaf7517	-0.021418137
98	0xbdacf362	-0.08444859
99	0xbda3262f	-0.07966267
100	0xbea93247	-0.3304617
101	0x3cebaf8e	0.028770234
102	0x3e0a5c3a	0.13511744
103	0x397fe9af	0.00024405749
104	0xbe88bb97	-0.2670562
105	0xbe7a30a9	-0.24432625
106	0xbe9413ff	-0.28921506
107	0xbdd43db2	-0.1036333
108	0xbdd9dd7c	-0.10637948
109	0xbe6b25d8	-0.22963655
110	0x3d134c63	0.03596152
111	0x3db0f6f9	0.08640856
112	0xbc6331a2	-0.013866814
113	0xbd50f189	-0.051011596
114	0xbe63cd19	-0.22246207
115	0xbf12638b	-0.5718314
116	0xbd7a5d7b	-0.061124306
117	0xbdcea96a	-0.10090907
118	0x3df67307	0.120336585
119	0xbdb86416	-0.09003465
120	0xbd480832	-0.04883594
121	0xbe7c5234	-0.24640733
122	0xbe2ea8fd	-0.17056651
123	0x3e96cbd3	0.2945238
124	0xbe205a8f	-0.15659545
125	0x3d24a750	0.040198624
126	0xbe867727	-0.2626278
127	0x3d47ee6e	0.04881137
128	0xbd0cc330	-0.034365833
129	0x3d9b40ed	0.07580743
130	0xbd502508	-0.050816566
131	0x3d5163e8	0.05112067
132	0xbe0b69ec	-0.13614625
133	0xbea1d360	-0.3160658
134	0xbe00a1ca	-0.12561718
135	0x3e78fd5e	0.24315402
136	0xbea39ce4	-0.31955636
137	0xbea8ef31	-0.3299499
138	0x3e4f76d1	0.20260169
139	0xbd4b989c	-0.049706087
140	0x3dd3abe2	0.103355184
141	0xbe00951a	-0.12556878
142	0x3e1b01c9	0.151374
143	0x3df748a8	0.12074405
144	0xbd6fa9ee	-0.058511667
145	0xbe067296	-0.13129649
146	0xbd045916	-0.03231152
147	0xbd7c654b	-0.061620038
148	0x3ced188c	0.028942369
149	0x3e183386	0.14863405
150	0xbc9db5cb	-0.019251725
151	0x3e216427	0.15760861
152	0xbc32f194	-0.0109218545
153	0x3d12f8db	0.03588186
154	0xbd92e8c6	-0.07173304
155	0xbd11a8d9	-0.035561416
156	0x3d465654	0.048422173
157	0xbcd44eab	-0.025916418
158	0xbe5dfd7b	-0.21678726
159	0x3e33d3ea	0.17561308
160	0xbde037c9	-0.1094814
161	0x3d2b8bed	0.04188149
162	0x3cb13f58	0.02163665
163	0x3e27120d	0.1631548
164	0xbd2dcda9	-0.04243246
165	0xbed239ac	-0.41059625
166	0xbe9da8f7	-0.30792972
167	0xbe4e4a16	-0.20145449
168	0xbd0632f7	-0.032763448
169	0xbcfa2920	-0.030537188
170	0xbc1a337b	-0.009411688
171	0xbe227044	-0.15863138
172	0xbe5f50b0	-0.21808124
173	0xbdf3693f	-0.118853085
174	0x3c0eb073	0.008709061
175	0x3e41fbf9	0.18943776
176	0x3e57714f	0.21039318
177	0x3d875ff2	0.06610097
178	0xbddd2908	-0.10798842
179	0xbe2e2403	-0.17005925
180	0xbe1862df	-0.14881466
181	0x3dbdd61d	0.092693545
182	0x3cdaedb5	0.026724676
183	0x3e132f70	0.14373565
184	0x3e8fe158	0.2810161
185	0x3d1efae2	0.03881348
186	0xbd86fae4	-0.06590822
187	0x3db54354	0.088507324
188	0xbe0546f2	-0.13015345
189	0xbe08ab70	-0.13346648
190	0x3d2a6bcd	0.041606713
191	0xbe06d3f6	-0.13166794
192	0xbed88e50	-0.42296076
193	0xbee10eb3	-0.43956527
194	0x3d9328df	0.0718553
195	0xbdb2fe10	-0.08739865
196	0xbd372aa6	-0.044718407
197	0xbdf33264	-0.118748456
198	0x3df02eca	0.11727674
199	0x3e2c57e5	0.16830404
200	0xbec4f126	-0.38465232
201	0x3e1f1cc9	0.15538324
202	0x3ea12b67	0.31478426
203	0xbd5e595b	-0.054284435
204	0xbe78b69b	-0.24288408
205	0xbd906096	-0.07049672
206	0xbc6ded3f	-0.014521896
207	0xbf1859b2	-0.59511864
208	0xbba06821	-0.0048952256
209	0xbd2f9076	-0.042862378
210	0x3df03652	0.11729111
211	0x3d5b4a18	0.05353746
212	0xbbf1f006	-0.0073833494
213	0x3d62c722	0.05536569
214	0x3e4a570f	0.19759773
215	0xbd3cdddd	-0.046110023
216	0xbd0fdf5e	-0.03512513
217	0xbb2f2540	-0.0026725084
218	0xbd901bca	-0.0703655
219	0x3e7399eb	0.23789184
220	0x3dc9d219	0.09854526
221	0xbe795910	-0.24350381
222	0xbe49c5e2	-0.19704393
223	0xbe40f712	-0.1884425
224	0xbcca21aa	-0.024674255
225	0x3db8b4b3	0.09018841
226	0xbd16e493	-0.03683908
227	0xbe02883e	-0.12747285
228	0xbcbeb13d	-0.023277873
229	0x3b0b8529	0.0021289086
230	0xbdabd0ea	-0.083894566
231	0x3b34bef9	0.002757965
232	0xbd8276cd	-0.06370316
233	0x3e1c6adf	0.15275143
234	0xbe2164a3	-0.15761046
235	0x3bb68c7a	0.0055709453
236	0x3e27bb6b	0.16380088
237	0xbeaba6df	-0.3352575
238	0xbe9d0844	-0.3067037
239	0x3e1101a0	0.14160776
240	0xbefa056e	-0.48832268
241	0x3e3a018b	0.18164651
242	0xbe9dadcc	-0.3079666
243	0x3d99c838	0.07508892
244	0xbcf724d5	-0.03016893
245	0xbc875f66	-0.016524982
246	0x3e11b58e	0.14229414
247	0x3d870e7a	0.06594558
248	0x3e681f73	0.22668247
249	0xbdcd92e4	-0.10037783
250	0xbe8a8573	-0.2705494
251	0xbeb71cf9	-0.35764292
252	0x3df0f78b	0.11765965
253	0x3e59568e	0.21224424
254	0xbd193649	-0.037405286
255	0xbe676636	-0.22597584

net.fc3.bias f4 [256]
0	0xbd680fa9	-0.05665556
1	0x3c3e52a9	0.011616387
2	0x3dbd048d	0.092293836
3	0xbcd200f0	-0.025635213
4	0xbe0766a5	-0.1322275
5	0x3e582c8f	0.21110748
6	0x3c8081c5	0.015686879
7	0xbe1ea8b9	-0.1549405
8	0xbd9bbc7f	-0.07604312
9	0x3cf72659	0.030169653
10	0x3cc58624	0.024111815
11	0xbeddf50b	-0.43351015
12	0xbdfd22f1	-0.1236018
13	0x3d43fc1e	0.04784786
14	0xbda5101e	-0.08059715
15	0xbdd7ea66	-0.10542755
16	0xbea4076b	-0.3203691
17	0xbe1662e0	-0.14686155
18	0xbe3cc3b1	-0.18434025
19	0xbe2e32ae	-0.1701152
20	0xbd7810f0	-0.060563028
21	0xbe480047	-0.19531356
22	0xbe741427	-0.23835813
23	0xbdcabb40	-0.09898996
24	0xbe091542	-0.13387015
25	0xbde47371	-0.11154831
26	0xbda23256	-0.07919757
27	0xbe0226f8	-0.12710178
28	0x3eb11ce7	0.34592363
29	0xbe338340	-0.17530537
30	0xbe6dc510	-0.23219705
31	0xbddc86c6	-0.107678935
32	0x3e6a1b7c	0.22862047
33	0xbb3b56bf	-0.002858564
34	0x3dc1b8b6	0.09459059
35	0xbddde8a7	-0.108353905
36	0xbd2ac5cc	-0.04169254
37	0xbd80d391	-0.06290353
38	0x3edac1bf	0.42725942
39	0x3d4e9738	0.050437182
40	0xbe2d4a63	-0.16922908
41	0xbdd914f8	-0.105997026
42	0xbe020dc2	-0.1270056
43	0xbe07187c	-0.13192934
44	0xbe8b3b32	-0.271936
45	0xbdd6fe67	-0.10497742
46	0xbe21783b	-0.1576852
47	0xbf1c2a11	-0.6100169
48	0xbe8c76de	-0.27434438
49	0xbdc49f46	-0.096006915
50	0xbd8bc16f	-0.06824004
51	0xbdcbfd1b	-0.099603854
52	0x3e3a0aa3	0.1816812
53	0xbe3e9030	-0.1860969
54	0xbe0492fc	-0.12946695
55	0xbd9dd339	-0.07706303
56	0xbe03e602	-0.1288071
57	0xbe10e8d0	-0.14151311
58	0xbecf44de	-0.4048223
59	0xbebd546e	-0.36978477
60	0x3d985e80	0.074398994
61	0xbd09451b	-0.03351317
62	0xbe9d00eb	-0.30664763
63	0xbc7f85d6	-0.015595874
64	0xbd142d6f	-0.03617614
65	0xbdafea20	-0.08589578
66	0xbe4311ee	-0.19049808
67	0xbe773268	-0.24140322
68	0x3d4ef421	0.05052579
69	0xbe9cf50f	-0.30655715
70	0xbe169f31	-0.14709164
71	0xbda735b3	-0.08164539
72	0xbefa8cdd	-0.48935595
73	0xbe57b2ef	-0.21064351
74	0xbe480983	-0.19534878
75	0xbd336db4	-0.043805793
76	0xbddb925c	-0.10721275
77	0xbe40cba9	-0.1882769
78	0xbe52f938	-0.20602882
79	0xbdd502f5	-0.10400955
80	0xbd152041	-0.036407713
81	0xbdf961fe	-0.12176894
82	0xbe254195	-0.16138299
83	0xbea02c4d	-0.312838
84	0xbab3b062	-0.0013709182
85	0xbe11d3c8	-0.14240944
86	0xbe1efbd5	-0.15525754
87	0x3db181ee	0.0866736
88	0x3e241fb2	0.16027716
89	0xbe09bbf1	-0.134506
90	0x3e35322c	0.1769492
91	0xbee62c45	-0.4495565
92	0xbe364433	-0.17799453
93	0xbe51e625	-0.2049795
94	0xbd868ed8	-0.06570214
95	0xbe15abb7	-0.14616285
96	0xbddd2ea9	-0.10799915
97	0xbc850fac	-0.016242824
98	0xbd9d666e	-0.076855525
99	0xbdbaccc4	-0.09121087
100	0xbe1f8baf	-0.15580629
101	0xbdd3c30a	-0.10339935
102	0x3cb1373b	0.021632781
103	0xbea62a30	-0.32454062
104	0xbe52f4b8	-0.20601165
105	0xbdc16493	-0.09443011
106	0x3dd17f84	0.102294
107	0xbe13bbe7	-0.14427148
108	0xbe1eb11c	-0.1549725
109	0xbe2450f2	-0.16046503
110	0xbdb2269a	-0.08698769
111	0xbd847b43	-0.06468823
112	0xbbc4f464	-0.006010579
113	0xbd9e14b9	-0.07718796
114	0xbe458889	-0.19290365
115	0x3e0779a6	0.13229999
116	0xbdc2f8ee	-0.09520136
117	0xbe016446	-0.12635908
118	0xbd6eec30	-0.058330715
119	0x3f19cc80	0.6007767
120	0xbe10d1a0	-0.14142466
121	0xbe3c8b5b	-0.18412535
122	0xbd189538	-0.03725168
123	0xbe3bef11	-0.18352915
124	0xbdefb1cb	-0.11703833
125	0xbeb2bcd7	-0.34909698
126	0xbd87e267	-0.0663498
127	0xbdfb1775	-0.122603334
128	0xbd94c8e1	-0.07264877
129	0xbe2600bb	-0.16211216
130	0xbe5c436a	-0.21510091
131	0xbd16dc9f	-0.036831494
132	0x3d771bfb	0.06032942
133	0xbcb8b514	-0.022547282
134	0x3ca0eadd	0.019643242
135	0xbdd45520	-0.10367799
136	0x3cbec448	0.023286954
137	0xbdc8796b	-0.09788784
138	0xbdaf8b29	-0.085714646
139	0xbd9224c5	-0.071359195
140	0xbd75fb83	-0.060054313
141	0xbdc40ccc	-0.09572753
142	0xbe391ebf	-0.18078135
143	0xbdf197a0	-0.11796498
144	0xbe97a072	-0.29614598
145	0xbd851f7e	-0.06500147
146	0xbd1ebf9d	-0.038756955
147	0xbe185357	-0.14875542
148	0xbe305192	-0.17218617
149	0x3de74e67	0.11294251
150	0xbc9a727a	-0.018853415
151	0xbd33b7f6	-0.04387661
152	0x3c1a0b80	0.009402156
153	0xbdfe05ae	-0.12403427
154	0xbe1c907b	-0.1528949
155	0x3caaa007	0.02082826
156	0xbde91da0	-0.11382604
157	0xbe06c31d	-0.13160367
158	0xbe37b320	-0.17939425
159	0xbe0b0be4	-0.13578755
160	0xbde4c400	-0.111701965
161	0xbe297f8b	-0.1655256
162	0xbdffb891	-0.12486375
163	0xbeb23563	-0.34806356
164	0xbc7242f9	-0.014786475
165	0xbe4710d3	-0.19440012
166	0x3c2191e7	0.009861446
167	0xbdeb6a5b	-0.11494895
168	0x3b4c3c45	0.0031163853
169	0xbddad374	-0.10684863
170	0xbe3c1118	-0.18365896
171	0x3e0073c4	0.12544161
172	0xbdb99fd4	-0.09063688
173	0xbdd6b2fb	-0.104833566
174	0xbb347341	-0.0027534517
175	0xbe439205	-0.19098671
176	0xbe477a20	-0.1948018
177	0xbc2a078e	-0.010377778
178	0xbe10be09	-0.14134993
179	0xbbf5c41b	-0.0075001842
180	0xbeb76b2e	-0.3582396
181	0xbcb1f873	-0.021724915
182	0xbe339a86	-0.17539415
183	0xbe654efd	-0.22393413
184	0xbdb2399c	-0.08702394
185	0xbc1c940b	-0.009556781
186	0xbde54e70	-0.111966014
187	0xbe390211	-0.18067195
188	0xbdb5f9c0	-0.08885527
189	0xbf0b1883	-0.54334277
190	0xbd57a4f4	-0.052647546
191	0xbe2b37c0	-0.16720486
192	0xbded0c62	-0.115746275
193	0xbd7f0a97	-0.06226596
194	0xbcc6e013	-0.024276769
195	0x3c91a193	0.01777724
196	0xbe28a7ba	-0.16470233
197	0xbd85f1b2	-0.0654024
198	0xbe7e578e	-0.24838087
199	0xbd4c2230	-0.04983729
200	0xbd12bed0	-0.035826504
201	0xbe122795	-0.14272912
202	0xbe0d3e07	-0.13793193
203	0xbd90e609	-0.07075126
204	0xbda717ef	-0.08158862
205	0xbf29dced	-0.6635273
206	0xbe690442	-0.2275553
207	0xbd5d4bc7	-0.054027345
208	0xbda14c3e	-0.0787587
209	0xbbed44df	-0.007240876
210	0xbe0b9882	-0.13632396
211	0xbe4a1b1f	-0.19736908
212	0xbede1fab	-0.43383536
213	0xbd5c6119	-0.053803537
214	0xbdd3e7ff	-0.10346984
215	0x3c816342	0.0157944
216	0x3eec1e08	0.46116662
217	0xbd8303b4	-0.06397191
218	0xbdb752cc	-0.08951339
219	0xbe860507	-0.2617571
220	0xbee3f98f	-0.44526336
221	0x3e8c852c	0.27445352
222	0xbb0115eb	-0.0019696902
223	0xbe412edd	-0.18865533
224	0xbdef8476	-0.11695187
225	0xbd07e8db	-0.033181053
226	0xbdb8bda8	-0.09020549
227	0xbef1baf9	-0.4721296
228	0xbcf8cf6f	-0.03037235
229	0xbe013cb3	-0.12620811
230	0xbd19c06a	-0.037537016
231	0xbe83dc5b	-0.25754055
232	0xbdf9b458	-0.12192601
233	0xbb9de5e5	-0.0048186653
234	0xbf2eca9e	-0.6827792
235	0xbe080494	-0.13282996
236	0xbdf01f61	-0.11724735
237	0xbe5c8637	-0.21535574
238	0xbe52a32c	-0.20570058
239	0xbd1930ea	-0.037400164
240	0x3d3a3327	0.04545894
241	0xbdf8d610	-0.12150204
242	0xbed2e35f	-0.41189095
243	0xbe00fdc0	-0.12596798
244	0xbdaf29eb	-0.08552917
245	0xbe44972c	-0.19198292
246	0xbe302ee8	-0.17205393
247	0x3c3a4761	0.011369557
248	0xbdd265ef	-0.102733485
249	0xbd46b8ea	-0.04851619
250	0xbe2283e6	-0.15870628
251	0xbde1cda8	-0.11025554
252	0xbd195b58	-0.037440628
253	0xbc85affb	-0.016319266
254	0xbd9287a1	-0.071547754
255	0x3e1c3e65	0.15258177

net.out.weight f4 [1, 256]
0	0xbc154876	-0.009111514
1	0xbdd6a826	-0.104812905
2	0xbe74512e	-0.23859093
3	0xbe1e1c99	-0.15440597
4	0xbed0755b	-0.40714535
5	0x3d5aa2cc	0.05337791
6	0xbdeadf5d	-0.114683844
7	0xbd6158c9	-0.055016313
8	0xbed27545	-0.41105095
9	0xbe2b32a9	-0.16718544
10	0xbe3e099b	-0.18558352
11	0xbfd6039a	-1.6719849
12	0xbd804f07	-0.06265073
13	0xbe0637a3	-0.13107161
14	0xbed4fc2b	-0.4159864
15	0xbe255037	-0.16143881
16	0xbf3d6508	-0.73982286
17	0xbcba602f	-0.022750942
18	0xbd82dd50	-0.06389868
19	0xbd6f190e	-0.058373503
20	0xbdd3c005	-0.10339359
21	0xbd4b999d	-0.049707044
22	0xbf32babf	-0.698162
23	0xbe2c99f6	-0.16855606
24	0xbd8c114d	-0.06839237
25	0xbf07126c	-0.52762485
26	0xbf7b6f45	-0.9821666
27	0xbe524cf8	-0.20537174
28	0x3e9dd158	0.3082378
29	0xbd8f103c	-0.06985518
30	0x3fe4ad9f	1.7865485
31	0xbf0d14ce	-0.5510987
32	0x3e2962d7	0.1654161
33	0xbeed7c97	-0.46384117
34	0xbeaea739	-0.34111956
35	0xbcd23544	-0.025660165
36	0xbf3be0a7	-0.7338967
37	0xbe462282	-0.19349101
38	0x3e1f4741	0.15554525
39	0xbebb6f4b	-0.36608347
40	0xbe572b47	-0.21012603
41	0xbf8761ab	-1.0576681
42	0xbe8fbedf	-0.2807531
43	0xbd812b58	-0.06307095
44	0xbe902b04	-0.28157818
45	0xbc11e9c3	-0.008905831
46	0xbe6345c5	-0.22194584
47	0xbf6f9ccc	-0.9359863
48	0xbe275f68	-0.16344988
49	0xbed56069	-0.41675118
50	0xbe8748fd	-0.26422873
51	0xbd947222	-0.072483316
52	0x3e35b16b	0.17743461
53	0x3a22c8fe	0.000620976
54	0xbd570410	-0.05249411
55	0xbc5ac617	-0.013352892
56	0xbf3f1299	-0.7463775
57	0xbd9f1d55	-0.077692665
58	0xbeb8251f	-0.3596582
59	0xbda8e77f	-0.082472794
60	0xbe755574	-0.23958379
61	0xbe6b6050	-0.22985959
62	0xbf55d83c	-0.8353307
63	0xbe3d6eea	-0.18499342
64	0xbd002014	-0.031280592
65	0xbdb7c814	-0.08973709
66	0x3b3dad92	0.0028942567
67	0xbe10ced0	-0.14141393
68	0xbe9d5a65	-0.30733028
69	0xbe6d4a6e	-0.23172924
70	0xbe8b0778	-0.27154136
71	0xbe7a301d	-0.24432416
72	0xbf8074a0	-1.0035591
73	0xbe95a1f1	-0.29225114
74	0xbe834976	-0.25641984
75	0xbe457beb	-0.19285552
76	0x3d3fb4d0	0.046803296
77	0xbf599ece	-0.8500794
78	0xbef776c2	-0.48332793
79	0x3f68c41b	0.90924233
80	0x3dcd28f9	0.100175805
81	0xbda2b23f	-0.07944154
82	0x3dd2333b	0.10263678
83	0xbe831afd	-0.25606528
84	0x3e43a221	0.19104816
85	0xbe99774d	-0.29973832
86	0xbf7506aa	-0.95713294
87	0x3e1ec8f8	0.15506351
88	0x3e2a429a	0.16626969
89	0xbeb99b5f	-0.3625135
90	0x3e61ec2c	0.22062749
91	0xbce1a27b	-0.027543297
92	0xbdcb7c01	-0.09935761
93	0xbf7abd45	-0.9794505
94	0xbec8963a	-0.39177114
95	0xbf5bb30c	-0.8582008
96	0xbca6005a	-0.02026384
97	0xbeb90302	-0.36135107
98	0xbde66eb8	-0.11251587
99	0xbecc8bfd	-0.39950553
100	0xbd4198a7	-0.04726472
101	0xbe8b51e8	-0.27210927
102	0xbdfd1531	-0.123575576
103	0xbd1160a9	-0.035492573
104	0xbd58ac09	-0.05289844
105	0xbd97f50f	-0.07419788
106	0xbca0a763	-0.019611066
107	0xbdcdd6df	-0.10050749
108	0x3ebc237b	0.3674582
109	0x3e1aafd8	0.15106142
110	0xbd8bd1a4	-0.06827095
111	0x3f42cd96	0.7609495
112	0xbcb61811	-0.022228273
113	0xbe9438b8	-0.28949523
114	0xbee46dbe	-0.44614977
115	0xbe50872a	-0.20364061
116	0xbe8f3d98	-0.2797668
117	0x3dd96cc2	0.10616447
118	0xbe71b83a	-0.23605433
119	0x3e0b951f	0.13631104
120	0xbd254de0	-0.04035747
121	0xbf37e607	-0.7183537
122	0xbef68284	-0.4814645
123	0xbe4275b0	-0.18990207
124	0xbdb59bab	-0.08867582
125	0xbec442af	-0.38332126
126	0x3d30da69	0.043177042
127	0xbf4391c6	-0.7639431
128	0xbec881df	-0.39161584
129	0xbdb33403	-0.08750155
130	0xbde36c5d	-0.11104653
131	0xbcb61d64	-0.022230811
132	0xbdf81b55	-0.12114588
133	0xbe61a94c	-0.22037238
134	0xbdfc717a	-0.123263314
135	0xbe2a2679	-0.16616239
136	0xbeb0f814	-0.3456427
137	0xbe96d59f	-0.29459855
138	0xbf5fbb86	-0.87395513
139	0x3bbf055f	0.0058294977
140	0xbeb545d9	-0.35404852
141	0xbe4c4077	-0.19946466
142	0xbd8d448a	-0.068978384
143	0xbf3b2a33	-0.73111266
144	0xbf88728e	-1.0659959
145	0xbf07d9c0	-0.53066635
146	0xbe803e34	-0.25047457
147	0xbf83f692	-1.0309622
148	0xbcfb7dc0	-0.03069961
149	0x3d74444e	0.059635453
150	0xbdcf8ef1	-0.10134686
151	0xbe3032f9	-0.17206945
152	0xbe075426	-0.13215694
153	0xbe8ac35a	-0.27102166
154	0xbea16902	-0.31525427
155	0xbebcb37c	-0.36855686
156	0xbefc15d7	-0.49235412
157	0xbd601030	-0.054702938
158	0xbe6cefd0	-0.23138356
159	0xbe66599e	-0.22495124
160	0xbd514631	-0.05109233
161	0xbe17db38	-0.14829719
162	0xbee82b9a	-0.45345765
163	0xbfd49642	-1.6608355
164	0xbeccea21	-0.40022376
165	0xbe1b11a0	-0.15143442
166	0xbef3cf3d	-0.47619048
167	0xbcded873	-0.02720282
168	0xbe3f0d73	-0.18657474
169	0xbe26d35b	-0.16291563
170	0xbec121bd	-0.37721053
171	0xbf8ea703	-1.1144718
172	0xbe963b44	-0.2934209
173	0xbf4252a0	-0.75907326
174	0xbe1f1b99	-0.15537871
175	0xbde02755	-0.10945002
176	0xbedd3c21	-0.43209937
177	0xbd8e07bc	-0.06935069
178	0xbe9bbdb5	-0.30418172
179	0xbe2a393c	-0.16623396
180	0xbf9f9511	-1.2467366
181	0xbec0d2cd	-0.37660828
182	0xbdc275ef	-0.0949515
183	0xbdfd34b9	-0.12363572
184	0xbdf42144	-0.119204074
185	0x3d05efe7	0.03269949
186	0x3d6a2cb3	0.057171535
187	0xbf3627df	-0.7115459
188	0xbc11dc97	-0.00890269
189	0xbf94b96c	-1.1619086
190	0xbddd6809	-0.10810859
191	0x3d538085	0.051636238
192	0xbd1c4f2e	-0.03816145
193	0xbcff0863	-0.031131929
194	0xbd2eb479	-0.04265258
195	0xbe8543ec	-0.26028383
196	0xbd35f680	-0.044424534
197	0xbe67a6b2	-0.22622183
198	0xbd85bf24	-0.06530598
199	0xbefb37fd	-0.49066153
200	0x3d9f0984	0.07765487
201	0xbe0260b7	-0.12732206
202	0xbe72c79f	-0.23708962
203	0xbd9fbdaf	-0.07799851
204	0xbf1f3ec8	-0.6220517
205	0xbe1d9e12	-0.1539233
206	0xbe9698a3	-0.29413328
207	0xbe6fbc40	-0.23411655
208	0xbe8493e8	-0.25894094
209	0xbd3a1e54	-0.04543908
210	0xbd7d7c9a	-0.061886407
211	0xbf1a5752	-0.6028949
212	0xbe91c743	-0.28472337
213	0x3cd3e51b	0.025866082
214	0xbf7015fd	-0.9378355
215	0xbd8942d7	-0.06702202
216	0x3e367894	0.17819434
217	0xbe339c7e	-0.17540166
218	0x3b87d601	0.0041453843
219	0xbef4dac4	-0.47823155
220	0xbd4b274c	-0.049598023
221	0x3dc02a3c	0.093830556
222	0xbd4af7fd	-0.049552906
223	0xbd8b42c5	-0.06799845
224	0xbde72ffb	-0.112884484
225	0xbe37ef42	-0.17962363
226	0xbea1fc25	-0.31637684
227	0xbdc9e788	-0.09858614
228	0xbe28aded	-0.16472597
229	0xbe725ff5	-0.23669417
230	0xbf463656	-0.7742666
231	0xbe7bdbad	-0.24595518
232	0xbdbdd0db	-0.09268352
233	0x3df4a69c	0.11945841
234	0xbf97d28d	-1.186113
235	0xbf5d77b2	-0.86510766
236	0xbe532c60	-0.20622396
237	0xbec48953	-0.3838602
238	0xbfc7c639	-1.5607368
239	0xbe51328d	-0.2042944
240	0xbebbced2	-0.3668123
241	0xbe897f95	-0.2685515
242	0xbfa99323	-1.3248028
243	0xbd5c94f2	-0.053852983
244	0xbefca7f6	-0.49346894
245	0xbf061fcf	-0.52392286
246	0xbcd27a25	-0.025693009
247	0xbe27c99d	-0.16385503
248	0xbe888d3b	-0.2667025
249	0xbe1d317c	-0.15350908
250	0xbf367117	-0.7126631
251	0xbe9a4f16	-0.30138463
252	0x3e83897a	0.25690824
253	0xbe249cf2	-0.16075495
254	0xbdf3f600	-0.11912155
255	0xbe93a199	-0.28834227
