models/running_best_model.pt (torch_old, 810883 bytes, 9 tensors)

net.fc1.weight f4 [256, 17]
00000000: 40cd 82bc 7335 e43a c469 bfbc 63a5 703c
00000010: 8371 903b 11fc 553c c498 98bc a94c 20bc
00000020: 4344 0e3b 2be8 81bc c4e8 57bc 3aa7 f23c
00000030: f3fd f63a 203f 353a ac63 b2bb e748 0d3f
00000040: 94d7 1cbf da8b d6bc 6d75 32bd d1d6 44bd
00000050: 523c 91bc d2de dc3c 3c04 623c d0f6 7bbd
00000060: 3a41 90ba fda9 eb3c 1bd9 323d 39b1 0d3c
00000070: 6e47 ff3d ebec 10bc c5b9 e53c a97e 87bc
00000080: 2691 063f 54c5 30bf eb6a a93c 6ddf 0ebd
00000090: e9dd 8cbe a3f0 7cbd 3de5 88be fd64 843e
000000a0: 492e 05bf 05bb 80bd 6a92 fe3d d36d db3e
000000b0: 5757 603e 2fba a3be de54 d1bd ffaf 493d
000000c0: 98a6 e6bd 170a 52bd 17cb 9e3d 37f0 0abf
000000d0: 69bf 56be a8e1 9dbe ff43 053e e73b 0ebd
000000e0: a9ef 7dbd e779 e9bb b602 923b 4e1a a03d
000000f0: 1a54 4b3e 6778 613e 0700 b4be 1857 84bb
00000100: 4985 4c3e 1ab8 c5bc 63d8 08bd a662 9bbd
00000110: 7ca4 71bd 0e83 8bbc 2b14 283a af70 c8bd
00000120: 3145 083e d73d b3be cafe 5cbc ed36 71bd
00000130: d169 54b9 d455 e13e 7c24 b43e 7e01 71be
00000140: a69a a23e a1f5 fdbe 2487 71be e820 38bc
00000150: 9832 713e a858 59be 17ec d23d a6c8 0c3d
00000160: 2bab 12be 54f6 b63e 7d75 aa3e 7510 843e
00000170: 3812 2bbd 822e 8bbe e7cb f1be 92dc 163e
00000180: 69e2 f93e d1cc c33d 0d7b b0bd 6d6c 88bd
00000190: d0f7 85be 9f8f c93e 1f0d cbbe bcb1 303e
000001a0: cda2 8e3e 108b f5be 72be bd3e 5c5b 9c3d
000001b0: 51eb 97bd 5fb1 c4bc 7997 b4be d70f 353f
000001c0: 01b1 cdbd b226 cbbd 901e 43be a4c2 c43c
000001d0: 233a 9e3e a6a7 753c 8297 6c3d fd46 b13d
000001e0: 1f4c 313d 7001 ee3c 1cca 983d 1ab1 55bb
000001f0: 68cb 9dbb 0e84 523c 14e4 bf3c fcc4 19bd
00000200: 39fe 1a3d 0634 0cbe e983 18be 67a4 d3bc
00000210: d63f 383e 2483 2c3c 6acf 5ebd 2280 243f
00000220: 3d34 20bf 7c06 33be f35e 283f 0cca 11bf
00000230: 935f 683d 99e7 703e 48da a1bd 738d 223d
00000240: 07af dbbe 46dc debc db75 8c3e 41ec bf3d
00000250: 9ccf 013e 46c9 f5bb 7caa ef3d 942d 29be
00000260: a3a0 8d3d a756 2cbe cd9e 383c 152f debc
00000270: 1b8b bebc d388 75bd a53a a33c c159 6ebd
00000280: 1e1c 23bd 9e0a 18bc de93 6abc dfe4 3ebe
00000290: 05a7 a6be 5c09 39bd 753c 42bd 7a52 15bd
000002a0: 4f17 7b3e 932a 623e 12dc f0ba b9d4 12bc
000002b0: 2514 833c 2d12 5d3b eafd b93c 7a4d 2a3c
000002c0: 1cf1 7bbc eefb 6cbc 8ff3 1d3c 8a6f 6dbc
000002d0: afd0 62bb f3fe 14bc 96b6 f0bb fe2b acbb
000002e0: 7b94 143c 81ea 0fbf 1d07 2e3f f5bd bd39
000002f0: 1df2 40bd 9a77 0fbc 7119 96ba 788b 173d
00000300: ebb2 e0bc f8b5 14bd a999 ccbc 9cef bfbb
00000310: be57 3abb a7f7 783c 1710 ccbc 7e65 343c
00000320: 2708 91bc 9c1f 023c 520b 203f a593 15bf
00000330: a694 1bbe 0feb 0a3e 8116 dabd 4662 f2bd
00000340: edc9 06be ae45 313e 62c6 71bd 1331 9dbe
00000350: 93f6 16bd 9ca9 f9be 45ba 003f 5ff2 10be
00000360: 265a 18be e50a 9bbe 2c17 bd3d 9f12 55bd
00000370: 1ff6 853e 16c8 df3d d32a dcbc cf8e a23e
00000380: fd42 f03b 3753 413e 04e1 c63e 028d d33b
00000390: 3554 bfbd 8fb7 c13d 25fb bfbe 3b79 a13d
000003a0: 64f7 bfbe 2954 483d fc07 03bd 3737 43b7
000003b0: 9959 80bc 3537 9abd 570c 33bc 7498 9b3d
000003c0: 0fa4 90bc 0669 70bc 016c 92bd 79d8 a63a
000003d0: 05bf 853d 0daa 32bc 9364 c63a 63c0 c2bc
000003e0: cde9 a0bc 3851 643d f3b3 b63b 0503 18bc
000003f0: ac58 a7bb 3965 f8bd ac46 2e3f 80eb 8dbc
-0.015967011 0.0017410949 -0.023365863 0.014687869 0.004408063 0.013060586 -0.018627532 -0.009783902
0.0021708168 -0.015857777 -0.013178054 0.029620755 0.0018843993 0.00069140084 -0.0054440107 0.55189365
-0.61266446 -0.026189733 -0.043569017 -0.048056427 -0.017728958 0.026961718 0.013794955 -0.061514676
-0.0011005767 0.02876758 0.04366408 0.00864821 0.12464796 -0.008845548 0.028042683 -0.016539888
0.5256523 -0.690511 0.020680865 -0.034881044 -0.27513054 -0.061752927 -0.26737395 0.25858298
-0.5202375 -0.06285671 0.1243027 0.42857227 0.21908318 -0.31977984 -0.10221265 0.04924011
-0.11262244 -0.051279154 0.0775358 -0.5427279 -0.20971455 -0.30836225 0.1301422 -0.034725096
-0.061996136 -0.0071251276 0.0044558896 0.07817517 0.19856301 0.22018586 -0.3515627 -0.0040387027
0.19972719 -0.024135638 -0.033409487 -0.07587175 -0.058994755 -0.017030265 0.00064116967 -0.09787118
0.13307644 -0.35008118 -0.013488481 -0.058890272 -0.00020257315 0.44010794 0.35184085 -0.23535725
0.31758612 -0.49601462 -0.23586708 -0.011238314 0.23554456 -0.21225226 0.10298937 0.03437104
-0.14323108 0.35734808 0.3329276 0.25793806 -0.04176542 -0.2718392 -0.47225878 0.14732578
0.4880555 0.0956055 -0.0861722 -0.066613056 -0.26165628 0.39367387 -0.39658448 0.172553
0.27858582 -0.4795766 0.3705936 0.07634613 -0.0741793 -0.024010358 -0.35271814 0.70727295
-0.100435264 -0.0991949 -0.19054627 0.024018593 0.3090373 0.014993584 0.057761677 0.08656118
0.043285485 0.02905342 0.07460424 -0.0032606781 -0.0048155077 0.012848867 0.023424186 -0.037541375
0.037840102 -0.1369172 -0.1489407 -0.02583523 0.17993101 0.010529313 -0.054397024 0.64258015
-0.6257971 -0.17482942 0.6576988 -0.56948924 0.05673177 0.23525847 -0.07902962 0.039685678
-0.42906973 -0.027204644 0.27433667 0.09371234 0.12676853 -0.0075008003 0.11702439 -0.16521293
0.06915405 -0.1682993 0.01126833 -0.02712206 -0.02325969 -0.05994494 0.019925425 -0.058191065
-0.039821737 -0.009279875 -0.014317481 -0.18641995 -0.325493 -0.04517494 -0.047420938 -0.03645561
0.2452061 0.22086553 -0.0018376133 -0.00896185 0.016000817 0.0033732757 0.022704083 0.010394448
-0.015377309 -0.014464362 0.009640588 -0.014491925 -0.0034609248 -0.009093988 -0.0073459847 -0.0052542677
0.009068604 -0.562172 0.67979604 0.00036190418 -0.047105897 -0.008756543 -0.0011451674 0.036998242
-0.027429065 -0.03630635 -0.024975615 -0.005857421 -0.0028433646 0.015195764 -0.024910016 0.011010526
-0.017704083 0.007942107 0.62517273 -0.5842841 -0.15193424 0.1356623 -0.106488235 -0.118351504
-0.13162966 0.17311737 -0.059027083 -0.30701503 -0.036856245 -0.48762214 0.50284225 -0.14154957
-0.14878139 -0.3028175 0.09232935 -0.05201971 0.26164338 0.10926835 -0.026875889 0.3174958
0.0073322044 0.188794 0.38843548 0.0064560184 -0.09342233 0.09458839 -0.37496296 0.07884451
-0.37493432 0.048908386 -0.031990036 -1.1635761e-05 -0.015667723 -0.07530061 -0.010928235 0.075974375
-0.017656354 -0.014673477 -0.07149506 0.0012729309 0.06530575 -0.010904801 0.0015136175 -0.023773378
-0.019642735 0.05574152 0.005575651 -0.009278064 -0.005107006 -0.12128682 0.68076587 -0.01732421

net.fc1.bias f4 [256]
00000000: 96b8 71bd 6f25 0e3e 5dda 78be 2a3b d2be
00000010: 6c48 47be 94f3 04bf 5da3 fbbe 0eef 263e
00000020: d9b4 51bf ca39 453e 25ea 373d 2928 84bc
00000030: b4bf 0dbf 9cbd 3ebe 0ced 0cbf 0351 08bf
00000040: d6f9 9fbe 3909 36bd 72ef 343d fa8b 203d
00000050: 8336 973e 67ac 113d 38e0 92be 04ca 16bd
00000060: edbb fabd 6cbd aebe f859 e8be 0a25 b0be
00000070: 4dc6 57be f3ab c93d fcbb ac3d 1acc e8be
00000080: 9413 99bd dc50 953e c4f5 8e3e 1ab4 54bd
00000090: 3b3d 0ebf f941 febe 1323 593d a126 fb3d
000000a0: fd63 123e b787 da3d d675 dcbe 9cc5 ff3d
000000b0: ff06 943d e5df 3dbe 40a4 df3d ced3 803d
000000c0: 3eff 48be 4de2 cd3d 1741 98bc 61bb 00be
000000d0: b72b 50be c549 0dbf 6545 70be 536f 77bd
000000e0: 2832 dcbe d83f a23d ed73 923e f176 08bf
000000f0: e6de 4c3d aa00 283e a2b5 22bf d9af 4bbe
00000100: 9af6 1ebd 14fb 45bf 650f a0be fd31 c7be
00000110: 3a44 d5be cf22 06be 936e cdbe 94bf 053e
00000120: 374f b23d cd23 99bd f85a d7be a523 9bbe
00000130: 186b a2bd 7e74 483d eeee 433e 7c2e c93d
00000140: e808 c9bd 9a0e a43d 2a4b 513e 8e13 e5be
00000150: cdfa c8be d795 f2be 19f6 04bf f781 6fbc
00000160: 7c6f 15bd 6856 173e f833 ee3d 6ab8 9bbe
00000170: c481 32be da71 ecbe 6137 f1bd 1597 bdbe
00000180: d796 93bd 0ec6 c8be 0b7c 1fbf 3d5d 143e
00000190: 4855 c8be 2ea5 e93d 856b cc3d e6a4 adbd
000001a0: 6178 4abf e923 19bf a5a3 eebe 58e3 d9be
000001b0: 86df 26be 05ac 4cbe 9f1b 333e 7b09 dfbc
000001c0: 1b07 a1be c0f8 8ebe 5a13 2dbe cea3 fcbe
000001d0: b211 f6be 3893 1e3e df23 e6be 3f8e f03c
000001e0: b8a2 6a3e 5fdc 9ebe 56b5 65be fd4d 78bd
000001f0: 51f4 ebbd 9a9b 15bf 8b5f 9f3e ee8d 5f3e
00000200: 4aa5 4b3e b9fe d0be e73d 93bd 775c 59be
00000210: c226 80be f53c b0be 56d5 e1be 9064 99be
00000220: 2855 5dbe da1c 05bf 7c56 92be 1561 d4be
00000230: 4117 e3bd 4be5 293e c094 a5be f926 37bd
00000240: f184 05bf 06a3 c73d f089 91bd ca6f 2d3d
00000250: 92b8 89be d4fe 903e a685 0cbf 3650 313d
00000260: cb47 a7bd 5c88 25be 2419 2fbe d424 15bf
00000270: 49e5 8b3d f24c 53bc 534c 59be cdc6 abbe
00000280: e1ac adbe 2cca f6be 4c04 463e 8063 29be
00000290: d4c6 58be 3743 9ebe 2ad1 b13d d11e fcbe
000002a0: 22ae 86bc 3f41 b83d c404 09bd a163 92be
000002b0: a4df 00bf 2ecc b9be 65b3 5cbd 7ea3 e9bd
000002c0: 1f62 44be 37f7 83bd 4a30 f4be 5960 aabe
000002d0: 0088 acbe 7938 3f3e 133a a2be 0a2b f6be
000002e0: 8d46 a0be cbe4 0e3e 7cf1 b53e 185f 9bbd
000002f0: ab85 d3be 5632 dcbe f0b8 343e 5179 853d
00000300: c529 21bf d158 4a3e 5101 5d3d daa4 aa3c
00000310: c570 bdbe 6c3d c2bd 32be 983c 21b2 d73d
00000320: 68e2 09bf 8643 f0bc 373f 1abf d5bd 22bc
00000330: bb03 5bbd 2838 a1be ec8b 2e3e 1b8d 78be
00000340: 283f e6be ed2e 043e a1d9 8a3d 3a58 bbbe
00000350: 28af bcbe 5fdf d2be 24b3 5a3e 5043 b3be
00000360: 227f edbe a427 f4bd 8344 c03d 2f28 cebe
00000370: b739 0abe 64d1 78be 8fe2 4d3d 77d8 8b3e
00000380: 2493 c3be 829d 33be 6fd3 1bbf 9bc7 09be
00000390: 2d1e bd3c 90a6 ef3c 6161 16bf ce3d b83d
000003a0: 6a25 e7be 363b 27bf d753 973d 2eb6 ba3e
000003b0: a8f1 573e 079d c3be cee0 ccbe 4396 9bbc
000003c0: dfa9 013d 2bf3 2b3e a41a 67be 338c 0ebe
000003d0: fe2b 38be cb42 a9be 2005 b83c 8bdc 8cbc
000003e0: 47e0 15be b24e 8dbe 5274 c6be e668 cdbe
000003f0: ce62 edbd 070e 8a3d c55d 49be 2e69 b2be
-0.059013925 0.13881467 -0.24302049 -0.41060764 -0.1946122 -0.5193417 -0.49148074 0.1630213
-0.81916577 0.19260326 0.044901032 -0.016132431 -0.5537064 -0.18627018 -0.55049205 -0.53248614
-0.31245297 -0.04444239 0.044173665 0.039195992 0.29533777 0.035564806 -0.2868669 -0.03681375
-0.12242875 -0.34128892 -0.4538114 -0.3440326 -0.2107174 0.0984725 0.08434293 -0.45468217
-0.07474437 0.29163253 0.2792188 -0.05192957 -0.5556218 -0.49659708 0.053011965 0.12263227
0.14295955 0.10670417 -0.43058652 0.12488863 0.07227897 -0.1854244 0.1092 0.062903985
-0.19628617 0.10052929 -0.018585725 -0.1257148 -0.20329176 -0.5519069 -0.23463972 -0.0604089
-0.43007016 0.079223335 0.2860407 -0.5330649 0.05001726 0.16406503 -0.635584 -0.198913
-0.038809396 -0.7733624 -0.31261745 -0.38905326 -0.41653615 -0.13099216 -0.40123424 0.13061363
0.08706515 -0.074775316 -0.4206159 -0.30300632 -0.07930583 0.04893922 0.19134113 0.09823319
-0.09816152 0.080105975 0.20438829 -0.44741482 -0.39253846 -0.47379944 -0.51938015 -0.014618388
-0.036483273 0.14779055 0.11631006 -0.30414134 -0.17432314 -0.46180612 -0.11778141 -0.3702933
-0.07206505 -0.39213604 -0.6229865 0.14488693 -0.39127564 0.11408459 0.09981445 -0.084787175
-0.79089934 -0.5982042 -0.46609226 -0.42556262 -0.16296205 -0.19987495 0.17491005 -0.0272262
-0.31450734 -0.27924156 -0.16901913 -0.49343723 -0.48060375 0.15485847 -0.44949242 0.029364703
0.22913635 -0.31027505 -0.22432455 -0.06062125 -0.11521209 -0.58440554 0.3112758 0.21831486
0.19887272 -0.40819338 -0.07189541 -0.21226679 -0.2502957 -0.34421507 -0.44108075 -0.29959536
-0.21614516 -0.5199715 -0.28581607 -0.41480318 -0.1108842 0.16591375 -0.3234005 -0.0447149
-0.5215598 0.09747891 -0.071063876 0.04234294 -0.26898628 0.28319418 -0.5489143 0.043289386
-0.0816799 -0.16165298 -0.17099434 -0.5825932 0.06830842 -0.012896763 -0.21220522 -0.3355011
-0.3392096 -0.4820112 0.19337577 -0.16541862 -0.21169597 -0.30910656 0.08682473 -0.4924226
-0.016440455 0.0899682 -0.03345181 -0.28591636 -0.5034125 -0.3628859 -0.05388202 -0.11408137
-0.19178055 -0.06443637 -0.47693092 -0.33276632 -0.3369751 0.18673886 -0.31684932 -0.4807971
-0.31303826 0.13954465 0.355358 -0.07586497 -0.41312918 -0.43007153 0.17648673 0.0651728
-0.6295436 0.19760443 0.053956334 0.02083056 -0.370001 -0.094843715 0.01864538 0.10532022
-0.53861094 -0.029329073 -0.6025271 -0.009932955 -0.053470355 -0.31488156 0.17045563 -0.24272577
-0.4497006 0.12908526 0.06779791 -0.3659075 -0.36852384 -0.41186044 0.21357399 -0.35012293
-0.46386057 -0.11921623 0.093880676 -0.40265033 -0.13498579 -0.24298626 0.05026489 0.27313587
-0.38198197 -0.17540553 -0.608695 -0.1345505 0.023085678 0.029254228 -0.5874234 0.08996163
-0.45145732 -0.65324724 0.07389038 0.36467117 0.21088278 -0.3820574 -0.40015262 -0.018992549
0.031656142 0.1679198 -0.22568756 -0.1392067 -0.17985532 -0.33058771 0.022463381 -0.017195007
-0.14636336 -0.27599102 -0.3876062 -0.40119094 -0.11591111 0.06740957 -0.19664676 -0.3484587

net.fc2.weight f4 [256, 256]
00000000: 21c4 c33c 9bf3 43bd 0b78 7fbe 14b5 afbe
00000010: 5ad9 24bd 57b5 f1bc 4ed5 14be f529 1c3e
00000020: 7fc1 a3be 47f8 fdbd 4a87 abbd e62b cbbd
00000030: ba3b 31bd 421d 3bbd e4b2 053e 4fc2 ca3d
00000040: cc60 1dbe 9fda 38bd 5437 eabe bb8c 1f3e
00000050: 38cd 55be c43f 6e3d 1151 9e3d d346 28be
00000060: 9883 2c3e 6e75 283e 960e 68be 5617 e33d
00000070: 0da3 c4bd c2ac bd3b 0916 3bbc 69b5 893c
00000080: bf72 fc3d 2bfe 1abd e574 913c d9f7 8b3c
00000090: 8443 b03d b79c 113e 7629 8bbd f87f 573d
000000a0: e3be 423d 3736 37bd 47fd c93d 879a 02be
000000b0: a3c6 993b 194b fabd 78a8 ef3c 5404 adbd
000000c0: bd86 56be 079e 453d 7734 f33d f902 0bbe
000000d0: bb39 68be fc25 1f3e 73ca 093d 23a2 d1be
000000e0: 5835 e43d d48e 1abd 9452 9e3c b1a4 53be
000000f0: 4e01 febc d009 e3bd f3c4 553e a21e af3d
00000100: aca0 143e 45db a7bd 7ff9 183d f793 bb3e
00000110: 51eb 383e 06c9 143e 3abc bfbd 36a1 ddbd
00000120: 2d37 9abc 8589 053e 71ff 583e b861 223e
00000130: 4d8a 64bd b3d9 f3ba 8ffc a1bd 4314 df3c
00000140: d609 a9bc baf3 153c 9fb1 38bc f908 233e
00000150: 1bda 953d 6d7c 4a3c da2a fbbb 8414 5e3c
00000160: 90f3 8f3d 870a c3bd abc7 f63d 6c2a a4be
00000170: f636 e8bd da9a 673d 35af fbbd 0bbc 803d
00000180: b78d c2bd 0b8f 113e 8954 a73d f0d9 69be
00000190: 64d2 6dbc 1393 363c 40ad 7bbe a837 433e
000001a0: 458f 04be 7416 06be 0d7e acbe 4d98 a7be
000001b0: 7771 723d ae99 4b3c 5261 413d 00c5 a33d
000001c0: b084 0dbd c638 d13d a0d4 a3bd 86f9 f33d
000001d0: 36ae 063d 155d 4bbc db97 1ebe b594 143e
000001e0: e321 823d 6779 7f3d 7239 fd3d f110 203e
000001f0: 4f11 2abe b277 9f3e 57f4 be3d 384f 4bbb
00000200: 46fb 27be faa7 1b3d 36ba a9bd 5293 453e
00000210: 3100 83bc f79c 28bd 867d 2cbd a1a3 febd
00000220: cd6b 823e 6be1 473e f6f9 2d3e b678 68be
00000230: 4265 db3d 8ea8 be3d 4dad e53c d134 dcbd
00000240: 023e 50be 4cca 98bd 7ef6 393d 1c40 2cbe
00000250: d0d9 b83c 0435 c2bc 42d6 9dbd f43b 693d
00000260: 766a 1a3e ae31 26be c919 9c3d ef57 4abe
00000270: 55c3 37be 1621 51bd 59bf 0bbe a624 09be
00000280: 116f ea3c 6edd 09bd 1bab 183e bca1 61bb
00000290: b630 22bd 9358 26be 98b5 3cbe b7da be3d
000002a0: 361c 34bb e5d5 85be 8572 8fbe c3c3 023e
000002b0: c6d1 313e 264c 963d 2d60 8ebd c616 7cbd
000002c0: a349 87bb 0d20 8bbd 653f 6dbc f0c3 483d
000002d0: c6d0 243e d22e b83d ac17 833d 2bd7 c4bd
000002e0: 7f38 8dbd d37d a3bd c964 c7bd d759 933d
000002f0: 0ddc b73d 8cf5 c2bd 397d 88be 28a0 e9bd
00000300: 33db dd3d a8f3 b0bd 50d5 a8bd f10b a13d
00000310: 6967 2d3e be8c 723e 76dc 3e3d bdc4 f3bb
00000320: b08d 2e3e 0e39 78bd 9de7 a3bd da40 6d3c
00000330: f261 fdbb e289 0b3e 17b7 95bd 6c44 ad3d
00000340: ca1e 1e3e 8fbe 043e a79c 03be b828 f43d
00000350: ab3c 2b3d c5fa 3b3e 3dd7 44ba 81a3 94bd
00000360: a7ad 363d e09e 6d3e 381e 283d 3635 053e
00000370: 9963 a33d 630e 853d 27a7 6fbe 999f 45bd
00000380: d13f b83d dceb da3c 1996 573d 92f1 333e
00000390: 1eb8 0cbe 919d ff3c 83ae 4bbe 1762 1a3c
000003a0: 9486 edbd d843 b1be c8ec 733d 9486 e4bc
000003b0: 46c4 19bd edc4 e73e 48ce 04bf da6e 493e
000003c0: 7691 ff3c 84c0 1abe 75cb 443e 69b9 093e
000003d0: fd37 203e 3706 773b 200d c23c 110a 1abd
000003e0: d1da 50be 6fb7 20be 672c 553e e494 5b3d
000003f0: a411 2ebc 5abe a93d 3058 463d 07e9 3e3e
0.023897232 -0.047839742 -0.24948137 -0.3431784 -0.040246345 -0.029505415 -0.14534494 0.1525038
-0.31983563 -0.12400871 -0.08375414 -0.09920482 -0.04326985 -0.0456822 0.13056523 0.09900343
-0.15368956 -0.04513037 -0.45745337 0.15581028 -0.20879066 0.05816628 0.07730306 -0.16433267
0.16847074 0.16451046 -0.22661814 0.11088435 -0.09601412 0.0057884166 -0.011418828 0.016810136
0.123265736 -0.03784005 0.017755935 0.017085956 0.086066276 0.14219938 -0.067950174 0.052612275
0.047545325 -0.044729438 0.09862762 -0.1275426 0.004692869 -0.12221355 0.029255137 -0.08448091
-0.20949836 0.04824641 0.11875241 -0.13575353 -0.22678272 0.15541834 0.033640336 -0.40944013
0.11142987 -0.037733868 0.019326486 -0.20668294 -0.031006481 -0.11085856 0.20875911 0.085507646
0.14514416 -0.08196119 0.037347313 0.36636326 0.18058516 0.1452981 -0.09362073 -0.10821764
-0.018825138 0.13040741 0.21191193 0.15857589 -0.055795956 -0.0018604308 -0.079095 0.027231341
-0.020634573 0.009152347 -0.011272817 0.15921392 0.07316991 0.012358767 -0.0076650204 0.013554696
0.07028878 -0.09523492 0.120498024 -0.32063615 -0.11338608 0.056544162 -0.122892775 0.06285866
-0.09499686 0.14214723 0.08170421 -0.22837043 -0.014515493 0.011143464 -0.24577808 0.190642
-0.12945278 -0.13094503 -0.3368992 -0.32733384 0.05919024 0.012426777 0.047211953 0.07996559
-0.03455037 0.10215907 -0.079995394 0.11912827 0.032880984 -0.012412329 -0.15487616 0.14509852
0.0635412 0.062371638 0.123644724 0.15631463 -0.16608165 0.31146008 0.09323948 -0.003102256
-0.16404447 0.03800199 -0.0828747 0.1929448 -0.015991302 -0.04116532 -0.042111896 -0.124335535
0.2547287 0.19519584 0.16989884 -0.22702298 0.10712673 0.09309493 0.028036738 -0.107522614
-0.20336154 -0.0746046 0.04540109 -0.16821331 0.022564799 -0.02370692 -0.07706882 0.05694194
0.15079674 -0.16229889 0.07622106 -0.19760107 -0.17945607 -0.051056944 -0.13647212 -0.13392887
0.028617414 -0.033658437 0.14909022 -0.0034428677 -0.039597236 -0.16244726 -0.18428648 0.0931906
-0.0027482635 -0.2613975 -0.2801706 0.1276999 0.17365178 0.07338743 -0.06951938 -0.061545156
-0.004128651 -0.067932226 -0.014480446 0.049014986 0.16095266 0.08993305 0.064009994 -0.096113525
-0.068955414 -0.079829834 -0.0973602 0.0719487 0.08977518 -0.095194906 -0.26658037 -0.114075005
0.108328246 -0.08640224 -0.08243811 0.07863606 0.16933979 0.23686501 0.046596967 -0.0074392245
0.17046237 -0.060601287 -0.08003161 0.014480794 -0.0077326233 0.13626817 -0.07310312 0.08460316
0.15441433 0.12963317 -0.12852727 0.11921829 0.041805904 0.1835738 -0.00075088796 -0.072577484
0.0445992 0.23205137 0.041044444 0.1300858 0.07977981 0.06496885 -0.23403607 -0.048247907
0.08996547 0.026723795 0.05263338 0.1757262 -0.1374211 0.031203063 -0.1989079 0.0094228005
-0.11597934 -0.34622073 0.059551984 -0.027896203 -0.037540697 0.4526743 -0.5187726 0.19671193
0.03119729 -0.15112501 0.19218238 0.13449635 0.15646358 0.0037692913 0.0236879 -0.037607256
-0.20395972 -0.15694974 0.2081772 0.05360879 -0.010624323 0.0828826 0.048423946 0.1864358

net.fc2.bias f4 [256]
00000000: a456 a4be f845 aebe bab5 3fbe 9ed4 5c3d
00000010: 8154 bfbe 8d82 96be 1f93 cabd 8c43 1ebe
00000020: ee2e 9bbe a055 6dbe 6d0b fcbe ae6c bdbe
00000030: 0092 693d 229d 223c e4dc 35be ab6d 7fbe
00000040: 6e7e 07be 5be3 92be c690 83be 4740 d8be
00000050: d353 16bb d970 30be ccb2 aebe 533d 5abe
00000060: 4ce5 8cbe 32f4 1fbd 9fb5 29be d374 2e3d
00000070: 2793 b8be 64f6 ecbe da84 85be 2f51 16bb
00000080: 175e 65be ad28 5abe fa0f 99be 494a 74be
00000090: b6e5 5cbe a43b f83d de1a c6be ccc7 d8be
000000a0: c0b8 a4be f658 38be 31d0 6abe 282b e0be
000000b0: 215a b4be 10c6 9e3c df14 f6bd afed b5bd
000000c0: c00b 15be f35c edbd e829 babe de2c 53be
000000d0: d560 a9be 71dd a9be 745f 7ebe b27d 74be
000000e0: d654 afbe b3b0 c9be c21d 2cbe fb47 d0bd
000000f0: 8bb1 a9be f5f5 da3d 89f9 b8be a085 92bd
00000100: eb5c 9cbe 1b33 c9be a480 58be 10eb cebe
00000110: 4e55 2abd a9b5 13be 2e2c 97be b668 cfbe
00000120: d9e5 7bbe aa6d fcbe 8d91 dbbe 3b58 273e
00000130: b467 09be 720d b5be 68cc 6abd a9db 91be
00000140: 9a44 20be a9e1 d4be 75ea f8be b93d 5bbd
00000150: 7790 80be c827 06be 58da 6bbe 53a3 0fbe
00000160: 3d62 edbe 41e1 423e 603b ac3b 0059 03bd
00000170: e4d8 86bd 5319 48be bf5a cebe d87f 42be
00000180: dd9b f8be 0266 b2be 657c 94be fcf4 b4bc
00000190: b2f7 62bc 1b6f cd3c 25ee 60bc 03b1 b2be
000001a0: 5213 cbbe a23c 95be 1067 29bf 2f4b 40be
000001b0: 0aa2 c3be 696f babd f5e3 91bd 9fba d3be
000001c0: 6c07 09be 0ae3 d5be 205f 6abe e598 91be
000001d0: 54f9 31be 1a86 b43c 7c7c fdbd afc0 8fbe
000001e0: 6f42 30bd 032a 6b3e e909 0dbe eb77 0bbe
000001f0: 3a92 b5be 52df 5ebd 7425 febd 8a4c f8bd
00000200: 1ea6 3d3e a7ec f4bd 2d84 283e 5e32 86be
00000210: bc6a cebe b359 61be 6723 60be cdcc c1be
00000220: 36f3 b2be 0d12 a4be 5bea 23be 72b2 ecbe
00000230: cd49 cfbe fb7f 45be 1193 47be 6b8a 59be
00000240: 9eea 0abe fc9c 23bc 48c8 c2be 738d ee3c
00000250: 490f abbe f5d4 76be 402a 62be dbba 87bd
00000260: 0f6a bfbe e852 b4be 4045 f6bd 432e 8dbd
00000270: 1d9e c73c 4566 c2be 1d4f 3cbe 6b39 80bd
00000280: 09f1 74be f9c3 9cbe 8ec1 63be 49bf 46be
00000290: e393 e1be c7ce e7be 7134 dcbd d21b 1abe
000002a0: ca06 44be db3c 1bbe d33e 8dbe 3edb 333d
000002b0: 2784 bebe ab25 60be 5bde 0ebf aaa6 633c
000002c0: 61f7 89bd 49bf d3be 96f8 b6be a3d4 afbe
000002d0: c5e4 a5be 8e89 98be 7435 38be c5d4 bcbe
000002e0: 2e99 b7bd ec89 ffbe a577 3abd 831a 1ebe
000002f0: b8ff 8fbe e0c3 bdbe 74a2 11bf 801f 50be
00000300: daea 17be c3d9 6a3d 474c 59be 4cc4 4dbe
00000310: 9544 8cbe 8d46 7bbe 33ab 9cbe ff24 b5be
00000320: b686 bd3b 5c8a 8abe 7824 423d ed94 6fbe
00000330: 75ff d6be 33b1 8dbe 2abb a9be b97d 823d
00000340: a826 473d f18b 60bd 2e25 8fbd 8a79 c2be
00000350: e118 1dbe 7c2f 003e f89e 87be dd42 fcbd
00000360: ae86 92be 3058 d3be 08c9 62be b853 9cbe
00000370: ef2f 2bbe fa5a 84be cb31 cbbe ba72 a4be
00000380: 8fe2 58be f493 b0be 96e4 82bd b194 7fbc
00000390: 95eb d0be 1ea2 a7be 4aee 5abd b8aa bbbe
000003a0: 19a2 82bb 4fda 41bb 45a1 30be b5e4 1b3e
000003b0: 09d5 30be 0db0 38be 71d2 e23c 3c6f 72bd
000003c0: 462c d2be d7f4 81be 5b74 6b3c 6b4c b0be
000003d0: 8166 443e 0563 73be 5780 1cbe 92d3 8a3c
000003e0: 9c83 bf3d 182a f13c ad5f 32be b9a3 62be
000003f0: 2b02 a2be 610b 81be acef c2be 6319 a8be
-0.32097352 -0.34037757 -0.18721667 0.053913705 -0.3736916 -0.29396477 -0.09891342 -0.15455455
-0.30309242 -0.23177195 -0.49227467 -0.3699698 0.057024002 0.009925159 -0.17760044 -0.24944179
-0.13231823 -0.28689083 -0.2569639 -0.4223654 -0.0022938147 -0.17230548 -0.34120786 -0.21312456
-0.2751869 -0.039051242 -0.16573189 0.04259188 -0.36049768 -0.4628173 -0.2607792 -0.0022936573
-0.22399174 -0.21304579 -0.29895002 -0.23856463 -0.21572003 0.121207505 -0.38692373 -0.42339933
-0.32172203 -0.18002686 -0.22930981 -0.43782926 -0.35225013 0.019381553 -0.120156996 -0.08883225
-0.14555264 -0.11589994 -0.36360097 -0.20622584 -0.3308169 -0.3317676 -0.248411 -0.23876074
-0.34244412 -0.39392623 -0.16808227 -0.10169979 -0.33143267 0.10691444 -0.3612788 -0.07154393
-0.3053964 -0.39296803 -0.21142823 -0.40413713 -0.04158526 -0.14424767 -0.29525894 -0.40509576
-0.24599399 -0.49302417 -0.42884484 0.16342251 -0.13418466 -0.3536182 -0.057323843 -0.284879
-0.1565117 -0.41578415 -0.48616377 -0.05352566 -0.25110218 -0.13101113 -0.2303251 -0.14027147
-0.46364012 0.1903124 0.0052561015 -0.0320673 -0.06584337 -0.1954091 -0.4030361 -0.18994081
-0.48556414 -0.3484345 -0.29001155 -0.022089474 -0.0138530005 0.025077393 -0.013728653 -0.34900674
-0.39663178 -0.29147822 -0.66172886 -0.1877868 -0.38209563 -0.09103281 -0.071235575 -0.41353318
-0.13381737 -0.4177478 -0.2288785 -0.28436962 -0.17380267 0.0220366 -0.12377259 -0.28076693
-0.043032106 0.22965245 -0.13773312 -0.13619964 -0.35463125 -0.054412194 -0.12409487 -0.12123974
0.185204 -0.119592 0.16456671 -0.26210302 -0.40315807 -0.22006874 -0.21888505 -0.37851563
-0.3495118 -0.32045022 -0.16007368 -0.46229893 -0.40485993 -0.19287102 -0.19489695 -0.21244209
-0.13566062 -0.009986158 -0.38043427 0.029120183 -0.334101 -0.24104674 -0.2208643 -0.06627437
-0.37385604 -0.35219502 -0.12024927 -0.06893589 0.024367386 -0.3796865 -0.18389554 -0.062609516
-0.23920073 -0.30618265 -0.22241804 -0.19408907 -0.4405814 -0.45274946 -0.1075219 -0.15049675
-0.19143215 -0.15159933 -0.27586994 0.043910258 -0.372102 -0.21889369 -0.5580804 0.013894716
-0.06736637 -0.41356876 -0.3573653 -0.34341916 -0.324011 -0.29792446 -0.17989141 -0.3688108
-0.089647636 -0.49909914 -0.04552426 -0.15439801 -0.28124785 -0.37063503 -0.5688851 -0.20324516
-0.14835683 0.05733658 -0.21220504 -0.20094413 -0.27396074 -0.24538632 -0.30599365 -0.35379788
0.005783881 -0.27058685 0.04739806 -0.23396654 -0.41991773 -0.27674255 -0.33150607 0.06371636
0.04862085 -0.05482096 -0.06989513 -0.37983352 -0.15341522 0.12518114 -0.2648847 -0.12317441
-0.28618377 -0.4127822 -0.22147 -0.30532622 -0.16717504 -0.2585066 -0.39686427 -0.3211878
-0.21180175 -0.3448788 -0.063912556 -0.015599416 -0.40804735 -0.32740873 -0.053449906 -0.36653686
-0.0039866087 -0.0029579585 -0.1724902 0.15223964 -0.17268766 -0.18035908 0.027688237 -0.059188113
-0.41049403 -0.2538211 0.014371003 -0.34433302 0.19179727 -0.23768242 -0.15283333 0.016946588
0.09351274 0.029439017 -0.1741931 -0.22132768 -0.3164228 -0.25203994 -0.3807348 -0.3283187

net.fc3.weight f4 [256, 256]
00000000: f33a 363c 094f 0c3e 8b79 f53d 707d 34be
00000010: 773c 43be 1c5d e2bd f41c 35bd 73b2 e0bd
00000020: ad7f 343c 4869 c9bd 2a51 0a3e e7e2 ca3d
00000030: 611c 10bd 5150 e3bd 2dea e43d 59be 57bd
00000040: 6ecc 00be 30ac f8bb 0d40 54bd 483c c63d
00000050: 5bcf 92bd 368f 393d 9a4a 393d cc6a bd3d
00000060: e6b6 b43d 7a54 44bd f796 293d ed85 433d
00000070: 07ef 333e b722 343e 549a 2f3e f49d 2e3e
00000080: af68 6c3e da10 cabd d54e 80bd 6331 15bd
00000090: ca26 0ebe 4a4a 033d 0846 903d 14eb c43d
000000a0: 67bf 56bc 2f94 823c 95d0 86bc 1819 c23d
000000b0: e4fd 623c f1ce 3d3e f25d 1c3e 9fa9 acbd
000000c0: 84ce 393e f2c7 bebd be98 b03d e953 86bd
000000d0: cbbe 3bbc 868f 81be a263 833d d15f f23c
000000e0: 11dd 18be 31c9 86bc 8610 983d 6200 84be
000000f0: 1ff4 213e 73d1 0cbe 0570 e03d 661b 9f3c
00000100: 5f6c 513e 6bd1 e73d 4bc4 72bd c879 9f3e
00000110: c8ca 37bb 4a28 d5bd 08f7 bcba 180b 493e
00000120: 0897 cf3c ec13 443e e67a 20be 2f89 c33d
00000130: c57e 293d 48c3 42bd 57a0 7bbc b4fd 2a3d
00000140: dc72 51be 31fe 3c3e fb7a 11bd 8250 22be
00000150: b5cb d0bc 9da6 623d 3e55 93bc 25c8 58bd
00000160: 4015 403e 01a0 d5bd 06d2 bfbd 892d 303d
00000170: fa22 64bd f34b a3bd c3d2 253e 5693 58bd
00000180: 4475 033c b631 6c3d 60e0 1a3e 5c63 c43d
00000190: 2eaf f4bc 497d abbd 0a70 0dbd 9231 aebc
000001a0: e5d9 cfbc c317 0a3d 840d 5a3e 8522 5cbe
000001b0: cc6c 9b3d fe53 2ebe fa55 58bc fe20 313e
000001c0: c592 3a3c 2873 cabc 0c4d 3cbd cd07 9cbe
000001d0: 1dd6 78be e385 ec3d 964f 40bd e3d9 153d
000001e0: 227b 01be bc7b 07be 6aec 333c 880e fdbd
000001f0: de45 a33c 0c03 043d 2827 183d 27b9 433d
00000200: 70be ebbc 2e57 613e 606f 0bbe fc91 0f3d
00000210: 6bf2 aabc 65df acbe 5ffa 933b dbd9 3abd
00000220: 7735 c73d f650 233e 7ee5 69be c673 873c
00000230: 2ad6 d13c b7f7 a1bd caaa 30be b036 5fbe
00000240: 5c3f d2be 4461 a9be 7583 173e 06d5 d83b
00000250: 9cb3 a2bc 70bb c5bc 46d9 1f3e 8f6d 2abe
00000260: 6e63 d93d 73e9 363e 1209 27bc 8b41 283e
00000270: 1c6a 2dbe c8e9 343e 24b1 4c3d 9eda dbbd
00000280: 8e25 1fbd eb96 133e 84eb 00bf eee4 a33b
00000290: c61d 1f3d 93a1 82bd 60d5 21bd 2083 14bd
000002a0: 64c9 77bc 7661 80bd 742a 23bd 1cba a73c
000002b0: 7597 593d e835 6abd 0785 3f3e f239 83be
000002c0: d3e0 9cbd d39d adba 76e9 5dbe de0b 933d
000002d0: fff6 07be be31 05be bda3 543c 3312 a2bd
000002e0: 3d32 4cbe 06ec 6ebc d9d0 1fbd 6aea fdbd
000002f0: 493e 293a 20dc d63d 4685 293e 5735 923e
00000300: 11fa 013e fb90 dcbd dfcc 60bd 8f47 82be
00000310: 90dc e23d 264a 0bbd 5306 a43e 658a 373d
00000320: 6f15 a2be a764 1dba 2776 a8bd 9204 0dbd
00000330: b900 9c3d 6c50 06bd 3948 e2bb b146 58be
00000340: 0f42 b7bd 0e6e 30be a630 57be 9259 dabc
00000350: 5482 d33d cc7e f8bd 6db8 a23e 8c4c 22be
00000360: 663e 233d ccf8 873c eac6 b53d 897d 48bc
00000370: 6a54 79bd 8f82 03be 01d2 06be ecc9 0e3e
00000380: 96a7 71bd 2e46 44be a2e0 37bd 6393 fbbd
00000390: 9b4a e2bd 2f9a 8f3d 978a 6ebe 18cf 20bd
000003a0: 62c0 ee3d a204 3dbd 2385 e8bb f8b9 cc3d
000003b0: 8a49 993e 499f 62be 11eb 4039 acaf 32be
000003c0: d93b 0b3e af41 8dbc 8d98 e1bc 2048 bebd
000003d0: 6526 dc3d b727 01be 00b5 43bd 89a1 a2be
000003e0: ff69 a7bc 3108 ffbe c122 f7bd 110f a9bd
000003f0: 778a 60be a4f6 eebe 2200 41be 2364 51bc
0.011122453 0.13702025 0.11986073 -0.17625976 -0.19066034 -0.110529155 -0.044217065 -0.109715365
0.011016768 -0.09834534 0.13507524 0.099065594 -0.035183314 -0.110993035 0.11177478 -0.052671764
-0.12577984 -0.0075888857 -0.051818896 0.096794665 -0.07168456 0.045302592 0.04523716 0.092488855
0.088239476 -0.047932126 0.041403737 0.047735143 0.1757165 0.17591368 0.17148715 0.17052442
0.23086809 -0.098664954 -0.06265036 -0.036424052 -0.13881984 0.03205327 0.070446074 0.0961515
-0.013107157 0.0159398 -0.016456882 0.094774425 0.013854478 0.18535973 0.15270212 -0.0843079
0.18145186 -0.0931548 0.08622883 -0.06558973 -0.011459063 -0.25304812 0.06415488 0.029586704
-0.1492808 -0.016453357 0.074250266 -0.25781542 0.15815781 -0.13751774 0.10958866 0.019422244
0.20451497 0.1131924 -0.05926923 0.311476 -0.002804445 -0.10408075 -0.0014416883 0.19633138
0.025340572 0.19148225 -0.15671882 0.0954765 0.041380662 -0.047549516 -0.015358052 0.041745856
-0.20453972 0.18456341 -0.035517674 -0.15851024 -0.02548776 0.055334676 -0.017984983 -0.052925248
0.18758106 -0.10430909 -0.09366231 0.043012176 -0.05569742 -0.079734705 0.1619368 -0.052874885
0.008023564 0.057664596 0.15124655 0.09589264 -0.029868688 -0.083735056 -0.034530677 -0.021263871
-0.025372455 0.033714067 0.21294218 -0.21497543 0.07589111 -0.17024228 -0.013204092 0.17297742
0.011387532 -0.024713114 -0.045971915 -0.30474702 -0.24300428 0.11548974 -0.0469509 0.036584746
-0.12644628 -0.13230795 0.0109816585 -0.12356287 0.019930776 0.03222947 0.037146717 0.047783997
-0.028777331 0.22005913 -0.13616705 0.03505133 -0.020867547 -0.33764187 0.0045159305 -0.04561792
0.097269945 0.15948853 -0.2284145 0.016534697 0.025614817 -0.07908576 -0.17252651 -0.21798205
-0.41063964 -0.3308202 0.1479624 0.0066171912 -0.019861035 -0.024137229 0.15610227 -0.16643356
0.10614668 0.17862491 -0.010195034 0.16431253 -0.16935009 0.17667305 0.049973622 -0.10735057
-0.038854174 0.1441304 -0.5035937 0.005001656 0.038846754 -0.06378474 -0.03951013 -0.036257863
-0.015123699 -0.06268589 -0.03983541 0.020474486 0.053122956 -0.057180315 0.1870309 -0.25630146
-0.07660069 -0.0013245888 -0.2167109 0.07179998 -0.13277815 -0.13007256 0.012978491 -0.079136275
-0.1994104 -0.01458264 -0.039017532 -0.123982266 0.00064561196 0.10491204 0.16554746 0.2855632
0.12693049 -0.1076984 -0.05488288 -0.2544522 0.11077225 -0.03400626 0.32036075 0.044809718
-0.31656978 -0.0006004073 -0.08225661 -0.034428187 0.07617325 -0.03279154 -0.0069055823 -0.21120717
-0.089481466 -0.17229483 -0.21014652 -0.026654039 0.103275925 -0.121335596 0.3178133 -0.15849513
0.03985443 0.016598128 0.088758305 -0.012236961 -0.06087152 -0.12842773 -0.13166048 0.13944215
-0.058997713 -0.19167396 -0.04489196 -0.12283971 -0.11049386 0.0701183 -0.23295055 -0.03926
0.11657788 -0.046146996 -0.0070959493 0.09996408 0.29938918 -0.22131075 0.00018398116 -0.17449826
0.13597049 -0.017243234 -0.027538562 -0.092911005 0.10749511 -0.12612806 -0.047780037 -0.31763867
-0.020436285 -0.49810937 -0.12067176 -0.08254827 -0.2192782 -0.46672547 -0.18847707 -0.012780222

net.fc3.bias f4 [256]
00000000: 63dc 12be 59e7 8dbe 1096 0fbd 1fcd 763d
00000010: 62ee a53c 5a4e 65be 7510 42be 6fa6 a4be
00000020: cd3f e33c db8b 023e ee04 61be 3aca b43d
00000030: 44c4 03bf 25e0 95be 7955 ccbe 1754 c03c
00000040: 97cc a8be 9af0 5fbe 6793 c3be ff53 383d
00000050: af0c 29be b8a5 483d 0daa 33bf 7aab 91be
00000060: 566e 043e 330a 22bd 56d2 e2bd da56 15be
00000070: 0efe c7be 6222 8dbe a690 3abd 9e68 83be
00000080: bff1 ffbd 877d 83bd 9361 44bc 7cae 31be
00000090: 05ef 6ebe 2878 1c3d 4205 d9bd cb2f a13d
000000a0: b3cc 49be cd90 27bd 8c56 4c3d 17b8 e2ba
000000b0: 8709 41bd a854 f4bb c893 ddbd 622f 89be
000000c0: 8ba1 c2be 47c9 66be 3600 5bbe 6601 00bc
000000d0: c3d5 35be b2a6 38bd 78a6 71be 8333 18bd
000000e0: 316a 433e f91c 85bd 4d28 a6bc b372 32be
000000f0: bef2 0abe 4387 bbbe 8a47 83be 246d 4e3d
00000100: bf3e 7dbe 6e3d ec3d eaed b43d d368 a6be
00000110: d780 e7bc 97fa 51bc b7ee 4bbe c764 87be
00000120: c15b 633e 1788 a4bd 981c 2cbf b0c3 dcbc
00000130: 0064 ad3d b120 5fbe 9d6e 6abe 3f95 f93d
00000140: 6023 1e3d b29b a9bd 87e5 62bd 98a8 54bd
00000150: 41dc cfbc 3cb2 e13d 9b40 153e fc17 96be
00000160: aaac 9cbe 9d2d 88bd 81a1 8abe eb92 97bc
00000170: bd78 553e ebb3 1e3e bcc3 863e 4c4d 0e3e
00000180: 4cd2 ca3d 2fa6 4dbe 6b56 32be 016b 763d
00000190: 4764 86be e5a3 ef3a c956 abbe 4091 c9bd
000001a0: 7958 2ebd 0806 20bd 1c9b 853d 452d 863d
000001b0: 5bba 85be 324d 70be ba2f ebbd 8fc8 c8bd
000001c0: b04c 7dbe 69e3 77be 8bad 5b3d 8100 abbe
000001d0: e78d 94bd 2b26 73be 5a38 d6bc c758 a43d
000001e0: 775a 11bc 1342 a4be 27f6 4abe f5e1 b6be
000001f0: d127 2abe e6de 53be 08fd 7fbe e1e0 bdbe
00000200: cfb4 003c 1fc8 303d 9b9f 36bd a586 5d3d
00000210: f798 aabe 30d2 e33d e50b 63be b2bf 80be
00000220: 239a cdbe 57bb ecbd 816a 153e a113 80bc
00000230: 2286 71be d4c7 a63c a397 93be c0fa a2be
00000240: 20ec 49bd ddab e0bd 3f69 e23d 690d dbbd
00000250: f473 9fbd 4506 55be e0b1 873d bc21 35be
00000260: a0b6 a5be be44 56be fe6a d93b 1c51 8cbe
00000270: 1b65 33be 8c39 b0be b042 80be f3fd d6bc
00000280: bc70 2e3d 40dc 8abc de8b 25bc 2831 8bbd
00000290: b7c8 24bc 0eda 22be 6b63 35be 0de8 3cbc
000002a0: 358e 6ebd 007f 69be 9bed f0bd 8919 dabd
000002b0: a8d1 1bbe f72f 0fbf 1090 cdbd 48a0 4dbe
000002c0: cdf7 413c 80ae c03c 1db6 04bd c12c f0bd
000002d0: de66 44be 3524 203b 2376 3bbe 0a50 e13d
000002e0: ced1 eebd dc31 41be 2cdb b8be 712f 71be
000002f0: c97b 213e ccde f9bb 8a40 1cbe 680a 7ebe
00000300: e3b9 54be a968 15be 8d64 08be b079 e43c
00000310: 90b3 0cbe ac4f a3be 3e19 47be 9777 3a3e
00000320: 279b b3be d58b 12be 3712 86bc 1a4b 3dbe
00000330: 1b44 a9bd b3df abbc 810b 0fbe 560c 603d
00000340: 7621 0dbe 7c5e a43c 626f 23be cbc9 97be
00000350: 467c 87be d860 a8be 5779 663c 6f3c acbe
00000360: cd9a ecbe 6902 43be 8d1a ef3b 0ff5 71be
00000370: 0626 df3d fa47 b0ba 57e0 45be 9bfe 9bbe
00000380: 8303 2dbe 471b 9d3c 927a 8d3c 3263 33be
00000390: 858f 90be 5ccb fbbd 18d4 dcbe 903f 98be
000003a0: 8038 08be 6291 b6bc dc4c 503d 9002 1fbe
000003b0: 52c1 013e 7bf3 19be 80b7 54be 4b59 ebbb
000003c0: 6641 5cbd baa8 13bc 7923 fcbc 4ba0 e03d
000003d0: 6d9b 663d a0de ffbd d7d4 463d 4d98 00bf
000003e0: 4db1 dfbd 325e 453c 9fa4 96be e4ca d03c
000003f0: ee18 083d ec81 bf3c 6605 fabd f542 c4be
-0.14341883 -0.27715567 -0.03505522 0.060254212 0.020255271 -0.2239317 -0.1895159 -0.3215823
0.027740384 0.12748663 -0.21974537 0.08827634 -0.5147135 -0.2927257 -0.3990896 0.023477597
-0.3296859 -0.21869126 -0.38198397 0.04500198 -0.16508745 0.048986167 -0.7018135 -0.2845114
0.12932715 -0.039560508 -0.11075275 -0.14583912 -0.39061016 -0.27565295 -0.045548104 -0.25665754
-0.12497281 -0.06420427 -0.011986154 -0.17351717 -0.23333366 0.038200527 -0.10596706 0.07870444
-0.19706993 -0.040909577 0.049887225 -0.0017297295 -0.047128227 -0.007456381 -0.10819203 -0.26793963
-0.38013873 -0.22537719 -0.21386799 -0.007812833 -0.17757325 -0.045080848 -0.23598659 -0.0371585
0.19083478 -0.06499667 -0.020282889 -0.17426567 -0.13569161 -0.36626634 -0.25640517 0.050397053
-0.24730967 0.11535154 0.08834441 -0.3250185 -0.028259678 -0.012816093 -0.19915281 -0.26444075
0.2220297 -0.080337696 -0.6723113 -0.02694878 0.08466339 -0.21789815 -0.22893758 0.121866696
0.038607955 -0.0828165 -0.055394676 -0.051918596 -0.02537358 0.11020324 0.14575426 -0.29315174
-0.30600482 -0.06649325 -0.27076343 -0.018502673 0.20846839 0.15498321 0.26321208 0.13896674
0.09903392 -0.20082925 -0.17415778 0.06016064 -0.2624838 0.0018283097 -0.3346465 -0.09842157
-0.042564843 -0.03906825 0.065237254 0.06551603 -0.2611874 -0.23466948 -0.114837125 -0.098038785
-0.24736285 -0.24207844 0.0536323 -0.33398822 -0.07253628 -0.23745029 -0.026149917 0.080247454
-0.008871666 -0.3208166 -0.19820462 -0.35719267 -0.16616751 -0.20690498 -0.24998868 -0.3708563
0.007855608 0.0431596 -0.044585805 0.054083485 -0.33319828 0.111240745 -0.22172506 -0.25146252
-0.4015666 -0.1155917 0.1459141 -0.01563436 -0.23586324 0.020358957 -0.28826627 -0.31831932
-0.049297452 -0.1097028 0.1105523 -0.10695917 -0.07785788 -0.20803173 0.06625724 -0.1768865
-0.32365894 -0.2092466 0.006635069 -0.27405632 -0.17519037 -0.34418905 -0.2505088 -0.02624414
0.04258798 -0.016950727 -0.010104148 -0.06796485 -0.01005762 -0.15903494 -0.17713706 -0.011529935
-0.058241088 -0.22802353 -0.1176407 -0.10649402 -0.15216696 -0.55932564 -0.10037243 -0.20080674
0.0118388655 0.023520708 -0.03240024 -0.11727286 -0.19179866 0.0024435644 -0.18306784 0.11001594
-0.11661111 -0.18866676 -0.36104715 -0.23553254 0.15769877 -0.0076254364 -0.15258995 -0.24808657
-0.20774035 -0.14590706 -0.13319607 0.027890056 -0.13740373 -0.31896722 -0.19443223 0.18209682
-0.3507931 -0.14311154 -0.016366107 -0.1848568 -0.08264943 -0.020980692 -0.13969232 0.054699264
-0.13782296 0.020064585 -0.15960458 -0.29646143 -0.26462 -0.32886386 0.014067016 -0.33639857
-0.46211854 -0.19043888 0.0072968663 -0.23628639 0.10895924 -0.0013449185 -0.1932386 -0.30467686
-0.16895871 0.019178046 0.01727036 -0.17518309 -0.28234497 -0.12294647 -0.43130565 -0.29735994
-0.13302803 -0.02228612 0.05085455 -0.15528321 0.12671402 -0.15034287 -0.20773125 -0.0071822754
-0.053773306 -0.0090123955 -0.030778633 0.109680735 0.05630057 -0.12493634 0.048542824 -0.5023239
-0.10922489 0.012046384 -0.2942247 0.02548737 0.0332269 0.023377381 -0.12208061 -0.38332334

net.fc4.weight f4 [256, 256]
00000000: f87e 8fbc 5ac8 e4bd f6b6 5f3d e125 97bd
00000010: 7232 573c 754c 8ebe 98ac 98bd 1240 85bc
00000020: 9fc6 f43d ef57 013d fa50 bd3d 3af9 8e3d
00000030: b20a 163f a7e5 afbb ec9f 74bc 0098 003d
00000040: 30b7 82be 4ad6 fdbc 5519 dabc 08b4 ba3c
00000050: 9f5b 2e3e c18a 1e3e cc7d 0abf 0a7a 3ebe
00000060: 2853 d4bd c656 bf3d 69fa 0cbe b1a7 64be
00000070: 633b 1d3f ef59 873d 4f6d 6bbd ff0b 1ebd
00000080: 0526 d63c 5464 04be cda2 e0bb 48b5 90be
00000090: ed43 55be 7380 33bd e76e 4a3d 86a6 b5bd
000000a0: 74d8 293e 98f7 043e 6254 ff3c 6881 243d
000000b0: f856 d23d dca5 cbbc 9c29 9abd 9143 bebb
000000c0: d04d b1bd d67e f73d 4309 c23e 4742 a43d
000000d0: e590 80be b863 90be b667 7bbd 4d71 9a3d
000000e0: 8b07 313d 25f4 11be 037c 5c3d f9d8 413d
000000f0: 828e 40bf ef64 823d 2a3c aa3d 9bb9 da3c
00000100: 98a6 6d3e 7d3f d0bd ff4d b53c 0054 af3d
00000110: 9c91 c03c 305a de3c 28d7 7bbe 3ac6 c13d
00000120: e27a b2bd 7a6c 8e3d 7672 0d3f a2c1 563e
00000130: 1511 5ebd 62cd 833e e113 623c f5ff 25be
00000140: d711 883c bd07 a93d 20e8 18bd 8ac1 233d
00000150: 24cd 32bd d11d 3dbd 44a5 ebbd d889 c33d
00000160: 6afb b7bc 72b4 c13d 7c18 583d d7bc 263b
00000170: cb8e 873d 8382 b3bd 6fd0 b4bd 64f1 09be
00000180: de83 1c3d ccb0 01be 912a d33d 658d 853d
00000190: ac73 81be d0aa a5bd 5b25 01bf 344a 33be
000001a0: e947 b0bd 787a d8bc 45d1 3f3a 5c76 283e
000001b0: de3b 39be 7ae9 99bc fa7c 7d3c 8a74 8dbd
000001c0: bfb6 a3bc eae5 cbbe 4570 6b3d 32db 2fbf
000001d0: ea6d 5a3e 9875 b33c c390 483e 2c5d 1bbd
000001e0: 4e8b 183e 5579 79be b1ef 3ebf b49f 023e
000001f0: e569 5fbe 994b 083e ac8e 96bd 783e 523d
00000200: 8bc7 12bd 2e6e 2b3e bdb9 8fbd ba4e 46bd
00000210: 73d6 d6be 948e 303c 984b 96be b768 8dbd
00000220: bf97 863d f2d5 533e 1149 f73d c4ab 04bd
00000230: 1ba2 80bd b1d0 42bd 9ce8 083e 3efd 6cbe
00000240: 0219 0b3e 2f09 5cbd 172c f33b 0ec9 903d
00000250: 836a 033e 4fc2 cbbd da16 fe39 3fbd ce3d
00000260: b95d ebbc cfef 2538 4583 133d 6a81 03be
00000270: 3a92 67bd c7c8 053e c06f 183d d414 09bd
00000280: bcdb c53d 7c11 2abe 20be 89bc d0f6 683d
00000290: 019a 0fbe d45f 173d 7b55 0fbf 226b 433d
000002a0: df04 a23d 78b6 85be f5d7 4b3d 125e 523d
000002b0: 2b92 303e 9c3e c9be 5285 cf3d a6d1 8dbc
000002c0: a032 4a3d 3800 c2bb 2c1f 3fbd e173 143c
000002d0: ce6a b0bd 55f2 05bd 5bf4 fd3d e6a9 10bd
000002e0: bc37 a1bc f3d0 82bd e214 bc3d d98a bebd
000002f0: 7b5c abbd 2d28 c63c 8b88 f0bc 6a1a 553d
00000300: 3bcd 443e ef85 023e d2b4 b2bd d244 c23d
00000310: 9380 723b 23b4 64bd b916 9a3e 87e1 acbd
00000320: 06de 323e e739 dbbc 6bd4 3abd b645 003e
00000330: 596d aabd 8f08 3a3d dafe 0dbf cf0a 053e
00000340: 8eac 003b 304a 4bbc 228e 503e 189b 633e
00000350: f6da cdbd 08f4 59be 9979 ca3d 0f99 44be
00000360: cedb e73d 9286 80be 1125 90bd e653 98bd
00000370: 23e8 a2bd a7f9 2c3e b0ff a53b 710c 043e
00000380: 3214 debe 6f8b fa3c 35f6 aaba 2610 36bd
00000390: bc91 d7bd ae5b 163e f2ee 0ebe 5210 383d
000003a0: 4498 ae3b 311a 643e b813 863d b2f2 a7bd
000003b0: 33b5 20bd dc59 ae3e 8ca8 debc bd36 4f3d
000003c0: 6da9 9fbc d3ba 073d fd31 afbd fb42 4dbd
000003d0: e6e7 9ebc 1152 b43d af3d 73bd 19fa ab3e
000003e0: 1252 e63c d58a 0c3e 3031 8fbe 06ec c33d
000003f0: d685 b73d bf83 123e 1a4c 393e 5adc 403e
-0.017516598 -0.111710265 0.054617845 -0.07380272 0.013134586 -0.27792707 -0.07454795 -0.016265903
0.119519465 0.031578 0.09243961 0.0698113 0.5861007 -0.005367953 -0.0149307065 0.03139496
-0.25530386 -0.03098597 -0.026623407 0.022790924 0.17027138 0.15482618 -0.540982 -0.18601242
-0.10367423 0.093427226 -0.13767399 -0.22329594 0.6141874 0.0660895 -0.05747729 -0.03858566
0.026141176 -0.12928897 -0.006855345 -0.28263307 -0.20826693 -0.04382367 0.04942217 -0.088696525
0.16586477 0.12985075 0.031168167 0.040162474 0.10270494 -0.024859361 -0.075274676 -0.0058063944
-0.0865742 0.12084739 0.3789769 0.08020454 -0.25110546 -0.2820108 -0.061378203 0.07541142
0.043220084 -0.1425329 0.053829204 0.047326062 -0.7521745 0.06366908 0.08312257 0.026699832
0.23208082 -0.101683594 0.022131918 0.085609436 0.023506932 0.027142614 -0.24593794 0.09461637
-0.08714844 0.06954284 0.5525278 0.20972303 -0.05421551 0.25742632 0.013798685 -0.16210921
0.01661007 0.08253429 -0.037330747 0.039979495 -0.04365267 -0.046171013 -0.11506131 0.09547776
-0.02245875 0.09458245 0.052757725 0.0025442147 0.066190325 -0.087651275 -0.08828818 -0.1347099
0.038211696 -0.12665099 0.10310853 0.065211095 -0.25283563 -0.080892205 -0.50447625 -0.17508775
-0.08607466 -0.026425585 0.00073172554 0.164514 -0.18089244 -0.018788088 0.015471691 -0.06906994
-0.019984601 -0.39823848 0.057480115 -0.6869384 0.21330991 0.021906659 0.19586472 -0.037930652
0.1489689 -0.24362691 -0.7458449 0.12756234 -0.2181774 0.13310088 -0.07351431 0.051329106
-0.03583483 0.16741249 -0.07017849 -0.048414923 -0.41960487 0.010776181 -0.29354548 -0.069047384
0.06571912 0.20687082 0.12074483 -0.03239037 -0.06280919 -0.047562305 0.13369983 -0.23143479
0.13583758 -0.053719696 0.0074210274 0.07069598 0.128336 -0.09949171 0.0004846368 0.100946896
-0.028731214 3.9562405e-05 0.03601386 -0.12842336 -0.056535937 0.13064872 0.037215948 -0.03346713
0.09661052 -0.16608232 -0.016814291 0.056876004 -0.14023592 0.036956623 -0.5598981 0.04770959
0.07911085 -0.26115775 0.0497665 0.051359244 0.17243259 -0.3930558 0.10132851 -0.017311882
0.049364686 -0.0059204362 -0.046660587 0.009060831 -0.086141214 -0.03270181 0.12400123 -0.035318278
-0.019679897 -0.0638751 0.091836706 -0.09303827 -0.083672486 0.02418908 -0.029361984 0.052027144
0.19218914 0.12746404 -0.08725895 0.09485783 0.0037002906 -0.055835854 0.3009546 -0.084414534
0.17467508 -0.026761008 -0.045612734 0.12526593 -0.08321638 0.04541832 -0.55467 0.12992404
0.00196341 -0.012407824 0.2036672 0.22227132 -0.10051529 -0.21284497 0.09886474 -0.19199012
0.11321221 -0.2510267 -0.0703832 -0.07437877 -0.07954433 0.1689211 0.0050658807 0.12895371
-0.43374783 0.030584065 -0.0013043346 -0.044448994 -0.105258435 0.1468341 -0.13958338 0.04493744
0.00532821 0.22275616 0.0654673 -0.08200587 -0.039235305 0.34052932 -0.027179979 0.050589312
-0.019489968 0.033137154 -0.085544564 -0.050112706 -0.019397687 0.088047154 -0.059384998 0.33589247
0.028115306 0.13724835 -0.27967215 0.09566502 0.08961074 0.1430807 0.18095437 0.18834057

net.fc4.bias f4 [256]
00000000: 55a8 cf3d dc77 3bbb e0cc d8bd a53b 21bd
00000010: 6a35 08bd e8ec 9fbd ea2a 7cbb d532 b4bc
00000020: da94 513d 75a5 4b3c 3e65 5cbd 4465 8bbd
00000030: 6c6f 033e 6580 bb3c 48cb f3bb b495 1abd
00000040: 9d82 56bd d3b5 1dbc 4fd8 a9bd 0f31 51bb
00000050: 0c1e 7fbc 05c0 483e 0b41 0cbf 7747 94bd
00000060: 9afb adbd 97e3 06be afec 853d d9a5 173c
00000070: ef91 223e 713b a0bd 2f02 8fbe 5aae 4b3c
00000080: 99fe 233d 50dc 9dbd b051 f4bd 1ca7 14be
00000090: 39ed e53c 4b3a 84bd 5b51 aebd 0be4 4bbc
000000a0: c4a6 c0bd c25f 34be fcbf a3bd 0704 8bbd
000000b0: 9102 8fbd 4e7b 9cbd e8d0 9bbd 042d dcbc
000000c0: 0047 d4bd b979 2abc 8016 83bd 0a0e a2bd
000000d0: 6b85 cf3b daf2 2dbc 5cb0 663c 814a b2bd
000000e0: 7615 9c3d b529 1fbe 90ae c63c 68a1 91bd
000000f0: 1d57 103d 522b 66bd 1f54 ab3b bfc6 f8bb
00000100: 82ed a63d 1c1d 81bd 5815 a4bd d445 213e
00000110: 62c2 863d 6459 c7bd 457f 78bd bd74 1ebe
00000120: 04f7 7bbd 3582 223d 0570 96bd ee3b b43c
00000130: a126 e3bd 6945 453d 6e58 57bd bc28 0ebd
00000140: 6cf9 3c3d f648 9bbc b09c 08be 10c8 063c
00000150: fb75 de3d 87a6 d53c 74de 74bc abaf 70bd
00000160: 4f7f 65bd 8886 8ebd 080a f33d 25ff 95bd
00000170: d161 d3bc 8254 86bd 1370 35bd 2427 edbd
00000180: 9ea1 3ebd f364 fbbc 6154 6cbe 4cbe 5b3d
00000190: f8ba 113d 4220 ae3d 8586 b5bd 5e2a b3bd
000001a0: 57c3 90bd ffad 83bd cb62 98bd d1a7 013d
000001b0: d788 bfbd 4538 4ebd 96e4 b03c 64f9 073e
000001c0: 5c38 9c3c 59d9 72bd 18aa 41be 0f04 b0bc
000001d0: c733 de3c 97e5 b73c a40b 69bd 544f 94bd
000001e0: dfa1 9abd 0c8f a1bd 7431 3cbd d03d 33bd
000001f0: 1dd5 81bd db2d 4b3c 7546 4dbd d6ed 97bd
00000200: b6ad a2bd 2554 f5bc fbef f53d efa0 84bd
00000210: a415 14bd a971 a4bd 51d6 a1bd 73ec debd
00000220: db5e c0ba 6871 97bb 3bb9 8fbc d26d bcbd
00000230: 4b38 bebd da00 aebd 68bd 91bd ceca 113e
00000240: 41c2 9dbd 2153 8fbd bbe3 a2bd 4839 60bd
00000250: 66c0 b9bd 4944 83bd c2fc 3f3d 22bf abbd
00000260: 207d a2bd c1ac 83bd b915 4f3b 24d4 8bbd
00000270: 72d5 8fbd 3498 ea3d ac0c 2bbd fa98 49bc
00000280: 454d c0bd 02d2 26bd 10ce e3bd f2d6 f2bc
00000290: 0b2f 42bc 5b81 9dbd f4df c53c edfb 4cbd
000002a0: cd3d 93bd 4239 3cbd 779e 75bd cf0a c4bd
000002b0: 1056 05be 6e12 db3b 5651 323e 7909 bebd
000002c0: 38cd d4bb d20f bdbd a796 cfbd edbe 003c
000002d0: 28a7 a03c 84ee a7bc d79f 47bd 640f db3d
000002e0: 45fe 093d a77a babd 9c41 d43d 2efa ccbd
000002f0: 22fa b8bd 7df1 973d 36db 6fbd f2cf a3bd
00000300: 78e0 a6bd 4816 5ebd fb5e d0bb 025d a5bd
00000310: ed2f b8bc 4784 ad3d 688d b7bd e079 f7bd
00000320: 37a0 97bd 1924 3bbe f239 f3bc eb09 68bd
00000330: 6a16 b63d c70b c3bd 81c9 2dbd 477b 71bd
00000340: bd25 62bd 9135 8cbc 76bb 6dbd 4b57 96bd
00000350: 0ec0 2a3d 7546 a7bd 2bd6 9bbd b6f7 62bd
00000360: ece3 b83c 13a0 a6bd ff38 6bbd 225e bebd
00000370: ea50 cd3d 844a be3d 87f8 6ebd b5e7 113e
00000380: 1c64 e63c 0ea3 0abe 30ff e6ba f39a 8dbd
00000390: caa7 75bd 624b bd3d 8254 f3bd a22e 13bd
000003a0: 0e9b f53d e376 70bd 9fac bcbd 2597 cb3c
000003b0: 0c9f cdbd c698 85bd 072f 1fbc eafe 1d3d
000003c0: 890c 79bd 5d86 1cbc 290a a53c aba2 99bd
000003d0: 0a8f 98bd 7525 37bd 1ece 90bd 3545 9abd
000003e0: 06ce 0ebd 409e c9bd 5726 a6bd 10d0 0f3e
000003f0: 183b 253c 8115 d2bd d284 073d 196e 5dbd
0.10139529 -0.0028605377 -0.10585952 -0.039363522 -0.033254065 -0.07808858 -0.0038477727 -0.021996895
0.051167347 0.012429585 -0.05380749 -0.06806424 0.12835473 0.022888372 -0.0074400045 -0.037740424
-0.052370656 -0.00962587 -0.08293211 -0.003192011 -0.015571129 0.196045 -0.5478675 -0.07240193
-0.08495255 -0.13172756 0.065392844 0.00925585 0.15875982 -0.078238375 -0.27931353 0.012431705
0.040037725 -0.07708037 -0.11929643 -0.14516872 0.028067218 -0.06456431 -0.08511611 -0.012444506
-0.09406808 -0.17614654 -0.079956025 -0.067878775 -0.069829114 -0.07640706 -0.07608205 -0.026876934
-0.10365105 -0.0104049975 -0.06400776 -0.07912834 0.0063330433 -0.010616982 0.014080133 -0.08705617
0.07621281 -0.15543254 0.02425316 -0.07110864 0.035239328 -0.056193657 0.005228534 -0.0075920518
0.0815077 -0.0630438 -0.080118835 0.15749294 0.06580044 -0.09733847 -0.06066825 -0.1547422
-0.06151487 0.039674956 -0.07345585 0.022001233 -0.11091352 0.048161898 -0.052574567 -0.034706816
0.046136305 -0.018955689 -0.13341022 0.00822641 0.10862347 0.026080383 -0.014945615 -0.05876128
-0.056029614 -0.069592535 0.11867148 -0.073240556 -0.025803478 -0.06559087 -0.044296335 -0.11579731
-0.04654085 -0.030687785 -0.23079063 0.053648278 0.035578698 0.085022464 -0.08863548 -0.08748315
-0.07068508 -0.064296715 -0.07440718 0.031654183 -0.09352272 -0.05034663 0.021593373 0.13278729
0.019069843 -0.05928931 -0.18912542 -0.02148631 0.027124299 0.022448344 -0.056895867 -0.07241693
-0.07550406 -0.07888612 -0.0459456 -0.04376012 -0.06339476 0.0124010695 -0.05011602 -0.074184105
-0.07943289 -0.02994735 0.12008663 -0.06476008 -0.03615345 -0.080294915 -0.07902206 -0.10884943
-0.0014676707 -0.0046216734 -0.01754438 -0.09200634 -0.09288081 -0.08496256 -0.071162045 0.1423752
-0.077030666 -0.069982775 -0.079535924 -0.054742128 -0.090699 -0.06409509 0.046871908 -0.08386065
-0.07934022 -0.064294346 0.003159864 -0.06827572 -0.07023133 0.11454812 -0.04176013 -0.012304539
-0.09389738 -0.040727623 -0.11123288 -0.02964351 -0.011852036 -0.07690688 0.02415464 -0.050044943
-0.07189522 -0.045953043 -0.059965577 -0.09572374 -0.13021111 0.0066855466 0.1741384 -0.092791505
-0.0064941905 -0.09231533 -0.101361565 0.00785802 0.019610956 -0.020499475 -0.04873642 0.10696295
0.033689756 -0.09105425 0.103640765 -0.100086555 -0.09032084 0.07419107 -0.058558665 -0.07998647
-0.08148283 -0.054220468 -0.006358979 -0.080743805 -0.02248379 0.084724955 -0.08962518 -0.12083793
-0.074036054 -0.18275489 -0.029690716 -0.056650084 0.08890994 -0.09523731 -0.042428497 -0.058955457
-0.05521177 -0.017115386 -0.058040105 -0.073408686 0.041687064 -0.081677355 -0.07609209 -0.055412017
0.02256962 -0.081360005 -0.057427403 -0.09295298 0.10025199 0.092915565 -0.058342483 0.14248545
0.028123908 -0.13538763 -0.0017623659 -0.0691432 -0.05997447 0.09242894 -0.11881353 -0.035933144
0.11992465 -0.05870713 -0.09212612 0.024852345 -0.100401014 -0.0652328 -0.009715802 0.038573183
-0.06080297 -0.009553519 0.020146446 -0.075017296 -0.074491575 -0.044713456 -0.07070564 -0.075327314
-0.034864448 -0.09844637 -0.081127815 0.14044213 0.01008489 -0.10258008 0.03308565 -0.054060075
