models/running_best_model.pt (torch, 547951 bytes, 7 tensors)

net.fc1.weight f4 [256, 16]
000000 ee 65 62 bd d2 c5 81 3d 1d 0e 0c bd a4 50 36 bc
       -0.05527299 0.06336559 -0.034193147 -0.011127625
000010 74 e4 1b 3c 62 ab 98 bd 79 59 aa 3c 05 3a b1 bc
       0.009514917 -0.07454564 0.020794617 -0.021634111
000020 d4 ee cf 3d ac 25 f1 bd af 9c 63 3e 7c 4f c0 bd
       0.10152975 -0.117747635 0.22227739 -0.093901604
000030 a0 ba 52 3d c0 80 8c 3c 6b 8d 91 be 6d 5a 40 3f
       0.05144751 0.017151237 -0.28428206 0.7513798
000040 4b 32 a3 bd 5f a3 88 3d 52 10 68 bd 80 25 15 3d
       -0.07968577 0.066717856 -0.05665619 0.036412716
000050 c9 eb 66 bd 3c 9d 20 3c b7 b4 d2 3d 14 64 f0 3c
       -0.056377206 0.009803113 0.10288375 0.029344596
000060 50 d6 0d 3b 1f a2 f0 bc 76 e8 75 bc 10 7e 50 3c
       0.0021642633 -0.02937418 -0.015009036 0.012725368
000070 e9 0c 42 bc 8a e5 5b bc b6 e6 1e bd 51 eb b2 bf
       -0.011843898 -0.013421426 -0.03879424 -1.3978063
000080 a5 5f 83 bd 20 55 4d 3c d8 d0 80 3b 03 b9 57 3c
       -0.06414727 0.012532502 0.003931146 0.013166669
000090 8c 36 95 3d 3c 06 5d be fd f9 92 bd cd 50 c9 3d
       0.072857946 -0.2158441 -0.07176588 0.09829865
0000a0 96 e4 1c 3d 7c 90 e1 3d 89 c8 e1 3b 9d d4 f2 bd
       0.038303934 0.11013886 0.0068903607 -0.11856959
0000b0 57 2d b9 bd 5a 5e 06 bc d2 d5 e2 bc e4 38 05 bf
       -0.09041851 -0.008201206 -0.027689848 -0.52039933
0000c0 a0 a5 0b be d3 c2 4e be a8 b5 72 bb 23 f3 3c bd
       -0.136374 -0.20191507 -0.0037034545 -0.04613031
0000d0 19 da 41 3d 91 33 3e bc 8a 9e a9 3d 17 11 9f bd
       0.047327135 -0.011608974 0.08282192 -0.077669315
0000e0 cd 9b 97 bd 63 e5 98 bd 5f cd 05 bd c6 41 b6 3d
       -0.074027635 -0.07465627 -0.03266656 0.08899264
0000f0 cb 0a 0d 3e 2a d1 cd bd a9 7b eb bc 0f 10 c1 3f
       0.13773648 -0.100496605 -0.02874549 1.5083026
000100 9b f8 96 bc 44 3a 11 bd 2e 7b 82 3d 9a 6b 27 bd
       -0.018429091 -0.035455957 0.06371151 -0.0408741
000110 84 5b 9e 3d aa ce 72 3d 1a 5a c6 bd d6 28 40 bd
       0.07732299 0.05927912 -0.09685154 -0.046913944
000120 00 d7 1b bd 85 05 a1 bb 88 f9 10 be 89 1d 75 bd
       -0.038046837 -0.004913988 -0.14157689 -0.05984262
000130 e0 30 75 bd aa cd 09 bd 0b 06 2b be 41 50 63 3f
       -0.059861064 -0.033643402 -0.16701524 0.8879433
000140 52 24 fc bd 27 5f 04 be 5e 3f 5a be 0b 17 ce 3d
       -0.12311615 -0.12926923 -0.21313235 0.10062989
000150 44 4d 7a bb 49 e9 04 be 45 91 c4 bc 4f 77 00 3e
       -0.0038193027 -0.12979616 -0.023995051 0.12545513
000160 24 aa 82 3d 41 8e d5 3e 9f a0 67 bd e6 3b e3 3d
       0.06380108 0.41710094 -0.056549665 0.11095409
000170 45 1a 95 3e 1e 4b 71 3e 0e 74 31 3d c6 c3 f7 bd
       0.29121605 0.23563811 0.04332357 -0.12097888
000180 f1 7a 86 be 64 7a d4 bd e0 39 3e 3e ad 04 0d be
       -0.26265672 -0.10374907 0.18576765 -0.13771315
000190 bd 52 67 bd e6 62 75 3d 57 6e 16 be b5 03 e5 bc
       -0.05647539 0.05990877 -0.14690529 -0.02795587
0001a0 5b 1e 32 bd b4 5c 68 be 38 d1 df bd 48 d9 ba bc
       -0.04348598 -0.22691613 -0.10928577 -0.022808686
0001b0 05 01 6c bd a5 fd 3f 3e 5b 8b a9 3d bb 3e 71 3f
       -0.05761816 0.18749101 0.08278533 0.94236344
0001c0 62 d6 5f 3b 0e e5 c6 3d 58 55 80 bc bc ab 8c bc
       0.0034154882 0.097116575 -0.015665695 -0.017171733
0001d0 8f 50 89 3d 66 16 09 bd 7f f7 17 bd 1a 7d 3c bc
       0.067048185 -0.033468626 -0.037101265 -0.011504436
0001e0 76 15 8e 3d 8a d2 26 be 44 16 14 3e 88 54 8b 3d
       0.06937687 -0.16291252 0.14461619 0.068032324
0001f0 a3 30 a3 3d 32 34 a7 3d 49 db aa bc 42 23 16 3f
       0.07968261 0.08164252 -0.020856516 0.5864755
000200 75 21 bc 3c 0b 60 5c bd ac 63 3b bd aa 20 a3 bd
       0.022965172 -0.05380253 -0.04574935 -0.079652146
000210 50 0a f2 3d 13 3c 33 3d 52 a0 c8 3d 5d 73 4a bd
       0.11818373 0.043758463 0.09796204 -0.049426425
000220 ce ca 07 be d1 51 34 be c4 d7 0d bd b2 9d 14 bd
       -0.13260958 -0.17609335 -0.0346296 -0.036283202
000230 93 07 bc bb 9e fc 0d bd f6 45 8b 3d fb 59 2a 3e
       -0.0057382076 -0.034664743 0.06800453 0.16635887
000240 cd f8 c5 bc 44 2a d5 3d ef 16 fb 3d 3f 23 b3 3e
       -0.024166489 0.10408452 0.122602336 0.34987828
000250 b3 fb c9 bc 8c e0 c4 be 46 77 66 be b2 b2 bd bd
       -0.024656152 -0.38452566 -0.22506437 -0.09262599
000260 06 ef 1e 3e 59 97 02 3e cd c2 c6 bd 38 1f 7e be
       0.15520868 0.12753047 -0.09705124 -0.24816597
000270 bb 1d 3e be 2b fd dd bc 25 be 15 3d 5a ef 02 3f
       -0.18566029 -0.027098259 0.03655829 0.5114647
000280 d7 45 d0 3d dc ef b9 3d a0 4f 43 bd 3b 59 94 be
       0.10169571 0.09078953 -0.04768336 -0.28974327
000290 bf 7a 1a 3e 28 7c c6 3d f2 18 cd bd 25 e6 4b bd
       0.15085886 0.0969165 -0.100145236 -0.04978003
0002a0 72 6b 7f bd ff 8d 23 3e 1d 53 25 be 53 a6 a5 3d
       -0.062358327 0.15972136 -0.16144986 0.080883645
0002b0 f7 8b 02 be f4 ae 80 3e c1 d6 83 3d fc 7d 7f bf
       -0.12748705 0.2513348 0.064374454 -0.9980161
0002c0 dd 10 31 3d c7 c4 11 bd 1c 70 ab bc 19 70 6b bc
       0.043228973 -0.035588052 -0.020927481 -0.014369988
0002d0 c7 6b 00 3d f5 52 12 3d 24 13 2a 3c 43 67 a4 bd
       0.031352784 0.035723645 0.01038054 -0.08027508
0002e0 98 da 1c 3d 44 bd ce bc 73 88 dc bc 0f b6 23 bd
       0.038294405 -0.025236733 -0.026920533 -0.039968546
0002f0 5d 6e 2c 3d b4 47 c3 3d 22 e2 73 3d 87 2c 99 3f
       0.042097438 0.09535161 0.05954183 1.1966714
000300 e6 28 ef bd 64 d7 1f 3c 13 ca 4a bc e7 b5 23 3a
       -0.11677723 0.009755943 -0.01237728 0.0006245062
000310 0a 4c 85 bd 5d 0a 26 bc 23 32 9c 3d cd 03 59 3d
       -0.06508644 -0.010134307 0.0762675 0.05298214
000320 78 98 81 bd 06 62 87 3e 1c 2e 94 bd 6a 25 b2 3a
       -0.06327909 0.26441973 -0.07235357 0.0013591473
000330 5b 99 b1 3c f9 80 48 bd a8 a0 2e bc 00 7a 7d 3e
       0.02167957 -0.048951123 -0.010658421 0.2475357
000340 cc 84 d6 bd 65 67 24 bc 4f f6 56 bd 61 b9 78 3d
       -0.10474548 -0.010034417 -0.052480992 0.060723666
000350 18 09 c6 3d 09 e4 81 3d 72 82 47 bd d4 42 c6 3c
       0.09669703 0.063423224 -0.048708387 0.024201788
000360 29 b4 1f 3c 31 d5 ac bc ae b9 4d bd 61 9e 8e 3c
       0.009747543 -0.021097751 -0.050225906 0.017409505
000370 0f 19 d0 3d 85 11 9d 3d d0 ec 19 be 70 cf 5f 3e
       0.101610295 0.07669357 -0.15031743 0.21856475
000380 19 c3 ea 3c 6a a7 57 bd fe 1a 57 3c c9 9b c9 3d
       0.028657483 -0.052649893 0.013128994 0.09844167
000390 2d ff 51 3d a3 3e d8 bc 6a 18 26 bd ec 49 08 3c
       0.051268745 -0.026397055 -0.040550627 0.008318406
0003a0 f0 3d 81 3c 45 19 cb bd 5f ea 9e 3c cf 2b ec bd
       0.015776604 -0.09916929 0.019398866 -0.11531793
0003b0 9f 95 ee 3b 01 0f 83 bc 7e 80 b3 bd be 96 16 3e
       0.00728102 -0.015998365 -0.08764742 0.14705941
0003c0 da e3 69 3d 25 65 c2 bd b8 93 0b ba a5 4a 68 bd
       0.05710206 -0.09491948 -0.0005324441 -0.05671181
0003d0 88 d3 fd bd 35 b7 9e 3d 44 6b 81 bc a7 07 a8 3d
       -0.12393862 0.07749788 -0.015798219 0.082045846
0003e0 61 98 fb bd 50 79 54 3d 26 9c 2b be c7 7e 0a 3d
       -0.12284923 0.051873505 -0.16758785 0.03381231
0003f0 9b df 6b bd a7 af 3e be 52 21 59 bb a6 ff 51 bd
       -0.057586294 -0.18621694 -0.0033131433 -0.051269196

net.fc1.bias f4 [256]
000000 da 10 3c be 2e af 90 be 60 9d 0c 3f 64 9e 85 3d
       -0.18365803 -0.28258651 0.54927635 0.06524351
000010 1b a4 ae 3e 00 9d 08 3f eb f6 1e 3f 2c bb 1e 3e
       0.34109578 0.53364563 0.62095517 0.15501088
000020 45 b3 b1 be 94 67 1e 3f 34 9e c7 bd b3 78 ac 3d
       -0.34707084 0.618768 -0.09746972 0.08421459
000030 fe 91 0c 3f a4 47 59 3e 1b e7 df be 25 de d6 3e
       0.54910266 0.21218735 -0.43731007 0.41966358
000040 dc 5f 8c be d0 96 20 3f db c3 07 3f 72 ea 45 bc
       -0.27416885 0.6273012 0.53033227 -0.012079822
000050 5f 9c ff 3e 5c 2e de bd 4e 92 2b bc ef 56 8d 3e
       0.4992399 -0.10848686 -0.0104718935 0.27605388
000060 65 f6 64 be e9 50 69 3f e2 4c ea be bf b0 1d 3f
       -0.22359617 0.91139084 -0.45761782 0.6159782
000070 15 54 7d 3e ba b6 a5 3e 1a f6 d3 bd 84 ae 8f be
       0.24739106 0.32365972 -0.103496745 -0.28062832
000080 a8 03 fe 3d 48 cc 2b 3e e6 58 be be 12 1e c2 be
       0.12403041 0.16777146 -0.371772 -0.37913567
000090 6f 8b 96 3e 2d f3 d2 be 9f d7 c0 3e 81 df 07 be
       0.29403254 -0.41201153 0.37664506 -0.13268854
0000a0 37 d2 d3 be 08 d9 88 3e f6 bf ea be ed b9 50 3f
       -0.4137132 0.26728082 -0.4584958 0.815337
0000b0 6b 48 cf bd 95 e7 5d 3e aa f5 25 be af 85 91 be
       -0.101212345 0.21670373 -0.16206995 -0.28422305
0000c0 49 32 01 3f aa 53 c5 3e 3c 24 31 3f b1 49 c6 be
       0.50467354 0.38540393 0.69195914 -0.38728097
0000d0 25 a4 1b 3f 07 12 ce be 93 b3 a5 be 11 7e bb 3e
       0.6079734 -0.4024813 -0.32363567 0.3661962
0000e0 99 32 cf 3e fc e0 c4 3d c8 5a 7d 3e 78 72 f7 be
       0.4046829 0.09613225 0.24741662 -0.4832952
0000f0 b4 26 68 3e 09 98 86 3e f4 ae e4 3e 68 a9 a1 be
       0.22671014 0.2628787 0.4466473 -0.3157456
000100 27 62 d5 3e 91 55 f1 bd c8 8b ad 3d 68 dd b3 be
       0.41676447 -0.117838986 0.08473927 -0.35129857
000110 c5 35 d7 bd fe 5e e0 3e 5e 0c 7d be 55 43 21 bd
       -0.105083026 0.43822473 -0.24711749 -0.039370853
000120 b3 5c f6 3e f9 65 03 3f 58 9c 3c be bf 09 9d be
       0.481176 0.5132747 -0.18419015 -0.30671498
000130 93 2f 3c 3e 18 cb 26 bf 42 a0 19 3e 19 e5 c2 3d
       0.18377523 -0.65153646 0.1500254 0.09516353
000140 dc 47 3f 3f 34 4b fd 3e 65 a6 31 3f 0a aa 28 3e
       0.74719024 0.49471438 0.6939452 0.16471115
000150 1a e7 b0 bb e9 7e 0d be 57 4d c3 be a9 e7 82 be
       -0.005398643 -0.13817944 -0.38144943 -0.25567368
000160 ec 04 fe 3d 48 88 82 be fc b0 14 3f 84 70 59 3e
       0.124032825 -0.254946 0.58082557 0.21234328
000170 5b 43 08 3e b0 ad db bd de a9 f9 be dd 02 a8 3e
       0.13306944 -0.10726488 -0.4876241 0.32814685
000180 cc 5d e5 3d 6b 2e 26 3f 17 8c 90 3d a7 2f 0b bf
       0.11199531 0.6491458 0.0705797 -0.54369587
000190 45 22 4e 3e fa ca b0 3e ae 8e c0 3e c2 11 78 3e
       0.2013026 0.3452986 0.37608856 0.24225524
0001a0 25 e0 eb be 76 93 cb be 3e 05 33 3e 72 4d c9 be
       -0.46069446 -0.3976094 0.17482468 -0.393169
0001b0 1e b6 1f 3f 4e 28 94 be 39 ea b4 3d bb f8 96 be
       0.62387264 -0.28937 0.08833737 -0.2948664
0001c0 36 7b 65 3e bc 17 76 be e7 c4 c7 be a7 49 af 3e
       0.22410282 -0.24032491 -0.39017412 0.3423588
0001d0 33 2d 80 3e 71 da e1 bd ee 39 8c be 3b bb 55 3e
       0.25034484 -0.110279925 -0.27387947 0.20872204
0001e0 6e 44 b1 bd 66 4f 27 3f 1f a1 e5 be f0 1b 40 3f
       -0.0865563 0.6535553 -0.44849488 0.7504263
0001f0 90 45 1a 3f 7c f3 38 3f 87 6b 25 be 1d 6f 04 3e
       0.60262394 0.7224653 -0.161543 0.12933011
000200 cc 7a bb 3e 34 b5 aa be 59 7a 0c be 95 6f 9a be
       0.36617124 -0.33341372 -0.13718547 -0.30163255
000210 3c 3d 3d 3e 73 ed f7 3d 69 4c 71 be 3d 86 a2 3e
       0.1848039 0.12105837 -0.23564304 0.3174304
000220 52 25 ec be 70 40 a5 be af e7 4c be 2f ad bb be
       -0.46122223 -0.32275724 -0.20010255 -0.36655566
000230 ed 72 2f be 07 cb b9 3e 68 07 ad be f8 1f 84 be
       -0.17133684 0.3628771 -0.33794713 -0.2580564
000240 18 7f c2 be e2 50 da be ce 32 d6 be 2c d9 5a bd
       -0.3798759 -0.42639834 -0.41835636 -0.053429767
000250 3d 5b 0e 3d 05 c2 a9 3e 8c d9 c8 be 48 86 c3 be
       0.03475498 0.33155838 -0.39228475 -0.38188386
000260 ea 07 db 3d 41 f0 69 3d ab 70 9d 3f de bc f8 3d
       0.10694869 0.05711389 1.2300009 0.121453986
000270 b6 3c 8e 3e 34 7b 2a 3e 5a 57 53 be 33 71 8f be
       0.27780694 0.16648561 -0.2063879 -0.28016052
000280 71 c8 80 be 2d fb 87 3e af 5b 2f bf c0 dd ce 3e
       -0.25152925 0.2655882 -0.68499273 0.40403557
000290 6a 0b 7a 3e 2b e6 8c be 64 cc bd 3d 01 87 be be
       0.24418417 -0.27519354 0.092675 -0.37212375
0002a0 da bf 7d bd 4b 1e 03 be ac 55 99 bd 50 c2 83 be
       -0.061950542 -0.12804525 -0.07487044 -0.25734186
0002b0 c2 d1 1a 3f 18 64 b4 bd dd 0a a7 be c3 e0 66 3f
       0.60476315 -0.08808154 -0.32625476 0.9018671
0002c0 61 d8 26 3f 32 1f 1b 3f 5a 05 89 3e 83 c7 61 3e
       0.6517392 0.60594475 0.26761895 0.22048764
0002d0 cf 31 00 be ee 80 97 3e 35 39 be bd 7c 8a b6 be
       -0.12519 0.29590553 -0.09288255 -0.3565253
0002e0 14 56 6b be 66 ee 14 be 8c 62 0d bf e5 d0 c6 3e
       -0.22982055 -0.14544067 -0.55228496 0.3883125
0002f0 f5 43 93 be d8 42 fc be 03 64 a3 3e ed 0c f9 be
       -0.28762785 -0.49269748 0.3191224 -0.48642674
000300 1f aa 03 3d 1e 37 33 3e f5 35 1f 3f 7e 4d e0 3c
       0.032144662 0.17501494 0.62191707 0.027380701
000310 2a 2b 30 3f 5c ae bc 3e 00 9d 35 bd f6 52 c4 be
       0.68815863 0.36851776 -0.04433918 -0.38344544
000320 98 51 a5 be 98 47 d4 be 90 d8 0e 3e 65 15 ff 3e
       -0.32288814 -0.41460872 0.139498 0.4982101
000330 e9 8e d7 3e 76 6a 35 3e c1 7a b4 be b6 34 05 bf
       0.4210122 0.17716393 -0.35249904 -0.52033556
000340 a6 74 66 be e4 d7 ba be 0d 16 40 3f 13 44 1a 3f
       -0.22505435 -0.36492836 0.75033647 0.60260123
000350 c8 60 7b be 3a fc 68 3f fa d9 ea be 1f f9 a6 3e
       -0.24548638 0.9100987 -0.45869428 0.3261194
000360 fc 5b 82 be 34 0d f5 be 4b 41 fe 3e 57 fc 8b 3e
       -0.25460804 -0.47861636 0.4965919 0.27340958
000370 da 44 2c bc 66 f1 14 3f d5 77 0b 3f ac c2 26 3f
       -0.010514462 0.58180845 0.54479724 0.65140796
000380 96 df b9 3e d9 af 89 be ff 89 be 3e df 6e 21 3f
       0.36303395 -0.26891974 0.37214658 0.630598
000390 71 44 f4 3d 8f 6e 02 3f 72 0f a0 be 75 f6 01 3f
       0.11927117 0.5094995 -0.31261784 0.5076669
0003a0 ac c9 c9 3d 9b ba 52 bc ca 5e 35 3f 8a 06 12 3f
       0.09852919 -0.012861873 0.7084776 0.5704123
0003b0 3d b8 86 3e d6 32 a1 be bb 8a 38 3e 53 e0 71 3f
       0.26312438 -0.31484097 0.18021671 0.94482917
0003c0 e4 99 b9 be 40 e0 d8 3e cd 25 24 bd 8c de dc be
       -0.36250222 0.4235859 -0.040075112 -0.4313854
0003d0 50 ce f1 3e 49 69 c9 be e9 06 19 3f bf d1 ec bc
       0.47227716 -0.3933814 0.5977617 -0.028908608
0003e0 92 ac 4b 3e 26 3c a3 3e 82 01 5b be e8 a8 12 3e
       0.19890049 0.31881827 -0.21387294 0.14322245
0003f0 ea 7a 72 bd 32 b6 96 be c6 9e 95 be 71 82 8d be
       -0.05919925 -0.2943588 -0.29222697 -0.2763858

net.fc2.weight f4 [256, 256]
000000 9a 05 76 bd 75 2b b6 bd b6 93 48 3e 43 c0 70 3d
       -0.060063936 -0.088950075 0.19587597 0.058777105
000010 be 4d f5 3d 43 aa 73 3e 55 3b ee 3e fe 0b b1 bd
       0.11977719 0.23795418 0.46529642 -0.086448655
000020 5d ca 86 bd 22 cd 5b 3e c1 de b8 3e 3a 7a df 3d
       -0.065815665 0.2146497 0.36107448 0.10911985
000030 08 90 0c 3e 6f da d6 3c be 02 c5 bd 3d 1e 4b 3e
       0.13726819 0.026227204 -0.09619664 0.19835754
000040 9b 38 74 bd 09 03 13 3e 23 7c 36 3e 2c f9 e8 3d
       -0.059624296 0.14356627 0.17820792 0.11375651
000050 f8 06 eb 3d ed 50 17 be 03 8f 9a 3e a7 fa 81 3d
       0.114759386 -0.14776964 0.30187234 0.06346636
000060 2c 63 8c bd 92 90 1b 3f 65 c1 c9 3c 6b 85 85 3e
       -0.06854853 0.6076747 0.02462835 0.26078352
000070 8a 50 26 3e 7a f9 0c 3e b3 41 b7 bd dd a9 82 bd
       0.1624166 0.13767043 -0.08948078 -0.06380055
000080 a9 ca 5b 3d 93 52 fe bb c6 46 b8 3d fe f1 a1 3d
       0.05366007 -0.0077613085 0.08997874 0.079074845
000090 84 6a e1 3c 16 22 ab bd 7c fa ac 3e 68 13 ba bc
       0.02751661 -0.08356111 0.33784854 -0.022714332
0000a0 12 50 8d 3c ea 37 96 3e 12 fe f5 bd 5d 56 e1 3e
       0.017250095 0.29339534 -0.12011351 0.44011202
0000b0 ee 5e 9a 3d 83 bd 69 3e c3 e4 20 be 1a 2b d5 be
       0.07537638 0.22826199 -0.15712266 -0.41634446
0000c0 42 b0 a6 3d 2b b9 69 3e 56 e2 b6 3e c0 00 2e be
       0.08139087 0.22824542 0.35719556 -0.16992474
0000d0 15 b5 ae 3d 6c ce a2 be 2a 25 0a be e5 ba 5b 3d
       0.085306324 -0.31798112 -0.1349074 0.053645033
0000e0 67 78 e7 3e ab 66 fa 3d 5e bc 10 bc 23 6d 20 be
       0.45209047 0.122266136 -0.008833973 -0.15666632
0000f0 fb ce 29 bd 50 d1 7b 3c 4a 5f ff bb 5c e1 e5 ba
       -0.041457158 0.015369728 -0.0077933418 -0.0017538476
000100 62 76 ef 3d 48 c2 8a 3e 7f 8d 1b 3e bd d1 05 bd
       0.116925016 0.2710135 0.15190695 -0.032670725
000110 e6 f9 c2 bd 71 49 f9 3d 50 80 07 bd 80 c6 33 3d
       -0.095203206 0.12172211 -0.033081353 0.043890476
000120 4a 07 78 3d dd 0d 00 3e ea 5a 0e 3d 48 72 03 be
       0.060553826 0.12505288 0.03475467 -0.12836564
000130 c1 b4 46 3e df 43 c2 bd e5 bf 83 bc 03 76 44 3e
       0.1940489 -0.09485602 -0.016082713 0.19185643
000140 69 b8 f0 3e 15 f0 0c 3d 0d ee 4e 3d c9 1e 7e 3e
       0.47015694 0.034408648 0.05051999 0.24816431
000150 52 31 1d 3d 5d f8 a1 bd 40 01 29 bd 41 fc ce be
       0.038377114 -0.079087 -0.041260958 -0.4042683
000160 a4 51 83 3e 05 21 5e 3d 2d 37 64 3e c3 f0 4b 3e
       0.25648224 0.05423071 0.22286673 0.19916062
000170 43 2d 19 3c 4b 54 20 3e ba 1d 88 be 70 85 e5 3c
       0.00934917 0.15657155 -0.2658518 0.02801773
000180 2b 4a ba 3d 21 d3 93 3d 13 79 37 bc 11 7a 57 be
       0.09096178 0.07218004 -0.0111983 -0.21042658
000190 76 3d ae 3d 25 ff e0 3c a4 8d 6a 3d b6 d1 c0 bb
       0.085078165 0.027465412 0.057263985 -0.0058843745
0001a0 e3 89 7a be 89 7e 15 bc 8e 3e 2f 3c 02 7a 5f bd
       -0.24466662 -0.009124407 0.010696067 -0.054559715
0001b0 fe 18 d1 3d 05 33 83 be 71 bf 55 3e 7e 85 33 be
       0.10209845 -0.25624862 0.2087381 -0.17531392
0001c0 7d 93 83 3e a2 83 1e be 66 27 6c 3d 3c b4 f8 3e
       0.25698462 -0.15479901 0.05765476 0.48575008
0001d0 fc 90 1b 3e ed a1 9a 3d 48 93 63 bd b0 c6 6b 3d
       0.15192026 0.07550416 -0.05556038 0.05756253
0001e0 09 79 f9 3c 8d 15 b1 3e 62 10 99 be a6 fc 2e 3f
       0.030453222 0.34586754 -0.29895312 0.6835426
0001f0 95 92 3f 3e f7 0d 9d 3e a7 aa 24 3e 7a e3 d6 3d
       0.1870826 0.30674717 0.16080724 0.104926065
000200 e8 e2 a0 3d 1b 1b 27 3d 8e 25 35 bd 5d 0c 10 be
       0.07855779 0.040797334 -0.044225268 -0.14067216
000210 a1 89 db 3d 6a 5b 38 3d 95 37 26 be e4 be a5 3e
       0.1071961 0.045009054 -0.1623214 0.323722
000220 45 a7 5b be b5 ad de 3d 0a 65 8e bd 1b 06 cf bd
       -0.21450527 0.10872976 -0.069528654 -0.101085864
000230 5f cf 36 be 6b 0b 68 3e d7 b3 8a be ac d1 c8 3d
       -0.17852543 0.22660606 -0.27090332 0.09805617
000240 f1 32 cb bc 5b de b9 3d c4 1b 60 be ee ca 04 be
       -0.024804564 0.09075614 -0.21885592 -0.12968037
000250 c6 fd 9e 3d 2e 8a dc 3d 79 81 9f 3d 96 54 32 3c
       0.07763247 0.10768543 0.07788367 0.010884425
000260 ef 20 8f 3d 12 2b c1 3e 29 37 ff 3e bd 9a 99 3d
       0.069887035 0.37728173 0.4984677 0.07500217
000270 32 8b 9b 3c 16 cd 07 3d 79 84 0d bc a8 8a c7 3d
       0.018987272 0.03315457 -0.008637541 0.097432435
000280 c8 2d 04 bc de 89 b1 3e 64 2e a5 be 0d ee 98 3e
       -0.008067556 0.34675497 -0.32261956 0.29869118
000290 bb ea 31 3e 90 fc 18 bd 53 67 bb 3d 4c 48 95 be
       0.17374699 -0.037350237 0.09150567 -0.2915672
0002a0 bc 8e 71 bc 42 43 86 3e 02 61 fb bc be 8d 13 3e
       -0.014743503 0.2622319 -0.030685905 0.14409539
0002b0 a9 cb 9d 3e 3d 7d 38 3e 50 96 a0 3d 0d ba 73 3d
       0.30819443 0.18016525 0.0784117 0.059503604
0002c0 44 43 87 3d 95 08 73 3e 87 99 da 3d c8 9a e8 3d
       0.06604627 0.23733743 0.10673814 0.11357647
0002d0 b2 d1 bd 3c d5 9e ac 3d 33 49 12 3e 5a e7 b5 bd
       0.02317128 0.08428732 0.14285736 -0.088820174
0002e0 d0 82 8b be d7 0f db be 05 c3 9d be 28 af 39 3e
       -0.2724824 -0.42785522 -0.3081285 0.18133223
0002f0 69 0f 1a 3d 06 54 35 3c 71 be 2f bb ea d6 1d be
       0.037612353 0.011067396 -0.0026816393 -0.15414014
000300 5e 45 95 3d 3b 79 80 bd 13 10 ad 3e 27 c8 dc 3e
       0.07288621 -0.06273123 0.33801326 0.43121454
000310 d5 73 0c 3f ce ad c4 3d bd 7a d5 3d 66 71 10 bd
       0.54864246 0.09603463 0.10423801 -0.035264395
000320 ac 0d 08 be 69 08 46 be 0f 37 4b 3d 36 57 ff 3d
       -0.13286465 -0.19339146 0.049613055 0.12467806
000330 4c d5 60 3e 76 3c a4 3d a4 1e a8 be ae fa 2f be
       0.21956366 0.080193445 -0.32835877 -0.1718547
000340 32 cc 00 be ee 70 ac bd 2f a3 64 3e d2 09 9d 3e
       -0.12577894 -0.08419977 0.22327875 0.30671555
000350 be 78 af be 1e d8 c9 3e 9c f3 52 bd 09 c2 40 3e
       -0.34271806 0.39422697 -0.051501855 0.18824019
000360 af 08 f6 bc 6c 25 2f be ea 4f 4a 3e 8c 68 0e 3e
       -0.030033438 -0.17104119 0.19757047 0.13907069
000370 82 c1 76 3d 2d 9d 56 3c 53 ab 8f 3e 08 9c a6 3e
       0.060243137 0.013098997 0.28060398 0.32540917
000380 cc d3 89 3d 62 ff 15 be 21 9f 3b 3d 9c eb 49 3e
       0.0672985 -0.14648202 0.045806054 0.19718784
000390 29 e0 74 3e bf c4 ba 3d 16 a0 96 bd 4b d7 58 3e
       0.23913635 0.091195576 -0.07354753 0.21175878
0003a0 f6 bd 85 3e 81 15 13 3d c2 f8 9a 3e de 27 4a 3e
       0.2612149 0.03590918 0.30267912 0.1974177
0003b0 7b 7c 58 3e 90 6a 9c 3e b6 e2 06 3e 18 64 95 3e
       0.21141236 0.3055005 0.13172421 0.29177928
0003c0 ff 8a ae 3d ee 5a 89 3e f5 14 97 3c 29 04 f3 bc
       0.08522605 0.26827186 0.01844261 -0.02966507
0003d0 4e 2a b6 3e 06 7f 0c bd 0c 10 35 3e c7 67 06 be
       0.3557915 -0.034300826 0.17681903 -0.13125525
0003e0 af bb 9c 3d ea 26 62 3d ad 8b 2c 3e 72 5e b7 3d
       0.07652985 0.055212893 0.16850157 0.08953561
0003f0 4a de 6d 3c 2f 5b 92 be 18 6c 08 3e d8 94 ae ba
       0.01451833 -0.28585193 0.13322484 -0.0013319505

net.fc2.bias f4 [256]
000000 dc 31 8d 3d e7 9e 14 be 76 d4 0f be c8 96 f0 bd
       0.068942755 -0.14513741 -0.14045891 -0.11747509
000010 12 ea 12 be 09 4d b8 bd 63 16 89 bd 9a 99 86 be
       -0.14347103 -0.08999068 -0.06693723 -0.26289064
000020 ed 46 19 3f fd 5f 80 3c ec 4b 18 be 7a d9 06 be
       0.5987385 0.01567077 -0.14872712 -0.13168898
000030 1f 1f 24 be 48 c1 8c bd ed d4 00 be 54 66 4b 3d
       -0.16027497 -0.06872803 -0.12581225 0.049658135
000040 61 c0 e9 bd 01 51 05 bf 72 c1 17 be e4 d1 5e be
       -0.114136465 -0.5207673 -0.14819887 -0.21759754
000050 45 68 85 be 40 44 fb bd bb 2b 16 3e 3e c2 04 bd
       -0.26056114 -0.12268877 0.1466512 -0.032411806
000060 94 dc 32 be 4d a9 66 bd 7f 87 cf bc e9 dd ac 3e
       -0.17466956 -0.0563138 -0.025333164 0.33763054
000070 62 51 4f 3d 28 d2 2f be c6 c3 b5 3d 7f 8f 64 be
       0.050614722 -0.17170012 0.088752314 -0.22320364
000080 a8 06 8f be 83 0c f9 3c a3 a9 12 be 79 5f 52 3d
       -0.27934766 0.030401474 -0.14322524 0.05136058
000090 8f 55 b9 be dd f8 3f 3e 54 4b b3 3c 71 e0 ee bd
       -0.3619809 0.18747278 0.021886505 -0.116639026
0000a0 98 f0 cf 3c 21 b3 dd be b1 6f 37 be 04 65 19 be
       0.025383279 -0.43300727 -0.179137 -0.1497994
0000b0 f1 d5 10 bf 8e 40 76 bd 3c 06 aa be 5f bd ab 3d
       -0.5657645 -0.060120158 -0.3320788 0.08385729
0000c0 c6 7c 38 bd 04 46 d3 be c9 fe 91 bc 7c 77 24 3e
       -0.04504087 -0.41264355 -0.017821686 0.16061205
0000d0 98 94 a6 bc fb 9b 7d 3c 46 c3 ca be 0f 25 16 be
       -0.020334527 0.015479083 -0.39602107 -0.14662574
0000e0 24 4d 8f bd 77 7f 44 be 3c 78 b6 be 20 e6 af 3d
       -0.06997135 -0.19189249 -0.35638607 0.08588815
0000f0 54 59 f1 bd 4d 9f db 3c cc 01 0e bc cf f4 3d be
       -0.11784616 0.026809359 -0.008667421 -0.18550418
000100 10 84 f5 bd 76 70 69 be 73 92 ed bd 66 eb 7c be
       -0.119880795 -0.22796807 -0.116001986 -0.24699172
000110 2d 5b 94 3e 06 81 16 be ac 3d db bd b6 02 29 be
       0.28975812 -0.14697656 -0.10705122 -0.1650494
000120 22 7a 15 be 48 53 49 3e e9 43 46 be cb 32 3f be
       -0.14597371 0.19660676 -0.19361843 -0.1867172
000130 c7 e4 81 be 3e fb 88 3b 4d 30 0e bf 4a 96 31 3d
       -0.25369856 0.004180341 -0.5554245 0.043356217
000140 f6 f1 6b 3d 67 5a 41 be 27 c2 26 bd b4 03 cb bd
       0.0576038 -0.18882142 -0.0407125 -0.09912816
000150 3b c4 71 be f1 61 28 be c5 0f aa bd 25 eb 87 be
       -0.23610012 -0.16443612 -0.08303789 -0.2654659
000160 69 ad 21 be e9 f1 1a be 3a 03 6a be 76 6d 03 be
       -0.15788807 -0.15131344 -0.22852793 -0.12834725
000170 43 19 42 3d 9a 9b 7f bd f5 75 06 bf ab 8f c2 be
       0.047387373 -0.062404253 -0.5252374 -0.38000235
000180 89 43 a0 bc 15 7a 52 be ad 5a 94 bd e4 69 c7 3e
       -0.019563453 -0.20554383 -0.072438575 0.38947976
000190 e7 22 82 be 86 b2 81 bd f9 ac 02 be 1e cf ee 3d
       -0.25417253 -0.06332879 -0.12761296 0.11660598
0001a0 3a 1b b9 bd 38 01 f8 3d 75 2e 80 be 5c 3c f5 be
       -0.09038396 0.121096075 -0.25035444 -0.47897613
0001b0 1e 63 78 be 91 a0 aa bd 76 a6 04 bf e2 bb 98 bd
       -0.2425656 -0.08331407 -0.518165 -0.07457711
0001c0 e2 69 06 bf 88 4d e3 bd 28 3c 2d be 35 89 c1 bd
       -0.52505314 -0.11098772 -0.16917479 -0.09449998
0001d0 7c 5d 91 be f6 2a be bd b6 77 f4 bd 3e 01 07 bf
       -0.28391635 -0.09285538 -0.119368955 -0.5273627
0001e0 c6 eb 5a bd a5 90 7f bd 9f 93 b5 3b be 99 31 be
       -0.053447507 -0.062393803 0.0055412794 -0.17343804
0001f0 1b 8a 6f be ec f2 b5 be f3 22 1c bf 7f ae 12 bd
       -0.23392527 -0.35536897 -0.6099083 -0.035810944
000200 66 18 0a 3f f8 75 e4 be f6 e5 06 bf 1f 69 47 be
       0.5394348 -0.44621253 -0.5269464 -0.19473694
000210 3d 16 9c 3d 8a 7c 83 3d e7 5a e1 bd 61 90 2d be
       0.07621429 0.06420238 -0.11003666 -0.16949607
000220 4f 2b 03 be 45 a1 d7 3c 5f df 47 3e 0f 78 6d bd
       -0.1280949 0.026322016 0.19518803 -0.057975825
000230 64 ef fd bd 9e dd 2d bd 8f a5 22 3e c5 60 a6 be
       -0.12399176 -0.04244768 0.15883468 -0.32495704
000240 be d4 80 3c 3e 98 0a be a5 81 9f bd 71 a7 53 bd
       0.015726443 -0.13534638 -0.077883996 -0.051673356
000250 ed 88 9b be 5a 6e 56 be 04 79 ac bd 12 7a 0b be
       -0.30377904 -0.20940533 -0.084215194 -0.13620785
000260 2b df 9d bd bd ab 68 be c4 91 be bd ed c8 0c bf
       -0.077085815 -0.22721763 -0.09305146 -0.5499409
000270 19 de eb bc e6 c7 73 be 7d 5b 15 be 03 9a 60 bd
       -0.028792428 -0.23806724 -0.14585681 -0.054834377
000280 ce 9b 35 3d ec eb 82 3d b3 f6 b4 3e dc 7f 21 be
       0.04433804 0.06392655 0.35344467 -0.1577143
000290 c5 ba df bd b4 9a 05 be d9 bc ac be dc 1a ca bd
       -0.10924295 -0.13047296 -0.3373783 -0.09868404
0002a0 e2 9a 42 be df 43 f1 bc a2 68 3f be 19 c1 02 bd
       -0.19004396 -0.029451309 -0.18692258 -0.031922434
0002b0 d3 1f 72 3e f8 1a 00 be 3c 87 32 be 0f b6 23 bf
       0.23644952 -0.12510288 -0.174344 -0.63949674
0002c0 46 96 7c be 06 59 c5 be 3e ac b4 bd f2 9a 8b bd
       -0.246667 -0.38544482 -0.08821915 -0.06816663
0002d0 06 9a 81 be 13 65 95 be c3 99 a0 bd fd d6 12 be
       -0.25312823 -0.29178676 -0.07841828 -0.14339824
0002e0 ed 39 17 bd 70 d3 e6 bd 9b 3c e1 bd 68 fa d9 bd
       -0.036920477 -0.11270797 -0.10997888 -0.10643464
0002f0 4b 53 5e bd 4b 84 b7 be b6 17 90 be c4 28 90 3c
       -0.054278653 -0.3584312 -0.2814309 0.017597564
000300 77 65 20 3e c7 88 8c 3e 86 67 83 be 79 9c 9e 3e
       0.15663706 0.27448103 -0.2566492 0.30978754
000310 cf 6b 9a bd db ba f1 be ec bb 63 ba aa 0b 41 be
       -0.07540094 -0.47212872 -0.00086873653 -0.18852106
000320 16 aa ee be e0 81 00 be 72 53 4d be 80 5e 08 3d
       -0.4661414 -0.12549543 -0.20051363 0.033293247
000330 07 dd c3 bc 70 78 70 be 75 3a 3b bd 1d 76 95 bc
       -0.023909105 -0.23483443 -0.045710046 -0.018244797
000340 d1 19 22 be 7c 13 72 bc 6b 37 23 be 09 38 d3 bd
       -0.1583016 -0.014775153 -0.15939109 -0.10313422
000350 2d 34 45 3e 84 05 48 3d de 14 42 be a0 5c 7d bd
       0.19258185 0.048833385 -0.18953273 -0.061855912
000360 56 e9 a3 3e 13 36 c9 bd 31 8c 3b be f9 e3 dd bc
       0.3201396 -0.09824767 -0.18315198 -0.027086245
000370 de eb b4 3d 8e b1 eb 3d 21 df b0 be ee 51 58 bc
       0.088340506 0.11508475 -0.34545234 -0.013203127
000380 8f 65 1b be 4c 8a 50 be 38 55 89 be 15 a7 c3 bd
       -0.1517546 -0.20365256 -0.2682283 -0.09553353
000390 8a 02 ec bc 43 17 61 be c7 e4 32 be cf 7c 34 3d
       -0.028809804 -0.2198153 -0.17470084 0.04406434
0003a0 2c eb d7 bd 6b 7e c6 bd 1d 94 91 be c7 7a 1f be
       -0.10542902 -0.09692081 -0.28433314 -0.1557418
0003b0 bd d5 41 bd ad f1 13 be 86 f5 d6 3d 73 b0 e9 bd
       -0.047322977 -0.1444766 0.10496049 -0.11410608
0003c0 29 15 f0 bd 9a 67 14 bc 9d 0d dd bc 1c 9d c6 3b
       -0.11722786 -0.009057904 -0.02698403 0.0060612094
0003d0 3c ac d1 be 9c 01 0f bf 51 79 15 be 43 0b 09 bf
       -0.40951717 -0.5586183 -0.1459706 -0.5353281
0003e0 37 d9 ed be c5 37 9b be 5e 62 ea bc 9c 65 4a be
       -0.46454784 -0.30315986 -0.028611358 -0.19765323
0003f0 b0 e6 b6 bd 59 16 99 be e7 db 33 be 67 36 23 bf
       -0.08930719 -0.29899862 -0.17564355 -0.63754886

net.fc3.weight f4 [256, 256]
000000 03 a6 e4 bd 4e a1 08 3d e9 51 ff 3b 81 4b 39 3d
       -0.11164477 0.033356957 0.007791747 0.04523802
000010 65 3b 1d bb 58 47 db 3d 02 40 81 3d fb 00 5f 3d
       -0.00239917 0.10706967 0.06311037 0.054444294
000020 fb 6a cc be e0 2b 06 3e b9 aa a2 bd 8e 20 26 3d
       -0.3992537 0.13102674 -0.07942719 0.04055839
000030 fa 88 4a bd f1 1b cc bd 7f 63 75 3d f9 9e 0a 3e
       -0.049447037 -0.09966267 0.05990934 0.13537206
000040 71 25 2e 3e dd 23 e6 3d 79 39 0a 3e 55 1c 82 3e
       0.1700647 0.11237309 0.13498487 0.2541224
000050 a6 77 48 be aa 8f 35 bc 52 92 03 3e c6 d7 39 bd
       -0.19576892 -0.011081615 0.12848786 -0.045371793
000060 72 ff e9 3d b6 67 e9 3d ef 6c 5b 3e 44 9e 03 bb
       0.114256755 0.113967344 0.21428274 -0.0020083347
000070 78 61 bd 3c bb d2 c7 3d de 28 34 be aa bb 3d 3e
       0.023117766 0.097569905 -0.17593715 0.1852862
000080 89 5b 2f 3d c1 94 00 be 69 9d b1 3d 3e e3 8d bc
       0.042811904 -0.12556745 0.08672602 -0.017320272
000090 5b b3 b9 3d c3 52 7b 3d e4 2b b6 3d be ae 28 3e
       0.090674125 0.061358225 0.0889509 0.16472909
0000a0 60 5c 23 3e 8d 5c 08 3e 47 cd be 3c 6a dd bc bd
       0.15953207 0.13316555 0.023291243 -0.09221919
0000b0 8f b9 d9 bc 24 80 04 3e f6 0e 05 be 4c 3a b5 bd
       -0.026577739 0.12939507 -0.12993988 -0.0884901
0000c0 ea 76 02 3d 4a 39 cb 3d 1b 4e ad 3d d5 d4 45 be
       0.031851687 0.099230364 0.08462163 -0.1931947
0000d0 a0 8c dc bd c0 e1 eb bb 5b f5 39 3e 73 70 8d 3c
       -0.107690096 -0.0071985424 0.18160002 0.017265534
0000e0 86 26 52 3e 88 3b 46 3d f6 48 8a 3d a3 22 52 3a
       0.20522508 0.048396617 0.067521974 0.00080160255
0000f0 df f5 21 3e 3f 71 17 3d 5c c2 28 3d db 5f 2a 3e
       0.15816449 0.036973234 0.04120098 0.16638128
000100 f3 1c 31 3d 44 b6 1b bb 03 2b 5d 3e d0 59 27 3d
       0.0432405 -0.0023759762 0.21598439 0.040857136
000110 a9 7f 77 be 5e f7 f6 bd f5 39 cf 3d f0 df 51 3e
       -0.24169792 -0.120589 0.10118476 0.20495582
000120 59 e4 2f be ef 14 06 3d aa b6 f5 3d af 7a ae 3b
       -0.17176951 0.032734808 0.11997731 0.0053246836
000130 46 1b 92 3e 1e 37 8a 3d 9d ce bc 3e 99 5c c8 3d
       0.28536433 0.06748794 0.36876383 0.097832866
000140 93 2e fb 3d fa 46 af 3d ba 1d c9 bc 71 3d 32 bd
       0.12264743 0.085584596 -0.024550308 -0.043515626
000150 47 38 ac 3c 59 51 2b 3e 54 45 e3 3d 1f 30 ea 3d
       0.021022929 0.1673025 0.11097208 0.114349596
000160 b6 e4 84 3d af 82 0c 3d 8c f2 05 3d 94 97 14 be
       0.06488936 0.034304317 0.032702014 -0.14510947
000170 f7 c3 34 3e dd a7 55 3d e2 f3 3d 3e d2 f7 86 bd
       0.1765288 0.05216204 0.18550065 -0.06590237
000180 8f d3 c6 3d 1d 04 37 3e e6 c7 8d 3d 5c d3 ac be
       0.0970832 0.17872663 0.06922893 -0.33755004
000190 b0 21 80 be 6f 5b 6a bc b7 4b 92 3d df 94 30 be
       -0.25025702 -0.014304026 0.07143348 -0.1724429
0001a0 06 ed 6c be 52 85 90 bd 46 6c fa 3d da 11 a4 3d
       -0.23137292 -0.07056679 0.12227683 0.080112174
0001b0 9e 92 0f 3e 16 eb f6 bd 74 f4 d9 3e 7d 5a e3 3d
       0.14020774 -0.12056558 0.42569315 0.11101244
0001c0 5c 8f a3 3e 8b fd 1f 3d cc 48 2c 3d ea 3b 9a 3c
       0.31945312 0.039060157 0.042061612 0.018827397
0001d0 0b 92 9a be ec 86 3e 3c e4 5e 1b 3e 95 25 5b 3e
       -0.30189547 0.011628848 0.15172917 0.21401055
0001e0 a7 0f 3f 3d 78 34 3c bd 35 10 f1 3d 1c e6 51 3e
       0.046645787 -0.045948476 0.11770669 0.20497936
0001f0 5d 49 88 3d 22 ae 28 3e 5c 6e 5c b8 be fb 72 3d
       0.06654618 0.16472676 -5.2554868e-05 0.05932211
000200 93 ce 9e be 3f c0 80 3e 09 6f 5d 3e 1c 5e 61 3d
       -0.3101698 0.25146672 0.21624388 0.05502139
000210 e5 03 0b 3e e4 de 4f be 9b 51 aa b9 5b 43 8b 3e
       0.13575704 -0.2029987 -0.00032485728 0.27199826
000220 f4 a8 c7 3c 9a e1 12 3e 7c da 24 3b 9b 49 0a 3e
       0.024372555 0.14343873 0.002515464 0.13504641
000230 60 1c a0 bd 59 6e 70 bc 2e 8f af 3e fd a8 da 3d
       -0.07817912 -0.014674746 0.34288925 0.10676763
000240 56 03 bf 3d e1 08 df 3d cc 98 83 3d 55 25 38 be
       0.09326808 0.108903654 0.06425628 -0.17982991
000250 05 ba 88 bd aa 1a 16 3e a7 aa ba bd 81 27 19 3e
       -0.066761054 0.14658609 -0.091145806 0.14956476
000260 bd 3c 0f 3d 6e 39 62 3e 9f c2 32 3e 74 f7 80 3e
       0.034970034 0.2209222 0.17457055 0.25188792
000270 d2 0c 40 3e 65 66 57 3d 69 ac 49 3d 4c e6 ef 3d
       0.1875489 0.052587885 0.04923669 0.117138475
000280 67 5f 74 be 76 2c 14 bd 0d eb aa be b4 2c 39 3e
       -0.23864518 -0.036175214 -0.33382455 0.18083459
000290 67 91 95 bc 58 d7 4b 3d 3b 50 6a be 77 93 0b ba
       -0.01825781 0.049765915 -0.22882168 -0.0005324403
0002a0 c5 00 f8 bd 21 97 c7 bd 6e 3b 9c ba e4 64 ce 3c
       -0.12109522 -0.097456224 -0.0011919567 0.025194593
0002b0 f7 65 17 bd 63 e4 91 3d 8f 77 04 3e e8 49 30 3e
       -0.036962476 0.071236394 0.12936233 0.17215693
0002c0 85 83 52 3e 23 74 a5 be ec 8c bc bd 2d 85 12 bd
       0.20557983 -0.32315168 -0.09206566 -0.035771538
0002d0 ca 64 ea bb ef df 26 be 93 4e 8b 3e 9c aa b5 3c
       -0.0071531283 -0.16296361 0.27208385 0.02217608
0002e0 5f 99 63 3e e9 46 c1 3d 13 6b 1c 3e 82 5d 97 3e
       0.22226475 0.09437353 0.1527522 0.29563528
0002f0 2d 72 29 3d 53 d7 c4 bc c3 69 4b 3e af cb 43 3e
       0.041368652 -0.024028456 0.19864564 0.19120668
000300 eb 77 a9 bd ec 42 b4 be 04 76 9c 3c f2 26 25 be
       -0.08274826 -0.35207307 0.019099243 -0.16128138
000310 37 69 fc 3d 5c ff 2e 3d f8 f9 a2 3d 19 db 2d 3e
       0.12324756 0.042724 0.07957834 0.1697811
000320 b9 a4 4a be 03 38 82 3d eb 2a 72 3e 54 cf 70 be
       -0.19789399 0.0635834 0.23649184 -0.2351659
000330 ed 94 6e 3d 83 ad 44 3d ce 2c 2d 3e 13 b1 ac 3d
       0.058247495 0.048017036 0.16911623 0.08432212
000340 bd cd 8c 3d af a5 88 3e 65 7d d6 3d 74 ea a2 3c
       0.06875179 0.26688907 0.10473136 0.019887187
000350 1f 9d f0 bd 6b 08 c9 be fc e8 89 3e cc 03 de 3d
       -0.117487185 -0.39264235 0.26935565 0.10840568
000360 26 65 b0 be bb 99 39 3d b6 81 f1 3c ac 8c 73 3e
       -0.3445217 0.045312624 0.029480796 0.23784131
000370 e3 50 9b 3c 8b 02 5b 3a 22 08 f5 3c 3b 0b 22 3c
       0.018959468 0.0008354566 0.029911105 0.009890373
000380 e7 b2 d2 3d c8 ea a8 3d 7f dc 19 3c 4c c1 8b 3d
       0.10288029 0.08247906 0.009390949 0.06823978
000390 48 2a 86 bc 65 0c 6b 3d dd f9 bb bd d5 8e 01 3c
       -0.016377583 0.057384867 -0.09178517 0.007907589
0003a0 83 1b 3d 3d 49 fd 61 3c b2 7f 97 3c 5c 06 69 3e
       0.046168815 0.013793298 0.018493507 0.22756332
0003b0 b1 7a 64 3e c0 8d e8 bb 5e 3b eb bd 29 7f 80 bd
       0.22312428 -0.007096976 -0.11485933 -0.06274254
0003c0 f7 45 25 3e 2a 10 c9 3d c6 76 00 3d 83 b7 36 3e
       0.1613997 0.09817536 0.03136327 0.17843442
0003d0 8d b0 e9 3c e4 3f bf 3e 1a 66 80 bd 3b 9b 86 3e
       0.028526569 0.37353432 -0.06269474 0.26290306
0003e0 46 f2 d8 3d cc e5 06 3e 32 00 00 be c4 36 8a 3b
       0.10593085 0.13173598 -0.12500075 0.0042179544
0003f0 73 76 05 3e b3 2e 85 3e 4b c3 35 3e 7b 63 a4 3c
       0.13033466 0.2601219 0.1775028 0.020066967

net.fc3.bias f4 [256]
000000 7a d4 94 bd dc 02 6d be ac ef 02 be e1 77 d8 bd
       -0.07267089 -0.23145622 -0.1278674 -0.1056974
000010 20 89 08 be eb be 2e 3c 65 0e 20 be a9 a6 cf bd
       -0.13333559 0.010665636 -0.15630491 -0.1013921
000020 79 56 76 bd d8 14 d8 3c 14 f2 02 be cd 89 e0 bd
       -0.06014106 0.026377127 -0.12787658 -0.109637834
000030 14 a5 0d bd 07 ef a2 3e e5 28 32 be c1 d9 00 be
       -0.03458126 0.31822988 -0.17398413 -0.12583067
000040 65 f3 7d be 10 21 1c bc 48 f2 5a be e3 60 14 be
       -0.24799879 -0.009529367 -0.21381485 -0.14490084
000050 61 1c 62 bd 3c e6 8d bd 23 26 80 be 39 7f 6f be
       -0.055202845 -0.06928679 -0.25029096 -0.23388375
000060 3e 5f b7 bb 4e 6d 31 be 95 53 38 be 13 a2 54 be
       -0.0055960706 -0.17326853 -0.18000634 -0.20764951
000070 4c 9e d1 3c a7 51 4c bd ec 80 87 3b 83 c9 15 be
       0.025588177 -0.049882557 0.0041352417 -0.14627652
000080 76 0c c9 3e e2 64 d8 bd 4b e7 e5 bd 5a c0 32 3d
       0.3926732 -0.10566117 -0.11225756 0.043640472
000090 2c f6 43 bd 4d b9 3e be 6f 97 63 3d 5f 05 4e bd
       -0.04784219 -0.18625374 0.05556434 -0.05029809
0000a0 a1 2b 5e be 3b bc b9 be f9 57 8b be 8b 89 8f bd
       -0.2169633 -0.3627642 -0.27215555 -0.07008656
0000b0 1e 6a 3c be 2a 6c f9 bc 28 08 1a be 6e e6 4d bd
       -0.18399855 -0.030447084 -0.15042174 -0.050268583
0000c0 ae 06 4f be 0c 90 0a be a7 55 9e bd 93 d6 ce bd
       -0.20217392 -0.13531512 -0.07731181 -0.100995205
0000d0 45 71 6d 3e a5 e3 70 be 2d 52 85 3d b0 27 37 be
       0.2318774 -0.2352434 0.065098144 -0.17886233
0000e0 a0 f0 76 be a9 bc 3c bd a3 9e 48 be 09 f5 19 be
       -0.24115229 -0.046078358 -0.19591765 -0.1503488
0000f0 bb 22 df bd cc 5c 09 be 98 c3 a9 be 8f b0 28 be
       -0.10895296 -0.13414305 -0.3315704 -0.16473602
000100 d6 ef b5 bd b2 c5 ee bd 49 f4 22 be 7c 70 4f be
       -0.08883636 -0.11658801 -0.159135 -0.20257753
000110 a7 77 29 be 80 ec 85 be f6 8b 9e bd a5 c9 91 be
       -0.1654955 -0.26156998 -0.07741539 -0.28474155
000120 5e 3c e9 bd 55 a2 80 bd ba 8c 2e be ea 73 70 be
       -0.11388467 -0.062809624 -0.1704587 -0.23481718
000130 d0 78 58 bc 6a ce 32 3c ee 53 2a be 81 e4 ce 3e
       -0.013212398 0.010913471 -0.16633579 0.4040871
000140 80 26 2e bd dd b9 94 bd ce 40 5c be 12 f0 a7 bd
       -0.042517185 -0.07262013 -0.21509096 -0.08200087
000150 58 13 d1 bd 74 28 2d be 61 27 de bd e9 24 89 bd
       -0.10208768 -0.16909963 -0.10847355 -0.06696493
000160 88 77 8a bd bc 61 04 3d 9c 02 cf bd ca 51 0e be
       -0.0676108 0.03231977 -0.101079196 -0.13898388
000170 1d 41 91 be 47 05 5c be ab 01 15 be 22 68 44 be
       -0.2836999 -0.21486388 -0.14551418 -0.19180349
000180 61 fb 94 bd 16 4d 85 bb 6f 20 0f be 73 4b 4f 3c
       -0.07274509 -0.0040680273 -0.13977216 0.012652266
000190 a1 10 9e 3a 4a c1 a3 bd fa f6 a3 bd 6c 4e 7e be
       0.0012059399 -0.07995851 -0.080060914 -0.24834603
0001a0 f8 8f 1c be 9e ab e2 3a 45 fd 37 3c bd 4a fd bb
       -0.15289295 0.0017293578 0.011229818 -0.0077298568
0001b0 c5 b1 ab bc 57 95 79 be 95 42 6b 3d c1 cc 33 3e
       -0.02095879 -0.24373375 0.057436544 0.17558576
0001c0 b7 e0 c3 bd d0 28 01 be 02 e1 95 be 56 a5 0c 3c
       -0.09564345 -0.12613225 -0.2927323 0.008584341
0001d0 95 ad 5c be 4c f2 27 be 6d 62 25 be 25 7f d0 bd
       -0.21550591 -0.16401023 -0.16150828 -0.10180501
0001e0 bb 87 53 be 82 db 0b be 41 e6 81 be 86 9f d5 be
       -0.20657246 -0.13657954 -0.25370982 -0.4172327
0001f0 4d 53 96 3d b3 cc 54 be 28 23 f1 bd c9 2b af be
       0.07340107 -0.20781212 -0.11774284 -0.34213093
000200 b4 3f 0f be 65 b0 86 be 1f 7f 05 be f9 b2 33 be
       -0.13989145 -0.26306453 -0.13036774 -0.17548741
000210 e7 eb 00 3d f2 3a 6e 3d 40 3a 81 bd ad a4 91 be
       0.031474974 0.058161683 -0.063099384 -0.2844595
000220 8d e3 1f be 92 99 06 be 29 78 12 be 0e 3c 3a be
       -0.15614147 -0.1314452 -0.1430365 -0.18186972
000230 00 25 63 be 04 f4 67 be 30 6d 78 bd cb 4c 72 be
       -0.22182083 -0.22651678 -0.060651004 -0.23662107
000240 fd a4 ab be 19 2e 0a be a1 2a 57 be 6c a0 07 bd
       -0.33524314 -0.13494147 -0.21012355 -0.033111975
000250 40 ad e3 bd a0 1f 0c bd 27 85 3a 3c c6 a5 9b bc
       -0.11117029 -0.034209847 0.011384285 -0.018999945
000260 f3 f3 46 bc 2b ae 0b bd 71 23 4b be 99 c9 44 be
       -0.012143123 -0.034101646 -0.19837739 -0.19217528
000270 6b d2 d8 bd 8e 56 05 be 7c 1a 1f be 45 70 5d be
       -0.10587009 -0.13021299 -0.15537447 -0.21624859
000280 2a dc 7c 3d 46 68 88 be a3 3b a4 bd 60 74 35 be
       0.061733402 -0.26642054 -0.08019187 -0.17720175
000290 47 b8 50 be 06 42 1a be 0e d9 50 be 93 6a 61 be
       -0.20382796 -0.15064248 -0.203953 -0.22013311
0002a0 50 9b a7 3d c4 7b 5e be 98 33 d7 bd b9 db c4 bd
       0.081839204 -0.217269 -0.105078876 -0.09612221
0002b0 0c 3c 38 bd aa 7b 10 bd e5 c3 94 bd 17 02 c7 bd
       -0.04497914 -0.035274185 -0.072639264 -0.097171955
0002c0 0e 6c 40 be f8 91 31 3d f2 e8 55 be 57 5d 49 be
       -0.1879122 0.043352097 -0.20889643 -0.19664513
0002d0 8c d6 ad bd 0c be 2c be ef 81 48 be 56 f2 0e bf
       -0.08488187 -0.16869372 -0.19580816 -0.55838525
0002e0 22 c7 81 be 3e a6 d0 3d ec 5c 43 be 8a bc fb bd
       -0.2534724 0.10187958 -0.19078416 -0.1229182
0002f0 33 0f 77 3d b1 cf bb bd 16 3c 0b 3f ee da a6 bd
       0.06031723 -0.09170473 0.5438856 -0.08147226
000300 95 d7 80 3c 56 3b 7a bd 7c 82 39 be f7 72 09 be
       0.015727798 -0.061091743 -0.18116182 -0.13422762
000310 e2 09 fe bd 98 5a 07 be 69 f1 51 be dd 56 2d be
       -0.12404229 -0.13218153 -0.20502247 -0.16927667
000320 0c 03 8d 3e 5c 08 73 be cd d5 27 be c7 b5 e9 bc
       0.27541387 -0.23733658 -0.16390152 -0.028529061
000330 90 b8 99 be 21 63 21 be 7d 92 1c be 1b dc 7d be
       -0.30023623 -0.15760471 -0.15290256 -0.24790995
000340 99 1e ea bc fe 8c 4e 3d d5 a2 32 bd f1 19 a8 be
       -0.028579043 0.05042743 -0.04361232 -0.32832292
000350 36 10 0d bf 64 55 d7 bc 2e c1 52 3d 72 ce 17 bd
       -0.5510286 -0.026285835 0.05145376 -0.037062116
000360 f9 27 2d be a1 7b 16 be f8 4b 54 3d 8d 3c 41 bd
       -0.1690978 -0.14695598 0.051830262 -0.047176886
000370 a0 ee 08 bf 6c 93 89 3b ad ed eb bd 53 80 2b bc
       -0.5348911 0.0041984823 -0.115199424 -0.010467607
000380 77 6f e3 bd fd f3 6e bd 30 e7 ca bd 16 67 97 be
       -0.111052446 -0.058338154 -0.09907377 -0.29570836
000390 68 a2 f5 bd 48 83 4d bb 8a f3 20 be 27 cd 12 be
       -0.11993867 -0.0031358767 -0.15717903 -0.14336072
0003a0 ee d7 1c be 13 b0 65 be f1 79 96 be ee 76 03 be
       -0.15316746 -0.22430448 -0.2938991 -0.12838337
0003b0 7d 8d 84 bc d9 74 3d be f2 f8 6c be 1c 31 79 be
       -0.016180748 -0.18501605 -0.2314184 -0.2433514
0003c0 34 d3 19 be 21 65 03 bd cd 86 8a be 43 23 d9 bc
       -0.15021974 -0.032078866 -0.2705597 -0.026506072
0003d0 96 7d 00 be 07 8a 18 be 93 f3 11 be ba e8 0b bd
       -0.12547907 -0.14896403 -0.14253072 -0.034157492
0003e0 cf c1 7e be 16 a1 29 be fe d8 35 be d3 fb 2e be
       -0.2487862 -0.16565356 -0.17758557 -0.17088251
0003f0 e8 bc 06 be 67 bc 91 bd ee fa 37 bd bd 9a 48 be
       -0.13158 -0.07116013 -0.04491704 -0.19590278

net.out.weight f4 [1, 256]
000000 78 77 64 bd be fe 32 be 24 3a d4 be c3 70 8a bf
       -0.055777997 -0.17479989 -0.41450608 -1.0815662
000010 d1 23 0c bf b7 eb 0d bf 08 f8 cc bd 7c aa 6f bf
       -0.5474215 -0.554378 -0.10008246 -0.93619514
000020 6d fb 23 bf ba f4 38 bf 9b 48 91 bd 8d aa b9 bc
       -0.6405552 -0.72248423 -0.070939265 -0.022664333
000030 fd 08 ae bd d1 88 ad 3e 24 e6 71 bd e0 fc bd be
       -0.08497808 0.33893445 -0.05905737 -0.3710699
000040 20 40 45 bf c0 54 11 bd b8 a1 15 bf 5e c1 8e be
       -0.7705097 -0.035481215 -0.5844989 -0.27881902
000050 b1 08 02 bf ef ca 3b bd f9 19 75 be 54 e4 0d bf
       -0.5079451 -0.04584783 -0.23935689 -0.55426526
000060 fb 22 8b bd 89 01 e1 bd c6 76 4e bf 61 64 0d bf
       -0.06793781 -0.10986621 -0.80649984 -0.5523129
000070 e1 70 11 bf 79 9a 01 be b5 82 80 be bf 21 f9 bc
       -0.56812865 -0.12656583 -0.25099722 -0.0304116
000080 eb 2b 75 3e de a6 1a bf ac e0 bd bd 75 e1 8c 3d
       0.23942535 -0.6041087 -0.092713684 0.0687894
000090 82 8a 79 be a6 73 41 bf 70 db 6f be 3a 0a 2b be
       -0.24369243 -0.7556709 -0.23423553 -0.1670312
0000a0 33 78 7e be 9c 29 4e bf 0c 80 5d be f7 fa ba bd
       -0.2485054 -0.8053224 -0.21630877 -0.09129899
0000b0 9a ef ea be e4 43 d8 be 68 67 c2 be bd 05 26 bf
       -0.45885926 -0.42239296 -0.37969518 -0.64852506
0000c0 1c 02 0e be 28 2a 68 be cb 38 01 be f3 94 a7 bd
       -0.13867992 -0.22672331 -0.12619321 -0.08182707
0000d0 56 e5 04 3e f4 18 51 bf 4a 4d b4 3e 72 4d 48 be
       0.1297811 -0.816787 0.35215217 -0.19560793
0000e0 d0 a7 4a be 92 74 13 bf 75 8e 80 be c1 bc d4 be
       -0.19790578 -0.5759975 -0.25108686 -0.41550258
0000f0 a4 d7 af be d4 b2 3a bd 92 2b a2 be 72 53 55 bf
       -0.34344208 -0.0455807 -0.31673867 -0.8333045
000100 f1 d3 36 bf 7c d2 5d bd d6 c1 63 bd 30 e9 24 be
       -0.71417147 -0.05415581 -0.05560478 -0.16104579
000110 69 f0 26 bd 60 f9 19 bf 6b 81 c9 be dc ea 16 bf
       -0.040756617 -0.6014614 -0.3935655 -0.58952117
000120 10 ee b7 be 97 36 09 be 03 ca 69 be fe 93 87 bc
       -0.35923815 -0.1339973 -0.22830968 -0.01655006
000130 47 12 0a bf c0 29 7e be a7 08 29 bd a9 bf da 3e
       -0.5393414 -0.24820614 -0.041268017 0.4272435
000140 8a 76 dc bd 5b a7 20 bf 03 53 86 bd 70 43 0b bf
       -0.10764797 -0.62755364 -0.06558802 -0.54399776
000150 0c 1c 2c bf 5b 7c 28 bf c8 e2 b2 bd f2 9a 5c be
       -0.67230296 -0.6581475 -0.08734661 -0.21543482
000160 91 a7 10 bf fc ee f6 be bf 5c 62 bd bf 06 e5 be
       -0.56505686 -0.48229206 -0.05526423 -0.4473171
000170 57 58 27 be 4c 48 3f be 78 c0 06 bd 18 d9 df be
       -0.16342293 -0.18679923 -0.032898396 -0.43720317
000180 9f 17 1b bd c4 f8 b6 be cb 71 9c be d9 21 fc be
       -0.037864324 -0.35736668 -0.30555567 -0.49244574
000190 6c d6 2b be 77 65 00 bf ba 0f 90 bd 38 f6 21 bd
       -0.16781014 -0.50154823 -0.070342496 -0.039541453
0001a0 1d 4c 54 bf c0 91 a9 be 5d 40 e7 be 0e b4 b5 be
       -0.8292864 -0.3311901 -0.45166293 -0.35488933
0001b0 b7 0e b1 be 84 95 d8 be 43 ec 84 bd e6 be 48 3e
       -0.3458154 -0.4230157 -0.06490376 0.19604072
0001c0 17 03 af be 40 ae 2d bf 00 d5 57 bf 9a 7a 60 be
       -0.34182045 -0.6784401 -0.8430939 -0.21921769
0001d0 33 e8 0d be d8 63 90 bd cc 0f bd bc 51 11 38 bd
       -0.13858108 -0.07050294 -0.023078822 -0.04493839
0001e0 c1 5b 8d bd 0d d8 49 bd f3 87 78 be 2d ac 54 bf
       -0.06902266 -0.049278308 -0.2427061 -0.8307522
0001f0 9d a1 67 3d b3 d2 22 bf 59 32 d2 bd 25 ee 6d bf
       0.05655061 -0.6360275 -0.10263509 -0.92941505
000200 a9 41 24 bf dc ec 21 bd 15 66 36 be f1 c1 cc bc
       -0.6416269 -0.039532527 -0.17812379 -0.024994822
000210 b8 2d 93 bd 2c 62 0c bf 2e 1e ea be 13 75 37 bd
       -0.071864545 -0.548373 -0.4572615 -0.044789385
000220 8b 1b 7f bd cd 64 0e bf 7d 56 2c bd 17 04 9b bd
       -0.062282126 -0.5562256 -0.04207467 -0.075691395
000230 db 19 c3 be 8a 0b c3 be b1 34 1b be f0 0d fa bc
       -0.38105664 -0.3809474 -0.15156819 -0.030524224
000240 2e a7 3e bf dd 48 bc be 52 8c 17 be 63 1f 03 be
       -0.74473846 -0.3677434 -0.14799622 -0.12804942
000250 ce 05 89 bd 29 16 a5 bc c6 fb 2b bf a3 e9 08 bf
       -0.0669056 -0.020152168 -0.6718105 -0.534815
000260 0c 91 cd bd 5b a9 76 bf 2b 8c 27 bf ff ca 14 bd
       -0.10037431 -0.96352166 -0.65448254 -0.036326405
000270 0a 58 79 bf 3d 99 80 bd 52 48 d9 be cb 3f 9d bf
       -0.9739996 -0.06279228 -0.4243799 -1.2285093
000280 ed e5 c5 3d 61 c8 0d bd 1a 84 c6 be 40 2b 26 bf
       0.096629955 -0.034614924 -0.3877266 -0.64909744
000290 fa b1 f6 bd a2 58 91 bd 74 59 59 bf b0 b3 f1 bc
       -0.12045665 -0.070969835 -0.8490212 -0.029504627
0002a0 7e 27 e5 bd 59 74 11 bd b6 41 65 bd ef 6d 17 be
       -0.11189173 -0.03551135 -0.05597087 -0.1478803
0002b0 86 32 07 bf 09 89 ac be 20 f0 41 bf dc 4b 3a be
       -0.5281147 -0.336983 -0.75757027 -0.18193
0002c0 a6 8d 29 bd 5c 91 fa be 30 08 14 be 8c da 24 bf
       -0.041394852 -0.48939025 -0.14456248 -0.64395976
0002d0 cf 3d 84 be 01 3f ad be d9 f8 5d bd 1d d5 09 bf
       -0.25828406 -0.3383713 -0.054192398 -0.5384081
0002e0 73 83 60 bf d1 96 df 3c 96 e2 21 bd d6 f9 84 bf
       -0.87700576 0.027293595 -0.03952273 -1.0388744
0002f0 c6 05 e0 be 69 21 87 be 5a eb 70 3e e2 be 04 bf
       -0.43754405 -0.26392677 0.2352728 -0.51853764
000300 c9 29 3c bd 23 e3 a5 bd 91 bb be be 0c da a9 bc
       -0.045938287 -0.080999635 -0.37252477 -0.020733856
000310 01 a3 f8 be 4e 04 0f bf a7 eb 25 bf 8e e5 35 bf
       -0.48561862 -0.55865943 -0.648127 -0.710534
000320 ee c2 94 3e 6f ca 4c be 2b 02 4b be 2e 45 05 bf
       0.2905497 -0.19999097 -0.19825046 -0.52058685
000330 89 a2 16 bd 1c d5 ef bc dd 30 7b bd 8b 33 8d bc
       -0.0367761 -0.029276423 -0.061325897 -0.017236492
000340 f3 0f ec be 82 d9 23 bf 0e e4 8c be f8 a4 7f be
       -0.46105918 -0.64003766 -0.27517742 -0.24965274
000350 a0 d1 28 bf ee 58 19 bf 86 28 1d bf a0 56 21 b7
       -0.6594486 -0.5990132 -0.6138996 -9.616517e-06
000360 57 22 17 bd 0b 6b d2 be 7a 1a e3 3d 83 92 08 bf
       -0.036897983 -0.41097292 0.110890344 -0.5334856
000370 c4 d3 ef be 76 9f 07 bd 4e ba 49 bd b1 8e 8f be
       -0.46841252 -0.03311106 -0.04924994 -0.28038552
000380 a5 d0 0f bf fd d4 22 bf 19 bd 51 bf d8 2f 99 bd
       -0.5617774 -0.63606244 -0.81929165 -0.074798286
000390 61 8f b4 bd 11 46 ce be a8 70 da bc b5 b9 c1 be
       -0.0881641 -0.4028783 -0.026665047 -0.37836996
0003a0 01 24 af bd d1 49 a9 bd 3b ac 79 bf 62 02 e4 bd
       -0.08551789 -0.082660325 -0.9752843 -0.11133267
0003b0 d5 33 f7 be a2 b2 96 bd c4 22 de be 82 ca 44 bd
       -0.48281732 -0.0735829 -0.433859 -0.04804469
0003c0 18 b6 42 bb 69 92 f9 be 75 d0 47 bc 31 8a ea bd
       -0.0029710587 -0.48744515 -0.012195696 -0.11452139
0003d0 0b ed 86 bf 99 9d 59 be 4e ec c2 bd ad b4 ab bd
       -1.054109 -0.21251525 -0.09517728 -0.083840705
0003e0 a7 29 82 be 31 44 f6 be 87 2e b2 be 64 1b 2b bf
       -0.25422403 -0.480989 -0.34801123 -0.6683867
0003f0 bd b3 7a bd 18 ec b2 bd 67 f9 34 be 6c 1e 54 bd
       -0.061206568 -0.087364376 -0.17673264 -0.051786825
